checkpoint.pth (torch, 75302 bytes, 6 tensors)

fc1.weight f4 [128, 8]
0	0xbdae76fe	-0.0851879
1	0x3f161d0c	0.5863807
2	0xbeef091b	-0.46686634
3	0xbf4f51d1	-0.80984217
4	0xbe847906	-0.25873584
5	0x3d09b4f8	0.03361985
6	0x3aac03aa	0.001312365
7	0x3ea31fb4	0.31860125
8	0xbdf5cf49	-0.12002427
9	0x3e4b0624	0.19826561
10	0xbf1aa0a7	-0.60401386
11	0xbf1f5859	-0.6224418
12	0xbf446636	-0.7671846
13	0xbf5a40bc	-0.85255027
14	0xbe953fdf	-0.29150292
15	0xbe20bdc5	-0.15697391
16	0xbde57bde	-0.112052664
17	0xbe4bee47	-0.19915114
18	0xbf09943d	-0.5374182
19	0x3e8d52d3	0.27602252
20	0x3ece67f1	0.40313676
21	0x3f88322d	1.0640312
22	0x3d6ee29f	0.05832159
23	0x3e703bb6	0.23460278
24	0x3d60a7ff	0.054847714
25	0xbd33db2f	-0.0439102
26	0x3f3b42ff	0.731491
27	0xbfd13661	-1.634472
28	0xbe2b7fd9	-0.16747989
29	0x3bf6f9c5	0.007537099
30	0x3d793431	0.06084079
31	0x3e0bb1ae	0.13641998
32	0xbf05bcc0	-0.52241135
33	0xbfba39f2	-1.4548934
34	0xbed99c59	-0.42502096
35	0xbf104279	-0.5635143
36	0x3eac7492	0.33682686
37	0x3dc136a4	0.0943425
38	0x3e0eec7d	0.139574
39	0x3e395810	0.181
40	0x3eb06070	0.34448576
41	0xbf758edc	-0.9592111
42	0x3e6016ea	0.21883741
43	0xbf1c8c77	-0.6115183
44	0xbf025f12	-0.50926316
45	0xbeee4acc	-0.4654144
46	0x3e1799d6	0.14804778
47	0x3e0843bf	0.13307093
48	0xbe4acbea	-0.1980435
49	0xbe9a5fc9	-0.30151203
50	0x3f568e39	0.83810765
51	0x3f345f2d	0.70457727
52	0x3e7340f8	0.23755252
53	0xbde34f0b	-0.110990606
54	0x3ef456fa	0.47722608
55	0x3e26c5fc	0.16286463
56	0x3d727574	0.059194043
57	0xbf1835b0	-0.5945692
58	0xbf2014f7	-0.6253199
59	0xbf109fcd	-0.56493837
60	0x3f7cb959	0.9872032
61	0x3e18c5ea	0.14919248
62	0x3ce6c4bf	0.028169988
63	0x3e684b16	0.22684893
64	0x3e8aecff	0.2713394
65	0x3bd49d51	0.00648848
66	0x3ea5509d	0.32288066
67	0xbe877213	-0.2645422
68	0xbf826b2b	-1.0188955
69	0x3f6aa034	0.916507
70	0xbdbf4e8d	-0.09341154
71	0xbea9a8af	-0.33136508
72	0xbf0145e4	-0.5049727
73	0x3ec35f5a	0.38158685
74	0x3e97fca1	0.29684928
75	0x3f85f0d7	1.0464123
76	0xbe8c7360	-0.27431774
77	0xbf71dcaf	-0.9447736
78	0xbead3e9c	-0.3383683
79	0xbc3fa883	-0.011697891
80	0xbdb59b48	-0.08867508
81	0x3e21d768	0.15804827
82	0x3ef16291	0.47145513
83	0xbfad0290	-1.3516407
84	0xbed1386b	-0.40863356
85	0xbdc44080	-0.09582615
86	0x3b73a031	0.003717434
87	0xbb9b656d	-0.0047423155
88	0x3ea7c518	0.32767558
89	0xbecd7be2	-0.40133578
90	0x3f5a7bd4	0.85345197
91	0xbed0efd9	-0.4080799
92	0x3f1d3b9c	0.6141908
93	0x3e6aa09d	0.22912832
94	0xbf1aa025	-0.6040061
95	0x3e4676a7	0.193812
96	0xbd842a77	-0.06453412
97	0x3e38e22f	0.18055032
98	0xbd474d0f	-0.048657473
99	0xbf58f10e	-0.8474282
100	0x3f80376f	1.0016917
101	0x3f8cf40e	1.101198
102	0xbe9d2a8c	-0.30696523
103	0xbbeab055	-0.0071621337
104	0xbefd2747	-0.4944403
105	0xbf83ef7a	-1.0307457
106	0xbf7cad58	-0.98702
107	0x3cd39bb9	0.02583109
108	0x3eaa9dbd	0.3332347
109	0x3de013fc	0.10941312
110	0x3dbcce0b	0.09218987
111	0x3e59eedd	0.21282525
112	0xbe0a2248	-0.1348964
113	0x3f89076f	1.0705394
114	0x3e71ced4	0.23614055
115	0xbf129a09	-0.5726629
116	0xbf275961	-0.65370756
117	0xbe731c4a	-0.2374126
118	0x3e675450	0.22590756
119	0x3e062355	0.13099416
120	0x3c540f4a	0.012943098
121	0x3f34d5cb	0.7063872
122	0xbf15b86c	-0.5848453
123	0x3efab51c	0.489663
124	0xbdc2a31d	-0.09503768
125	0xbf58bafd	-0.8466032
126	0xbe999ae1	-0.30000976
127	0xbf41729d	-0.7556551
128	0xbf382be6	-0.71941984
129	0xbc6e1ec5	-0.014533703
130	0xbeb3ae75	-0.35094038
131	0xbe87955f	-0.2648115
132	0xbe9f38da	-0.31098062
133	0xbe058856	-0.1304029
134	0x3ebe4e90	0.37169313
135	0x3ce17f63	0.027526563
136	0x3e76a02d	0.2408454
137	0xbe0e4b9b	-0.13896029
138	0x3eb010a3	0.34387693
139	0x3e886fa2	0.2664767
140	0x3f05a262	0.522009
141	0x3f3b53d9	0.73174816
142	0x3ece5c7b	0.40304932
143	0xbe054b19	-0.13016929
144	0xbf1f8923	-0.6231863
145	0x3eba60ed	0.36402074
146	0x3f092b44	0.53581643
147	0x3d86ada2	0.065760866
148	0xbe18900c	-0.148987
149	0xbf3a48d2	-0.72767365
150	0xbdacdc64	-0.08440474
151	0xbf1999a9	-0.6000009
152	0x3caa54f2	0.020792458
153	0xbeb13a30	-0.34614706
154	0x3dd102a1	0.102055795
155	0xbf77ee17	-0.9684767
156	0xbe223586	-0.1584073
157	0xbe9720a0	-0.29517078
158	0x3e2da706	0.16958246
159	0x3cf16289	0.02946593
160	0x3a8a5c6e	0.0010556111
161	0xbcda9efd	-0.02668714
162	0xbfb35d55	-1.4012858
163	0xbfad0f5e	-1.3520315
164	0xbd36c9f7	-0.044626202
165	0x3cd9f706	0.026607048
166	0x3d88f900	0.06688118
167	0x3de7c914	0.113176495
168	0xbf2111c0	-0.6291771
169	0xbf710b1c	-0.94157577
170	0x3e872e06	0.264023
171	0x3cdba561	0.026812257
172	0x3f049b37	0.5179934
173	0x3e8263bf	0.25466725
174	0xbd8b8c61	-0.068138845
175	0x3e37a8ce	0.17935488
176	0x3dc81b0b	0.09770783
177	0xc029303d	-2.6435692
178	0x3e3ab539	0.18233193
179	0xbfb9c51d	-1.4513279
180	0xbe12df4c	-0.14342993
181	0xbe9bc3cc	-0.3042282
182	0x3e76388a	0.24045005
183	0x3d9878fb	0.0744495
184	0x3e430fb0	0.19048953
185	0xbef4c24a	-0.4780448
186	0xbe9b86ac	-0.30376184
187	0xbf4caeea	-0.799544
188	0xbf6d0dc0	-0.92599106
189	0x3da52c4b	0.08065089
190	0x3e3da957	0.1852163
191	0x3e20ec01	0.15715028
192	0xbe8d02e9	-0.27541283
193	0xbe3a8b9c	-0.18217319
194	0xbf8a3d87	-1.0800027
195	0xbf2ca7ad	-0.6744335
196	0x3dd55dee	0.10418306
197	0x3dd134f3	0.102151774
198	0x3e51dfe2	0.20495561
199	0x3e1bc257	0.15210854
200	0x3d2e0e98	0.042494386
201	0xbdeef0b1	-0.11667002
202	0xbf6f39e7	-0.93447727
203	0xbf9f909c	-1.2466006
204	0xbf2b17bd	-0.66833097
205	0x3e8b2349	0.27175358
206	0xbd56901a	-0.05238352
207	0x3eb6229a	0.35573274
208	0x3ee6418c	0.44971883
209	0xbed8f99d	-0.4237794
210	0x3e5099b8	0.20371139
211	0xbec7d07b	-0.39026245
212	0xbe4b0815	-0.19827302
213	0xbea76c18	-0.32699656
214	0x3da1487d	0.07875154
215	0x3dab1c04	0.08354953
216	0xbdd76ced	-0.10518823
217	0x3d1388a0	0.036018968
218	0x3f34113b	0.7033879
219	0xbf9946f1	-1.1974775
220	0xbe6697d7	-0.2251886
221	0xbe5a63e7	-0.21327172
222	0x3e974a11	0.29548696
223	0xbc7bbbc0	-0.015364587
224	0xbe8acdc4	-0.27110112
225	0x3eebbd6d	0.46042958
226	0xbe09ee10	-0.1346972
227	0xbedf97ed	-0.43670598
228	0xbee3d6ab	-0.44499716
229	0xbdabce95	-0.08389012
230	0x3cc5671a	0.024097014
231	0x3ec7e210	0.3903966
232	0x3e49bb86	0.19700441
233	0x3eb751ba	0.3580454
234	0x3ec80fa3	0.3907443
235	0xbf4648b8	-0.7745471
236	0xbeca0f1c	-0.39464653
237	0xbeb7898d	-0.3584713
238	0xbe6be756	-0.23037466
239	0x3e40c98f	0.18826889
240	0x3da91924	0.08256748
241	0x3f472821	0.77795607
242	0xbe116364	-0.14198071
243	0xbe1c667c	-0.1527347
244	0x3f264b69	0.64958817
245	0xbe96eed0	-0.29479074
246	0x3de81f48	0.113340914
247	0xbeeb3e9e	-0.4594621
248	0xbc87b5b6	-0.016566139
249	0xbca44e0a	-0.020056743
250	0xbd6a70bf	-0.05723643
251	0x3da3778e	0.079817876
252	0x3fe474bd	1.7848126
253	0xbd61910d	-0.05506997
254	0xbe902ca5	-0.2815906
255	0xbeb02915	-0.34406343

fc1.bias f4 [128]
0	0x3da48a86	0.08034234
1	0x3c663ba6	0.014052307
2	0xbe933866	-0.28753966
3	0xba94f1a9	-0.0011363524
4	0xbea2ec05	-0.31820694
5	0xbe27367a	-0.16329375
6	0x3eec4904	0.46149457
7	0x3b803fe2	0.0039138654
8	0xbc6464d1	-0.013940052
9	0x3e6f2acc	0.2335617
10	0x3e734be7	0.23759423
11	0x3ea4a17e	0.3215446
12	0xbd146977	-0.03623339
13	0xbea71945	-0.32636467
14	0x3d2643f9	0.040592168
15	0x3e8fe2f3	0.28102836
16	0xbccdcd4b	-0.025122305
17	0x3e7d6af2	0.24747828
18	0xbd32f329	-0.043688927
19	0xbebd4e63	-0.36973867
20	0x3c4d36ef	0.012525304
21	0xbd8f1734	-0.069868475
22	0x3c396757	0.011316142
23	0x3d8ff840	0.07029772
24	0xbebcc746	-0.36870784
25	0x3dd5c432	0.10437812
26	0xbe3e3d93	-0.18578176
27	0xbe0adc1c	-0.13560528
28	0x3e9cae78	0.3060186
29	0x3eca0eb8	0.39464355
30	0xbde08ac9	-0.10963971
31	0x3d60d739	0.054892752
32	0x3e8f321d	0.2796792
33	0x3e9dba3b	0.30806145
34	0x3e87a418	0.2649238
35	0xbe640102	-0.2226601
36	0x3e4d1797	0.2002853
37	0x3e88d985	0.26728454
38	0x3e2bc94c	0.16776007
39	0x3eb9b74c	0.36272657
40	0xbdc40579	-0.09571356
41	0xbdc9a3bf	-0.09845685
42	0xbd316a4c	-0.043314263
43	0xbd89f15e	-0.0673549
44	0x3eb80cd9	0.35947302
45	0x3f0491e9	0.5178514
46	0x3ebf10cf	0.3731751
47	0xbe0da149	-0.13831057
48	0x3f222639	0.63339573
49	0x3e848e71	0.25889924
50	0x3f055a9f	0.520914
51	0xbde3e362	-0.11127354
52	0xbf00361f	-0.5008258
53	0xbe2d97ad	-0.16952391
54	0x3eaf928d	0.34291497
55	0x3e2e2c31	0.17009045
56	0x3eb18d6e	0.34678215
57	0xbdb8fa9b	-0.09032174
58	0xbdb5c36a	-0.08875163
59	0xbe6097e7	-0.21932946
60	0xbe6d9f9f	-0.23205422
61	0x3e46a824	0.19400078
62	0x3e9addd5	0.3024737
63	0x3b279dc5	0.0025576216
64	0xbcc10a83	-0.023564583
65	0xbe36935f	-0.17829655
66	0x3e6483a7	0.22315846
67	0x3f0ce1a8	0.55031824
68	0xbd21c063	-0.039490115
69	0xbd841728	-0.06449729
70	0xbd66285b	-0.05619083
71	0xbe126fc5	-0.14300449
72	0x3e8dd7fc	0.27703846
73	0xbf074c2c	-0.52850604
74	0x3c6ba06b	0.014381508
75	0xbc09267c	-0.008370992
76	0xbdd2ee68	-0.10299379
77	0x3cffd9c3	0.031231767
78	0x3df7db83	0.121024154
79	0x3e9179b3	0.28413162
80	0xbd0e9953	-0.03481419
81	0x3d058db2	0.032605834
82	0xbcb28f94	-0.021796979
83	0xbeb5d92f	-0.3551726
84	0x3eda51bf	0.42640492
85	0x3e4e06a6	0.20119724
86	0xbca35d02	-0.01994181
87	0xbe088c44	-0.13334757
88	0x3d98c633	0.074596785
89	0xbda4d24e	-0.08047925
90	0xbe8c4f05	-0.27404037
91	0xbe88cf53	-0.26720676
92	0xbe315b69	-0.17320026
93	0x3c7a901e	0.015293149
94	0x3d6908b6	0.056893073
95	0x3d19eeec	0.03758137
96	0xbe1759f5	-0.1478041
97	0xbf02eb6b	-0.5114047
98	0xbe887f92	-0.26659828
99	0x3e480bef	0.19535802
100	0xbeea67f2	-0.4578243
101	0xbe7cf917	-0.24704395
102	0x3e56951a	0.20955315
103	0xbe4bda84	-0.19907576
104	0xbd52c859	-0.051460598
105	0xbe4ca443	-0.19984536
106	0xbe63d543	-0.22249322
107	0x3e8407f3	0.25787315
108	0xbdd84b92	-0.10561289
109	0x3e6bc573	0.2302454
110	0x3d09ffc0	0.033691168
111	0x3e2172f8	0.15766513
112	0xbd8c66f8	-0.06855577
113	0xbe330891	-0.17483737
114	0x3ee6cc44	0.45077717
115	0xbeb1eac4	-0.34749424
116	0xbd591496	-0.052998148
117	0xbd0b404b	-0.03399686
118	0x3b8613ae	0.0040917015
119	0x3e3e9116	0.18610033
120	0x3dac37ec	0.08409104
121	0x3e636f13	0.2221034
122	0x3f0001df	0.50002855
123	0xbe587157	-0.21136986
124	0x3df16c74	0.11788264
125	0xbea5160b	-0.3224338
126	0x3e03fad8	0.12888658
127	0xbe16a0e9	-0.1470982

fc2.weight f4 [128, 128]
0	0x3df01c1e	0.11724113
1	0xbdad21bb	-0.08453699
2	0x3ecab445	0.3959066
3	0xbed72922	-0.4202357
4	0x3decf143	0.115694545
5	0xbc91b7d9	-0.01778786
6	0xbd8a8e3a	-0.06765409
7	0xbbfd4336	-0.0077289594
8	0x3e00e25c	0.12586349
9	0x3df272aa	0.11838277
10	0x3d3693e0	0.04457462
11	0x3db23df8	0.08703226
12	0x3e01ae62	0.12664178
13	0x3e9b0e10	0.30284166
14	0x3e4e9799	0.20175017
15	0xbe107104	-0.14105612
16	0x3d2531d2	0.040330715
17	0xbd8756d7	-0.0660836
18	0xbe79158b	-0.24324624
19	0x3e221442	0.1582804
20	0xbe337a56	-0.17527136
21	0x3ce9c845	0.028537879
22	0xbf09bdc7	-0.538052
23	0xbdaf8927	-0.085710816
24	0x3ecf6391	0.4050565
25	0x3d69943a	0.057026125
26	0xbd1d086b	-0.038338106
27	0xbede16d2	-0.43376786
28	0x3e495f77	0.19665323
29	0x3e0654ad	0.13118239
30	0xbc3ce065	-0.011528109
31	0xbec1e332	-0.3786865
32	0x3c882ec7	0.016623868
33	0x3e901a58	0.281451
34	0xbdc25ff6	-0.09490959
35	0x3f05e452	0.52301514
36	0x3e9a4e7a	0.30137998
37	0xbf49b94f	-0.78798383
38	0x3e09e6c9	0.13466944
39	0xbeb6d34f	-0.3570809
40	0x3e4a395e	0.19748446
41	0xbcaa233f	-0.02076876
42	0x3e1dcaf8	0.15409458
43	0xbe31f78e	-0.17379591
44	0x3e5fd780	0.2185955
45	0x3d9831db	0.07431384
46	0x3d4f0097	0.050537672
47	0x3d99372b	0.074812256
48	0x3ee89d47	0.45432493
49	0x3e2a4187	0.16626559
50	0x3e19fcd8	0.15037858
51	0xbe359f46	-0.17736539
52	0xbe8553b7	-0.26040432
53	0x3e2db764	0.16964489
54	0xbd92d3fd	-0.0716934
55	0xbd86e81b	-0.06587239
56	0x3e0af55b	0.13570158
57	0xbdb57c12	-0.08861555
58	0xbda9bec1	-0.082883365
59	0x3e15f51b	0.14644282
60	0x3ed0247e	0.4065284
61	0xbf168514	-0.5879681
62	0xbe8de133	-0.27710876
63	0xbca79810	-0.020458251
64	0x3dee95e6	0.116496846
65	0x3c9c7506	0.01909877
66	0xbd86ecec	-0.06588158
67	0x3d83c38b	0.06433781
68	0x3dc75ee7	0.09734898
69	0xbab90b25	-0.0014117701
70	0x3bfbc973	0.0076839267
71	0xbd9d6883	-0.0768595
72	0x3e090f6d	0.1338479
73	0x3eaaf5bc	0.33390605
74	0x3da6a07a	0.08136077
75	0x3ea1fa26	0.3163616
76	0x3e3955ec	0.18099183
77	0xbeb9d7ca	-0.36297446
78	0xbe86af78	-0.26305747
79	0x3e64776b	0.2231118
80	0xbebcdd8c	-0.36887777
81	0xbeaf8865	-0.34283748
82	0x3c0e2322	0.0086753685
83	0xbe820882	-0.25397116
84	0x3e07e654	0.13271457
85	0x3db873ab	0.09006437
86	0xbd7b1354	-0.06129773
87	0xbe5375f6	-0.20650467
88	0x3d8124bc	0.06305835
89	0x3d15dee9	0.036589537
90	0x3e08d620	0.13362932
91	0xbef36ca9	-0.4754384
92	0xbe370962	-0.17874673
93	0xbef0e45c	-0.47049224
94	0xbf9e94fc	-1.2389216
95	0xbe800a32	-0.25007778
96	0x3e4630a9	0.193545
97	0x3e660758	0.22463739
98	0x3e2f4030	0.1711433
99	0x3e1e3c1f	0.15452622
100	0xbd8de91e	-0.06929229
101	0xbdc58e5e	-0.09646295
102	0x3e898ec4	0.26866734
103	0xbd24b9df	-0.040216323
104	0x3c86fb8c	0.016477369
105	0x3e57720c	0.21039599
106	0xbe342f36	-0.17596135
107	0xbda4d736	-0.08048861
108	0x3cea28f9	0.02858399
109	0x3e7d7360	0.24751043
110	0xbd5bbe98	-0.05364856
111	0x3dc172ff	0.09445762
112	0x3dd1e9c5	0.10249666
113	0x3e23c107	0.15991603
114	0xbda5cbd2	-0.08095516
115	0x3f132a29	0.57486206
116	0x3e460c7d	0.19340701
117	0x3dd4e7f8	0.10395807
118	0xbe1f7b8e	-0.15574476
119	0xbe726026	-0.2366949
120	0xbeab5951	-0.3346658
121	0x3e964fa2	0.2935763
122	0x3e372dbc	0.1788854
123	0x3d9c4a29	0.076313324
124	0xbef0ea7a	-0.4705389
125	0x3dbd682e	0.09248386
126	0xbe89e0a7	-0.2692921
127	0xbe832058	-0.25610614
128	0x3d71b7e5	0.059013266
129	0xbe4ad84e	-0.19809076
130	0x3ec525d3	0.3850542
131	0xbf11ad62	-0.56905186
132	0x3e2d266e	0.16909191
133	0xbe972737	-0.29522106
134	0x3d0aa010	0.033844054
135	0x3db838cc	0.08995208
136	0x3df2aa7d	0.11848924
137	0xbea797a0	-0.32732868
138	0xbcddbce9	-0.027067618
139	0x3ef53229	0.47889832
140	0x3e917e10	0.2841649
141	0x3ebc159c	0.36735237
142	0xbd723fa2	-0.059142716
143	0xbe552f67	-0.20818864
144	0xbccb5875	-0.024822453
145	0x3d49d471	0.049274866
146	0xbf015ebe	-0.5053519
147	0xbea374ad	-0.31924954
148	0xbe3cb5c3	-0.18428712
149	0x3cd4ffd3	0.026000893
150	0xbed7431c	-0.42043388
151	0xbde5c9f3	-0.112201594
152	0x3f24e02c	0.6440456
153	0x3ca36167	0.019943906
154	0xbe5dfd09	-0.21678557
155	0xbf11e0c9	-0.5698362
156	0x3c8d9064	0.017280765
157	0x3bf5c2f4	0.007500047
158	0x3cf3fe07	0.029784216
159	0xbe607d4e	-0.219228
160	0xbd815208	-0.06314474
161	0x3e927a49	0.2860892
162	0x3b98ebab	0.0046667657
163	0x3f37100e	0.7150887
164	0x3e46fb14	0.19431716
165	0xbf5105c8	-0.81649446
166	0xbec12ab7	-0.377279
167	0xbe903d35	-0.28171697
168	0x3e297606	0.16548929
169	0x3d5254b3	0.051350307
170	0x3e4ed0bd	0.20196815
171	0xbf0694cd	-0.525708
172	0x3de55143	0.1119714
173	0x3e1def55	0.15423329
174	0x3ae31a74	0.0017326609
175	0x3c3277ad	0.010892791
176	0x3e909599	0.28239134
177	0x3d7598e3	0.059960257
178	0xbd047e9c	-0.032347307
179	0xbb413920	-0.0029483512
180	0x3d9a982d	0.075485565
181	0xbe8f9e64	-0.2805053
182	0xbdb58fb7	-0.08865302
183	0xbeb3b1f3	-0.35096702
184	0x3e1203d1	0.14259268
185	0x3bd6af46	0.006551656
186	0xbe3bbaf2	-0.18333033
187	0x3ce288ea	0.027653176
188	0x3e0dccc1	0.13847639
189	0xbeff25bd	-0.4983348
190	0xbe7e6a3f	-0.24845217
191	0x3e6d3596	0.23164973
192	0xbdf157c8	-0.11784321
193	0xbe07025d	-0.13184495
194	0x3ddc0a8b	0.107441984
195	0xba92df44	-0.0011205454
196	0x3d927850	0.07151854
197	0x3d9f57c9	0.077804156
198	0xbe3f66ff	-0.18691634
199	0x3e698125	0.22803171
200	0x3e906c22	0.282075
201	0x3e7492d3	0.23884134
202	0x3e2e0c6e	0.16996929
203	0x3da87c47	0.08226829
204	0x3d8d6fc2	0.06906082
205	0xbeab50c6	-0.33460063
206	0xbe8cc9d9	-0.27497748
207	0x3e07e3a4	0.13270432
208	0xbf22b130	-0.63551617
209	0xbebc7469	-0.36807564
210	0x3ddfa002	0.10919191
211	0x3d36aa6c	0.04459612
212	0x3cb55dfe	0.022139546
213	0x3e232961	0.15933754
214	0x3d920bfb	0.07131191
215	0x3e24bbd8	0.16087282
216	0x3d64cb1f	0.055857774
217	0x3b91a592	0.0044447863
218	0x3e2d0165	0.16895063
219	0xbe562a38	-0.20914543
220	0xbebb5537	-0.3658845
221	0xbf11764c	-0.5682113
222	0xbff2a3e8	-1.895627
223	0x3de29a54	0.11064592
224	0x3ea09c8e	0.31369442
225	0x3e99c943	0.30036363
226	0x3e3634ed	0.17793627
227	0x3d429a3f	0.04751038
228	0x3b703d74	0.0036657723
229	0xbf11d7db	-0.56969994
230	0x3ea35a4a	0.31904823
231	0xbe7241a7	-0.23657857
232	0x3e74f88d	0.2392294
233	0x3e9fdb08	0.31221795
234	0xbe6bfede	-0.23046443
235	0xbd90cb90	-0.070700765
236	0x3e1d19d9	0.15341891
237	0x3e9ff491	0.31241277
238	0x3e76bd04	0.24095541
239	0x3eb9fdf9	0.36326578
240	0x3df1d61b	0.118084155
241	0xbc0c644b	-0.008568834
242	0x3ccd5fbb	0.025070062
243	0x3f37c39d	0.7178286
244	0xbe341d1e	-0.17589232
245	0x3e0a99cd	0.13535233
246	0xbdd35d22	-0.10320498
247	0xbf4c7e07	-0.798798
248	0xbef54bc3	-0.47909364
249	0x3ead1d51	0.3381143
250	0x3daebe1f	0.085323565
251	0x3e0b34cb	0.13594358
252	0xbf108be6	-0.5646347
253	0x3ce9ba96	0.028531354
254	0xbe3ccf2f	-0.1843841
255	0xbdda3800	-0.106552124

fc2.bias f4 [128]
0	0x3e1ab79e	0.15109107
1	0x3e2da4dd	0.16957422
2	0x3e059d3b	0.1304826
3	0x3da0a3ab	0.07843717
4	0xbc7f46ae	-0.015580816
5	0x3f13c565	0.57723075
6	0xbc5ce776	-0.013482919
7	0x3d0dd67c	0.034628376
8	0x3d1711a9	0.036882076
9	0x3cbd860f	0.023135213
10	0x3e20aac4	0.15690142
11	0xbce6dd0b	-0.028181573
12	0x3e66a002	0.22521976
13	0xbce6b226	-0.02816112
14	0x3d9c4901	0.07631112
15	0x3ecfacc4	0.40561497
16	0x3de6603c	0.11248824
17	0x3e9c2b65	0.30501857
18	0x3d8392ea	0.06424506
19	0x3dc40f9b	0.09573289
20	0x3e39e6e2	0.18154481
21	0x3d19dc3c	0.037563547
22	0xbd002621	-0.031286363
23	0xbc884abc	-0.016637199
24	0x3d709012	0.058731146
25	0x3e576d3d	0.21037765
26	0x3b0403f6	0.0020143962
27	0x3e3a0ecb	0.18169706
28	0xbdc52f7c	-0.096281976
29	0xbdbffe1e	-0.09374641
30	0x3e44ef0a	0.19231811
31	0x3c1738bd	0.009229836
32	0x3cb88599	0.022524642
33	0x3d11fefa	0.035643555
34	0xbd77787f	-0.06041765
35	0x3e7d7e9a	0.24755326
36	0x3de0b308	0.109716475
37	0x3e104995	0.1409057
38	0xbb0e854c	-0.0021746932
39	0xbdb222c3	-0.086980365
40	0x3d62f80c	0.055412337
41	0xbe9b0889	-0.3027995
42	0x3d732718	0.059363455
43	0x3e23a7d6	0.15981993
44	0xbe6895fd	-0.22713466
45	0x3d21395e	0.03936135
46	0x3b6a853a	0.0035784976
47	0x3e06c4d1	0.13161017
48	0x3e427ece	0.18993685
49	0x3d48d02e	0.04902666
50	0x3cceb7b9	0.02523409
51	0x3c8c3c23	0.01711852
52	0x3e8cf06d	0.2752718
53	0x3e9bc3a2	0.30422693
54	0x3e4c8cf6	0.19975647
55	0x3e186231	0.14881207
56	0x3dc795ed	0.09745393
57	0x3c59c6ba	0.013292009
58	0xbd3312fe	-0.043719284
59	0x3e0e69c4	0.13907534
60	0x3dc04385	0.09387878
61	0x3c678394	0.014130492
62	0xbd7efb58	-0.06225142
63	0xbdd768e3	-0.105180524
64	0x3db5a334	0.08869019
65	0x3dfdd148	0.12393433
66	0x3e3f8e92	0.1870673
67	0xbda014c0	-0.07816458
68	0xbcc17105	-0.023613462
69	0x3c852d03	0.016256815
70	0x3e08cab3	0.13358574
71	0x3e58b74c	0.21163672
72	0x3d53ee5c	0.05174099
73	0xbd7814b9	-0.060566638
74	0x3e1c2315	0.15247758
75	0x3d45c624	0.048284665
76	0xbd7c65bd	-0.061620463
77	0x3eba2a23	0.36360273
78	0x3dbff1db	0.09372302
79	0x3d20fa7f	0.03930139
80	0xbdd00576	-0.101572916
81	0xbe2cad8d	-0.1686308
82	0xbd6c081b	-0.057624917
83	0x3d84e1ee	0.06488405
84	0xbcec6e35	-0.028861145
85	0xbd97074d	-0.073744394
86	0xbbc524bc	-0.006016342
87	0x3ea57ce8	0.32321858
88	0xbd1c2ecc	-0.038130566
89	0x3d82c833	0.06385841
90	0x3e46a56c	0.19399041
91	0x3d646b21	0.05576623
92	0x3d456f6d	0.048201967
93	0x3e073a7b	0.13205902
94	0x3e147991	0.14499499
95	0x3dc19a5c	0.0945327
96	0x3dd43698	0.103619754
97	0x3de670e0	0.11251998
98	0x3e34001d	0.17578168
99	0xbb9c7eb8	-0.0047758482
100	0xbdd73086	-0.10507302
101	0x3e44fced	0.19237109
102	0x3d8a7aa5	0.06761674
103	0xbdbb2701	-0.09138299
104	0x3e804752	0.25054413
105	0x3c7b8b85	0.015353088
106	0xbc17f5e2	-0.009274932
107	0xbebe5ae1	-0.3717871
108	0xbd98fba3	-0.07469871
109	0x3da9a8f9	0.08284182
110	0x3c4697ab	0.012121121
111	0x3f121bc1	0.570736
112	0x3eb727f3	0.35772666
113	0xbe707b00	-0.23484421
114	0x3d7b86e1	0.061407927
115	0x3ebdfbf3	0.37106284
116	0x3e34b8d1	0.17648627
117	0xbe10104e	-0.1406872
118	0x3c3b34c5	0.011426155
119	0x3e667f25	0.2250944
120	0x3e6ccc9e	0.2312493
121	0x3e321fd0	0.17394948
122	0x3c81dae8	0.015851453
123	0xbcdc4801	-0.026889803
124	0x3e91daeb	0.28487334
125	0x3ea4ca9c	0.3218583
126	0x3d87422c	0.06604418
127	0x3e19358a	0.1496183

fc3.weight f4 [4, 128]
0	0xbceb436d	-0.028718675
1	0xbf37f9cc	-0.71865535
2	0x3ea61d31	0.32444146
3	0xbf39cdc8	-0.7257962
4	0xbeb6bf1a	-0.35692674
5	0x3f5b3b46	0.8563732
6	0x3f538954	0.8263142
7	0x3c991085	0.018684635
8	0xbc6dc7d8	-0.0145129785
9	0xbdda9433	-0.10672798
10	0x3f08eab8	0.5348315
11	0x3db2178e	0.08695899
12	0xbf897fd5	-1.0742136
13	0xbe8193a4	-0.25307953
14	0xbdd3e812	-0.10346998
15	0xbf7e2dd4	-0.9928868
16	0xbe9de3ac	-0.30837762
17	0xbe9ac00e	-0.3022465
18	0xbc0ec42d	-0.008713764
19	0xbec97466	-0.39346617
20	0xbec1304d	-0.37732163
21	0xbe9613b7	-0.29311916
22	0x3cc98035	0.024597267
23	0x3d861fc7	0.0654903
24	0xbf1d4a7a	-0.6144177
25	0xbecf7942	-0.405222
26	0x3bd9ad2a	0.006642957
27	0x3f88da39	1.0691596
28	0xbe263851	-0.1623242
29	0x3d71d1e2	0.05903805
30	0xbf8fd72c	-1.123754
31	0xbea17d52	-0.31540924
32	0x3ed93cfd	0.42429343
33	0xbe970f65	-0.29503933
34	0x3be006d7	0.006836753
35	0x3fa2c1aa	1.2715352
36	0xbeba572f	-0.3639464
37	0xbb0cadf7	-0.0021465996
38	0xbeb0390e	-0.3441853
39	0xbd6a48dd	-0.057198394
40	0x3f56a490	0.8384485
41	0xbe0c293b	-0.13687603
42	0xbec4e34e	-0.3845467
43	0xbf5a6073	-0.8530342
44	0xbbdd042f	-0.0067448835
45	0x3e0ac8dd	0.13553186
46	0xbca1cf50	-0.019752175
47	0xbf1604ac	-0.5860088
48	0x3c507624	0.012723479
49	0xbe7b2b1e	-0.24528167
50	0xbf198285	-0.5996478
51	0xbead0336	-0.33791512
52	0x3eab7ba9	0.33492783
53	0xbf28a927	-0.65883106
54	0xbe429472	-0.1900194
55	0xbd52a726	-0.051428936
56	0xbe7be33c	-0.24598402
57	0xbef12a18	-0.47102427
58	0x3f061b01	0.52384955
59	0xbecf6f80	-0.40514755
60	0xbf079907	-0.52967876
61	0xbed7b023	-0.4212657
62	0x3d66a043	0.05630518
63	0xbd930dfc	-0.07180402
64	0xbfde3538	-1.7359991
65	0xbef2e0d2	-0.4743715
66	0x3fb10f2c	1.3832755
67	0x3ca23ebf	0.01980531
68	0x3d38bd7d	0.045102585
69	0x3f26fc68	0.6522889
70	0x3f5bec70	0.8590765
71	0x3fa31129	1.2739612
72	0xbe6301fd	-0.22168727
73	0xbda41965	-0.08012656
74	0xbe395b9e	-0.18101355
75	0x3d4e522e	0.05037134
76	0xbe88f1b1	-0.26746896
77	0x3f90fe46	1.1327598
78	0x3df4f8d9	0.119615264
79	0xbec2b6ad	-0.38029996
80	0x3d82bb8a	0.063834265
81	0xbee99d97	-0.45628044
82	0xbe0498f9	-0.1294898
83	0xbeb6b701	-0.35686496
84	0xbe4269d2	-0.1898568
85	0x3b2bf4c0	0.0026238412
86	0x3db146c8	0.086560786
87	0x3f6f0df2	0.93380654
88	0xbe9fa89b	-0.31183323
89	0xbe91f5a6	-0.28507727
90	0xbf5f3cec	-0.87202334
91	0x3e885952	0.26630646
92	0xbdaa7e1a	-0.08324833
93	0xbcc26fb2	-0.023734901
94	0x3d98da18	0.07463473
95	0x3fdcf9ef	1.7263774
96	0xbe51e60a	-0.20497909
97	0xbe4a72f0	-0.19770408
98	0xbee17c51	-0.44040158
99	0xbe2e640d	-0.17030354
100	0xbd6a959d	-0.05727159
101	0xbf1fd574	-0.6243508
102	0xbec70ff6	-0.38879365
103	0x3cf9e90f	0.030506639
104	0xbe62f609	-0.22164167
105	0x3f50c07b	0.815437
106	0x3cd69155	0.026192347
107	0xbe787b34	-0.24265748
108	0xbc78b073	-0.0151787875
109	0xbe668b39	-0.22514047
110	0x3d627086	0.055283092
111	0x3f6983e0	0.9121685
112	0xbefeafbf	-0.4974346
113	0xbf33bf8b	-0.70214146
114	0xbe608244	-0.21924692
115	0x3ed0bd34	0.4076935
116	0xbe898e1f	-0.26866242
117	0xbecf2ac2	-0.4046231
118	0xbf2d9993	-0.6781246
119	0xbe1a27d7	-0.1505426
120	0x3f879308	1.0591745
121	0xbe8bd634	-0.27311862
122	0xbc0d5aae	-0.008627577
123	0x3ca40010	0.020019561
124	0x3f9ee031	1.2412168
125	0x3ed2c493	0.411656
126	0xbfabc902	-1.3420718
127	0x3f4b163e	0.79330814
128	0xbf0f65f1	-0.56014925
129	0xbeba118d	-0.36341515
130	0x3fc71422	1.5553019
131	0x3e2c4831	0.16824414
132	0xbe8da44a	-0.27664405
133	0x3f923ee1	1.1425439
134	0x3f53ed37	0.82783836
135	0x3d6f6ce9	0.058453474
136	0xbc0c028f	-0.008545532
137	0xbeb1b52c	-0.34708536
138	0x3f433c1a	0.7626358
139	0xbef11722	-0.4708796
140	0xbf5f2489	-0.87165123
141	0xbeb672aa	-0.35634357
142	0xbf0b6457	-0.5444998
143	0xbf5f77cf	-0.8729219
144	0xbea33b75	-0.318813
145	0xbe65922d	-0.22419043
146	0x3cedea2a	0.029042322
147	0xbf005fc8	-0.5014615
148	0xbf375993	-0.71621054
149	0xbee7c614	-0.4526831
150	0xbe1811dd	-0.14850564
151	0x3c8afac3	0.016965276
152	0xbebe5544	-0.37174428
153	0xbddb9e5b	-0.10723563
154	0xbc72d522	-0.014821323
155	0x3f5d1625	0.86361915
156	0x3ec8dee1	0.39232543
157	0x3db08314	0.08618751
158	0xbf25a2eb	-0.6470172
159	0xbec388d3	-0.38190326
160	0x3f504c68	0.81366587
161	0xbec3e4ed	-0.38260594
162	0x3cf9f5cb	0.030512711
163	0x3fab20ed	1.3369423
164	0xbe960dc9	-0.29307392
165	0xbeba5552	-0.3639322
166	0xbefee427	-0.4978344
167	0xbce27e2c	-0.027648054
168	0x3f9c1bd7	1.2195996
169	0xbf23fc36	-0.6405672
170	0xbeb5aa5c	-0.35481536
171	0xbe9929d0	-0.29914713
172	0xbeef4d45	-0.4673864
173	0xbe3ba8aa	-0.18326059
174	0x3d978831	0.07399023
175	0xbf0335cb	-0.51253957
176	0x3e89b5ea	0.26896602
177	0xbebfba05	-0.3744661
178	0xbe963ada	-0.29341775
179	0xbef2d6d3	-0.47429523
180	0xbd4fca6a	-0.050730146
181	0x3dd54dc3	0.104152225
182	0xbe9304cb	-0.28714594
183	0xbef86a7b	-0.48518738
184	0xbec7b670	-0.39006376
185	0xbf3ae00a	-0.72998106
186	0x3eec2fb0	0.46130133
187	0xbf13375d	-0.5750635
188	0xbf39c1b5	-0.725612
189	0x3e290229	0.1650473
190	0x3d8e6f3f	0.06954812
191	0x3d2f1d3d	0.042752493
192	0xbf91110c	-1.1333327
193	0xbeccc185	-0.39991394
194	0x3f850d49	1.0394679
195	0xbd2e94e8	-0.042622477
196	0x3e95d97c	0.2926749
197	0x3f38ddb7	0.7221331
198	0x3f4a16ba	0.7894093
199	0x3f8b3d69	1.0878116
200	0xbe9ffda7	-0.3124821
201	0x3cf42f66	0.029807758
202	0xbeb1f415	-0.34756532
203	0x3cbe2fd9	0.023216175
204	0xbf0834b8	-0.5320544
205	0x3f8d4cc4	1.1039052
206	0x3e7c9108	0.246647
207	0xbe5f7679	-0.21822537
208	0x3ded2058	0.11578435
209	0xbeb1bba3	-0.34713468
210	0xbe9c0d90	-0.30479097
211	0xbeb3e52f	-0.3513579
212	0xbd3a2ae7	-0.04545107
213	0x3d515bcf	0.051112946
214	0xbe8f6e89	-0.2801402
215	0x3f1fd23e	0.6243018
216	0xbec1b756	-0.37835187
217	0xbecc0856	-0.3985011
218	0xbf11186c	-0.5667789
219	0xbde6017d	-0.112307526
220	0x3e5fa34c	0.21839637
221	0xbf03c899	-0.5147796
222	0xbe17f9e3	-0.14841418
223	0x4000adbb	2.0106037
224	0xbe998862	-0.29986864
225	0xbeb01a3f	-0.34395024
226	0xbed10219	-0.40821913
227	0xbeb5389f	-0.3539476
228	0x3d9d856d	0.076914646
229	0xbebf0df5	-0.37315336
230	0xbe7bcc0a	-0.24589553
231	0xbe8e18b0	-0.2775321
232	0xbf15e05c	-0.5854547
233	0x3f6d6fb9	0.927486
234	0x3c2135d6	0.009839496
235	0xbf438f5b	-0.7639062
236	0x3d1d17ea	0.038352884
237	0xbea3487a	-0.31891233
238	0x3d15ce09	0.036573444
239	0x3f6ef183	0.9333727
240	0xbef164e7	-0.47147295
241	0xbef67833	-0.4813858
242	0xbe9b382f	-0.30316302
243	0x3eb165b3	0.34647903
244	0xbe836601	-0.2566376
245	0xbe9dd66c	-0.30827653
246	0xbee149c2	-0.44001585
247	0xbf053f0b	-0.5204932
248	0x3fac0394	1.3438592
249	0xbe8e6cec	-0.27817476
250	0xbf6ad4e4	-0.91731095
251	0xbe86e9cd	-0.2635025
252	0x3f903bc2	1.1268237
253	0xbb400ac1	-0.0029303285
254	0xbfc60912	-1.5471518
255	0x3f564b57	0.8370871

fc3.bias f4 [4]
0	0xbb309008	-0.0026941318
1	0x3e134092	0.143801
2	0x3d8c13b0	0.068396926
3	0x3dad6b83	0.08467772
