checkpoint.pth (torch, 22566 bytes, 6 tensors)

fc1.weight f4 [64, 8]
-0.15994056 -0.6403251 -1.6859041 0.110780895 0.39092922 0.20262153 0.11229291 0.30287796
-0.20633055 -0.22421013 0.2894838 -1.083272 -0.37846303 -0.8354449 -0.4989892 0.36249527
0.004013097 -0.049748152 0.4903379 -0.16912964 0.12714222 0.90858144 0.21636252 0.4231123
0.2763171 -0.53541625 0.6548325 -0.60848176 -0.9206937 -0.28492498 -0.34713504 0.4439081
-0.009555866 -0.2666002 -0.3273289 -0.87299186 0.02449444 -0.059251644 0.19825317 -0.5652147
0.015377785 0.040867213 0.40372506 0.030657688 -0.70065796 -0.2905115 0.3860941 0.65988296
-0.47461814 -2.9087856 -0.2957778 -0.7243226 -0.057306897 -0.20841067 0.33751202 -0.065371215
0.0896635 0.19749798 1.1292003 -0.99492764 0.2919594 0.08151998 -0.12913257 0.46973634
1.4225436 0.010517044 0.4689061 -0.4484848 -0.37232345 0.21151082 -0.14245626 -0.12968536
0.22243564 0.2100802 0.18637729 0.68370056 -1.2855101 -0.80164677 -0.34601068 -1.4283085
-0.43159962 0.80241036 0.78449327 -1.4132361 -0.54828656 0.24647316 0.271388 -0.40320048
0.2800873 -1.4772087 0.35992867 -0.17837898 0.50650376 0.4143641 0.097999945 -0.08914484
0.10414972 0.1855005 0.18531542 -0.16142997 0.19409914 0.9065417 0.6536649 -0.20663676
-0.8377256 -0.13952342 -0.25038806 -0.92709833 1.0064257 0.32154104 0.008941842 -0.44369307
-0.44866675 0.7072365 0.28608066 -0.7064809 -0.20099966 0.08723363 0.5661587 0.18833949
0.19233467 0.09694169 0.107473396 0.42056638 -0.17025062 -0.28325218 -0.7736671 -0.45351604
-0.22619982 0.10906362 -0.21230878 -0.09918428 -1.0143814 -0.41031992 0.2398468 0.24807084
0.044899385 -0.018450595 -0.32029593 0.6022532 0.22318968 0.7384962 0.7292999 -0.113920026
-0.70247203 -0.14313605 -0.14546318 1.1023049 -0.9380277 -0.40694472 -0.8181283 -0.14419861
-3.6954218e-05 0.49729118 0.42217922 -0.8586488 0.15856186 -1.0643532 0.3167808 0.083102755
-0.4685439 -1.0401428 -0.8421603 -1.2005275 -0.5675698 -0.19622727 0.3598944 -0.05464147
-0.6090376 -0.94961536 0.45790783 -0.5415567 0.21603534 0.12399979 0.25697443 0.34422022
0.5202284 -1.3561704 0.5775985 0.0746165 -0.5728058 0.038846314 0.22133131 0.30876988
1.1384438 -1.357968 -0.2740146 -0.7763988 -0.69159853 -0.16102909 0.25938267 0.2257838
-0.90415263 0.1912828 -0.76702774 -0.7120767 -0.39045975 -0.1315391 -0.029783173 0.21603744
-0.42066896 -0.87772286 -0.9118038 0.770474 0.38531774 0.56358445 0.10753902 0.2673576
0.3089359 -0.0023597092 0.21655397 -0.36605835 -0.08812487 0.0062017213 -0.015319107 0.37268367
0.29748297 -1.9356774 0.73480386 -1.3487924 -0.114306636 -0.13784592 -0.102563396 0.3435832
-1.0837666 -0.25598353 -0.40167946 0.13776593 -0.7872008 0.08132202 0.36295825 0.34806752
-0.45402664 0.08999999 1.2016791 -1.0788233 1.907697 0.0044035143 0.23776576 0.24233651
0.3255261 -0.20982127 -0.91304296 -0.4810345 -0.49008095 -1.0993414 -0.029198945 -0.04847453
0.8261506 -0.12642896 -1.1101115 1.0230076 1.6286069 0.29020247 0.006544351 -0.09963287
00000000: 75c7 23be 59ec 23bf b5cb d7bf 18e1 e23d
00000010: e027 c83e 057c 4f3e d3f9 e53d d212 9b3e
00000020: 5148 53be 5797 65be 3837 943e a8a8 8abf
00000030: e8c5 c1be b8df 55bf 837b ffbe fb98 b93e
00000040: 4c80 833b b8c4 4bbd 920d fb3e 5230 2dbe
00000050: 9231 023e cb98 683f 238e 5d3e 2da2 d83e
00000060: 6f79 8d3e 0a11 09bf 1aa3 273f 76c5 1bbf
00000070: 95b2 6bbf b0e1 91be afbb b1be ec47 e33e
00000080: 3590 1cbc d27f 88be a797 a7be 657c 5fbf
00000090: 90a8 c83c dab1 72bd e102 4b3e e9b1 10bf
000000a0: 1bf3 7b3c 6164 273d 0db5 ce3e d525 fb3c
000000b0: 525e 33bf ecbd 94be 20ae c53e 17ee 283f
000000c0: 2601 f3be 8b29 3ac0 3070 97be 356d 39bf
000000d0: a3ba 6abd 9b69 55be 60ce ac3e 58e1 85bd
000000e0: 7fa1 b73d e93c 4a3e a389 903f 94b3 7ebf
000000f0: b47b 953e f3f3 a63d 543b 04be 4881 f03e
00000100: e915 b63f ae4f 2c3c 7614 f03e cd9f e5be
00000110: 2ea1 bebe 4b96 583e 0ee0 11be 3dcc 04be
00000120: 2bc6 633e 441f 573e b0d9 3e3e 0007 2f3f
00000130: 988b a4bf b938 4dbf 5028 b1be d0d2 b6bf
00000140: a0fa dcbe c46a 4d3f 8dd4 483f ece4 b4bf
00000150: 825c 0cbf 7663 7c3e 5ef3 8a3e 4b70 cebe
00000160: 9a67 8f3e 2d15 bdbf 9248 b83e fba8 36be
00000170: 3baa 013f 8827 d43e 32b4 c83d 9291 b6bd
00000180: 734c d53d d8f3 3d3e 53c3 3d3e e64d 25be
00000190: edc1 463e 1e13 683f 9556 273f 9698 53be
000001a0: 2f75 56bf 3adf 0ebe dd32 80be 5156 6dbf
000001b0: 8fd2 803f 07a1 a43e ce80 123c bd2b e3be
000001c0: a6b7 e5be 740d 353f 2a79 923e efdb 34bf
000001d0: dbd2 4dbe 8ca7 b23d c7ef 103f 11dc 403e
000001e0: 61f3 443e 5d89 c63d 031b dc3d 7a54 d73e
000001f0: 2e56 2ebe 6e06 91be 0c0f 46bf 4133 e8be
00000200: eda0 67be bf5c df3d 7967 59be 2121 cbbd
00000210: 40d7 81bf 7415 d2be 669a 753e 4806 7e3e
00000220: 6be8 373d b425 97bc d4fd a3be 442d 1a3f
00000230: d68b 643e 160e 3d3f 66b3 3a3f e74e e9bd
00000240: 35d5 33bf 4292 12be 4df4 14be 5418 8d3f
00000250: 9522 70bf 0f5b d0be db70 51bf cda8 13be
00000260: 4aff 1ab8 f39c fe3e e027 d83e 68d0 5bbf
00000270: 0a5e 223e ba3c 88bf 1831 a23e c731 aa3d
00000280: fce4 efbe 6623 85bf d197 57bf e3aa 99bf
00000290: 414c 11bf cdef 48be 1444 b83e bccf 5fbd
000002a0: e3e9 1bbf fe19 73bf e572 ea3e 76a3 0abf
000002b0: 5e38 5d3e 9af3 fd3d 2792 833e a23d b03e
000002c0: b02d 053f fe96 adbf 7fdd 133f 89d0 983d
000002d0: 67a3 12bf 501d 1f3d ada4 623e 1617 9e3e
000002e0: 87b8 913f e5d1 adbf a44b 8cbe 12c2 46bf
000002f0: 9a0c 31bf cfe4 24be cecd 843e de33 673e
00000300: 8c76 67bf a3df 433e ee5b 44bf a94a 36bf
00000310: 57ea c7be 30b2 06be d7fb f3bc eb38 5d3e
00000320: ec61 d7be 72b2 60bf f96b 69bf c93d 453f
00000330: 5e48 c53e 1247 103f 6b3d dc3d 18e3 883e
00000340: d92c 9e3e 5aa5 1abb 53c0 5d3e 006c bbbe
00000350: d07a b4bd cf37 cb3b fefc 7abc 65d0 be3e
00000360: b04f 983e 47c4 f7bf 1b1c 3c3f 3ba5 acbf
00000370: 9919 eabd 7b27 0dbe c20c d2bd 23ea af3e
00000380: ddb8 8abf 4610 83be eea8 cdbe 8312 0d3e
00000390: fe85 49bf 298c a63d aad5 b93e e835 b23e
000003a0: 2e76 e8be ea51 b83d 9fd0 993f e216 8abf
000003b0: 6a2f f43f 5b4b 903b de78 733e 1027 783e
000003c0: 5bab a63e 63db 56be 2fbd 69bf 274a f6be
000003d0: e4eb fabe 38b7 8cbf a032 efbc 3b8d 46bd
000003e0: 9b7e 533f 9876 01be 2218 8ebf eaf1 823f
000003f0: 3176 d03f 6b95 943e ff71 d63b 510c ccbd

fc1.bias f4 [64]
-0.49193072 -0.5483536 -0.11825823 -0.13618562 -0.35627422 -0.005450951 0.8395818 0.11423569
0.07381623 0.25564748 0.93080777 -0.42430082 -0.3555863 -0.6150574 1.0035906 0.19861846
-0.09234139 -0.28548515 0.72661316 0.6135086 -0.31516808 -0.56594473 -0.31255352 -0.2582672
-0.2108526 -0.67000896 0.08943358 -0.27494752 -0.25077108 0.06040137 -0.22399399 -0.18281373
0.11108537 0.29128358 -0.22300428 0.05136505 0.19475476 -0.22521938 -0.33543846 -0.32097757
0.17944199 -0.18873647 0.28805915 0.48591927 0.20298535 -0.20873179 0.34115157 0.00374228
-0.20991193 -0.4548163 -0.06835106 0.5785203 -0.03460351 0.19442785 -0.37797478 0.13492481
0.26397437 0.123743705 0.030534254 0.12980102 -0.103471264 -0.31144378 0.44208422 -0.3163628
00000000: 58de fbbe e760 0cbf 5f31 f2bd 3e74 0bbe
00000010: 9369 b6be e49d b2bb d5ee 563f 67f4 e93d
00000020: f72c 973d 3ae4 823e 6b49 6e3f f53d d9be
00000030: 680f b6be 6774 1dbf a875 803f a362 4b3e
00000040: 7c1d bdbd 1c2b 92be 5203 3a3f e60e 1d3f
00000050: b65d a1be c1e1 10bf 0407 a0be 993b 84be
00000060: bee9 57be b585 2bbf f428 b73d ecc5 8cbe
00000070: 1165 80be 6d67 773d ae5e 65be 8633 3bbe
00000080: ba80 e33d 1f23 953e 3c5b 64be 2964 523d
00000090: cb6d 473e e99f 66be 97be abbe 2c57 a4be
000000a0: a4bf 373e 2244 41be 7d7c 933e 69ca f83e
000000b0: 64db 4f3e c9bd 55be 6bab ae3e 0a41 753b
000000c0: 27f3 56be afdd e8be a4fb 8bbd e819 143f
000000d0: 69bc 0dbd 1818 473e e985 c1be bb29 0a3e
000000e0: a627 873e 576d fd3d f922 fa3c 8fea 043e
000000f0: bee8 d3bd 8f75 9fbe dd58 e23e 4efa a1be

fc2.weight f4 [64, 64]
1.0482903 0.48760983 0.13802844 0.5028501 0.25165835 -0.0965344 -0.6162369 0.00087657437
0.039307337 0.40722314 0.058114972 -0.056013454 0.3657389 0.9879992 0.023356652 -0.18327172
-0.31141874 0.34518638 0.09783773 -0.055059347 1.139201 0.533497 0.19142249 0.36368397
0.68475074 0.5662244 -0.047027096 0.73341346 -0.0010520437 -0.3548858 -0.40739754 -0.2883902
-0.31322718 -0.021588195 0.7970622 -0.011768307 0.75219893 0.30513078 0.04433936 0.59893215
0.07217669 0.32251662 0.40371406 0.058876045 0.41490453 1.0345244 -0.072882555 -0.124548316
-0.23547117 0.94561136 0.2069055 -0.20569825 0.03829165 0.34186673 0.39535886 0.54533654
-0.04459708 -0.13586964 -0.79677486 -0.37138066 0.47651806 -0.22564885 -0.8882169 -0.46056613
-1.4509866 -1.9998382 0.07068799 -0.43520427 -0.34653434 -0.11789834 0.48027232 0.14809479
-0.17454922 -0.97312427 0.7512784 0.0760568 -0.26537907 -1.0008332 0.48871955 -1.0027009
-0.17275666 -0.10086603 -0.26237616 0.68543786 -0.8405653 -0.5902741 -0.7416444 -0.40892005
-0.38624 -0.70337534 -0.29187906 -0.620459 -0.5613376 1.191981 -2.0538776 0.41246408
0.69389254 0.2601745 -1.0561401 0.11881491 -0.3812201 -0.46231407 0.085601404 -0.656444
0.20736916 -0.27506977 -0.3778172 0.5969282 -0.2940161 -0.60254985 0.019049894 -0.094536304
0.47777694 -1.238279 -0.57492876 0.3756307 -0.8570432 -0.37725613 -1.4238634 -0.47865036
0.3320269 -0.06775443 1.4855253 1.4966977 -0.54256016 -1.3568419 0.9445866 0.24139723
-0.45296395 -0.64012897 -0.27175683 -0.03743095 -1.456928 0.26204473 -0.3558264 -0.47629353
0.094286524 0.41612226 0.502808 -0.049984135 -0.056107976 -0.86897343 0.42531562 -0.13755628
0.121715315 0.35862246 0.59026694 0.035771076 -0.55144244 -0.32743642 0.8151748 0.18237355
-0.009874352 -0.44882858 0.016547844 -1.0807617 -0.5075692 -0.7180153 -0.22548446 -0.100236505
-0.7180179 0.036903687 -1.2326576 0.30446225 0.26903003 -0.70949906 0.09910545 -0.14481065
0.40816617 0.055399247 0.6172495 0.54756373 0.32101092 -0.076876596 0.41022915 0.15093297
0.55956084 -0.9996669 0.031206936 -0.36089054 -0.563473 0.24503118 -0.10370342 -1.4273648
-0.41186395 0.20195283 -0.34284714 0.30035233 -0.944353 0.055254385 -0.9158951 -0.073608
0.6775397 0.7142913 0.41373655 0.13000275 0.47710076 0.30927557 -0.43502015 -0.12843314
0.7274044 -0.0056164176 0.044199485 0.0705558 0.4287415 0.63317066 0.05036474 0.45064327
0.17931873 0.6005126 -0.46686772 -0.22974016 0.8232345 0.71420485 0.32228366 0.57569
0.38623178 0.6115375 0.3482251 0.905914 0.7398499 -0.9023918 -0.31720498 -0.7434986
-0.2504627 0.32180873 0.94385064 0.17140044 -0.11160766 0.6270339 0.12429814 0.65617245
0.43109116 0.40928343 -0.13775928 -0.5752595 0.41118252 0.402349 -0.17049736 0.0814704
-0.73210126 0.6521822 0.21156876 0.15341148 0.3931958 0.5671683 0.8436654 0.048652448
0.0057899486 0.05735289 -0.06634313 -0.6367006 0.30664155 0.37350798 -0.23896933 0.047474366
00000000: 602e 863f ffa7 f93e 5457 0d3e c9ba 003f
00000010: 5dd9 803e d4b3 c5bd b4c1 1dbf e9c9 653a
00000020: bb00 213d 8d7f d03e f709 6e3d 5d6e 65bd
00000030: 2142 bb3e 84ed 7c3f 7356 bf3c 95ab 3bbe
00000040: 4772 9fbe 45bc b03e 265f c83d e985 61bd
00000050: 57d1 913f 4293 083f 4204 443e c934 ba3e
00000060: d34b 2f3f 15f4 103f 7c9f 40bd fcc0 3b3f
00000070: bbe4 89ba 97b3 b5be 6996 d0be e1a7 93be
00000080: 505f a0be bad9 b0bc 450c 4c3f dbcf 40bc
00000090: 1c90 403f 1a3a 9c3e 309d 353d 9e53 193f
000000a0: 5fd1 933d e620 a53e 9cb3 ce3e 0228 713d
000000b0: 5e6e d43e 4c6b 843f 7343 95bd 3013 ffbd
000000c0: 5b1f 71be 9613 723f 09df 533e 90a2 52be
000000d0: b5d7 1c3d 2809 af3e 7a6c ca3e 2d9b 0b3f
000000e0: 6eab 36bd 6921 0bbe 70f9 4bbf 9b25 bebe
000000f0: 2dfa f33e 7e10 67be 2f62 63bf 53cf ebbe
00000100: eeb9 b9bf b3fa ffbf ddc4 903d 18d3 debe
00000110: f36c b1be af74 f1bd 41e6 f53e 29a6 173e
00000120: 08bd 32be ac1e 79bf c853 403f abc3 9b3d
00000130: c4df 87be 4d1b 80bf 7339 fa3e 8158 80bf
00000140: 1fe7 30be d992 cebd 2b56 86be db78 2f3f
00000150: 4a2f 57bf 341c 17bf 68dc 3dbf f85d d1be
00000160: 40c1 c5be 6810 34bf 2c71 95be 67d6 1ebf
00000170: d2b3 0fbf d592 983f bb72 03c0 7e2e d33e
00000180: f1a2 313f 9835 853e 992f 87bf 3b55 f33d
00000190: 482f c3be 6eb4 ecbe ca4f af3d b70c 28bf
000001a0: 9558 543e f2d5 8cbe 4271 c1be 49d0 183f
000001b0: 4789 96be b540 1abf 860e 9c3c 409c c1bd
000001c0: 2e9f f43e ed7f 9ebf 882e 13bf ab52 c03e
000001d0: 2f67 5bbf b727 c1be 2841 b6bf a911 f5be
000001e0: 6eff a93e d6c2 8abd b125 be3f ca93 bf3f
000001f0: 39e5 0abf ffac adbf 6dd0 713f d630 773e
00000200: e4ea e7be 7edf 23bf b623 8bbe 3251 19bd
00000210: 9e7c babf ba2a 863e e12e b6be bfdc f3be
00000220: 4b19 c13d fa0d d53e 06b8 003f 2abc 4cbd
00000230: 7ad1 65bd 0b75 5ebf f8c2 d93e 8edb 0cbe
00000240: e145 f93d 5d9d b73e bc1b 173f b184 123d
00000250: 552b 0dbf bfa5 a7be 4caf 503f 22c0 3a3e
00000260: 09c8 21bc dccc e5be 588f 873c 6656 8abf
00000270: 0ef0 01bf dacf 37bf 66e5 66be cc48 cdbd
00000280: 05d0 37bf 5228 173d b9c7 9dbf 7ae2 9b3e
00000290: 4ebe 893e bba1 35bf ccf7 ca3d 3e49 14be
000002a0: 28fb d03e 52ea 623d 1004 1e3f 232d 0c3f
000002b0: 8b5b a43e 7a71 9dbd 8e09 d23e 2c8e 1a3e
000002c0: 613f 0f3f 2cea 7fbf b0a5 ff3c a5c6 b8be
000002d0: c43f 10bf 74e9 7a3e 7562 d4bd e4b3 b6bf
000002e0: d5df d2be b9cc 4e3e a989 afbe c8c7 993e
000002f0: 1ec1 71bf 6c52 623d 1a78 6abf cbbf 96bd
00000300: 3e73 2d3f cbdb 363f 47d5 d33e 711f 053e
00000310: 8d46 f43e 5e59 9e3e f6ba debe fa83 03be
00000320: 2d37 3a3f ed09 b8bb 850a 353d 8f7f 903d
00000330: 0284 db3e 7917 223f 424b 4e3d b7ba e63e
00000340: 549f 373e 32bb 193f 4909 efbe 0141 6bbe
00000350: 7fbf 523f 21d6 363f 5d02 a53e 6b60 133f
00000360: 2cc0 c53e b98d 1c3f 8f4a b23e fbe9 673f
00000370: ce66 3d3f 2603 67bf b168 a2be ed55 3ebf
00000380: a63c 80be 1dc4 a43e 32a0 713f 9983 2f3e
00000390: 8f92 e4bd 4b85 203f 0690 fe3d ebfa 273f
000003a0: fbb7 dc3e 998d d13e c510 0dbe 3544 13bf
000003b0: 8486 d23e b000 ce3e dc96 2ebe f4d9 a63d
000003c0: fd6a 3bbf 6af5 263f 7ba5 583e e617 1d3e
000003d0: f650 c93e f131 113f 75fa 573f ca47 473d
000003e0: 9cb9 bd3b ddea 6a3d e8de 87bd cffe 22bf
000003f0: 1f00 9d3e 703c bf3e 60b4 74be 7b74 423d

fc2.bias f4 [64]
-0.2140191 0.6870756 0.19257602 -0.067690164 -0.08744494 -0.11249174 0.96733505 -0.40191603
0.8190408 -0.11355498 -0.12454457 -0.42667192 -0.31675598 0.65891886 -0.059604 0.07737668
0.0069743474 0.2632847 -0.25766683 -0.01153847 -0.28268304 0.79695106 -0.055844005 -0.11918741
-0.06425044 -0.017147887 -0.6851639 -0.39623794 -0.07430026 -0.24413463 0.32825142 0.85473686
-0.16526163 -0.0049644345 -0.154005 -0.13122989 -0.20690748 -0.118395895 -0.3647435 -0.095446415
-0.2114089 0.09070819 0.07145351 -0.109199375 -0.12046251 0.086303584 0.4102331 -0.029568259
-0.17375067 0.061466992 -0.34502223 -0.25549945 0.43220204 -0.14796709 -0.16328003 0.13822576
-0.12831205 -0.19949995 -0.11188162 -0.105472095 -0.31479695 -0.36225292 1.010986 -0.02601652
00000000: d327 5bbe 30e4 2f3f a632 453e 24a1 8abd
00000010: 5516 b3bd 1262 e6bd 45a3 773f f0c7 cdbe
00000020: a8ac 513f 838f e8bd 3911 ffbd be74 dabe
00000030: d72d a2be e8ae 283f 5323 74bd aa77 9e3d
00000040: 1189 e43b 41cd 863e e8ec 83be da0b 3dbc
00000050: d5bb 90be fc04 4c3f afbc 64bd 8718 f4bd
00000060: bc95 83bd ba79 8cbc e766 2fbf b3df cabe
00000070: bc2a 98bd 6efe 79be 9210 a83e 09d0 5a3f
00000080: 583a 29be b2ac a2bb 7db3 1dbe 2161 06be
00000090: 8edf 53be 8c79 f2bd a9bf babe 6979 c3bd
000000a0: 937b 58be 37c5 b93d 3856 923d eca3 dfbd
000000b0: 0cb5 f6bd efbf b03d 130a d23e 2239 f2bc
000000c0: b2eb 31be d0c4 7b3d c1a6 b0be d3d0 82be
000000d0: 9649 dd3e af84 17be e132 27be 0e8b 0d3e
000000e0: 3c64 03be b749 4cbe 3122 e5bd c101 d8bd
000000f0: 112d a1be 3779 b9be fd67 813f 9920 d5bc

fc3.weight f4 [4, 64]
-1.1546679 1.5536373 -0.3615528 -0.5037158 -0.56453943 -0.56919795 1.6998762 -0.39262643
1.0190978 0.01705004 -0.81009877 -0.8239874 -0.73788875 -2.4229555 -0.07629877 -1.1621696
-1.1785746 0.6820016 -0.8168934 -0.6242202 -0.5438475 1.9173925 0.086834975 -0.7426472
0.011632111 0.14096566 -0.623634 -0.49588376 -0.28879264 -0.75895953 3.7935603 1.4407089
-0.48816478 -1.1935194 -0.705149 -0.08053282 -1.2676809 0.052872352 -0.6930618 -0.74218804
-0.23458043 0.20861274 -0.42498124 -1.1514643 0.052402265 -0.032703206 -0.97730416 -0.049168944
-0.6609251 -1.085694 -1.781397 -0.99670917 0.9506623 -0.9192518 -0.7215513 2.3797376
-0.62206995 -0.56394845 0.015644185 -0.6133867 -0.78740346 -0.6652001 1.5368168 -0.8587809
-0.110590056 1.0497549 0.43895867 -0.7859437 -0.7312717 -0.6815901 1.234148 -0.5823883
1.6397182 -0.06413166 -0.7969119 -0.53558266 -0.5414395 -2.6074793 0.08803422 -0.6423696
-0.9234859 0.21412264 -0.4761716 -0.52832866 -0.48661718 1.8981594 0.045976896 -0.67549133
-0.008751004 1.1935076 -0.6454074 -0.446969 -0.74462456 -0.6964592 4.662205 1.3305851
-0.7098468 -1.2510105 -0.55475265 0.12456684 -0.92089045 -0.69943714 -0.54830956 -0.14948398
-0.5581039 -0.5910737 -0.7700983 -0.64169466 -0.02694762 0.00057241163 -1.6268075 -0.028368918
-0.5200278 -0.16676567 -1.5226234 -0.28783923 1.911546 -0.3301807 -0.7621858 3.0668058
-0.6973027 -0.46764833 -0.02654986 -0.95766467 -0.62344617 -0.4294663 1.3956795 -0.59510267
-0.9502698 2.304311 -1.2791238 -0.31166106 -0.297839 -0.4615943 1.65937 -0.49187982
1.1370156 0.07220778 -0.37852186 -0.22004047 -0.57355917 -1.7911663 -0.07626651 -1.0233802
-0.24133275 -1.5321252 -0.46566185 -0.6378932 -0.28982395 1.4671843 -0.058609825 -0.37765443
-0.013418529 -0.34588525 -1.1036832 -0.7449325 -0.6169892 -0.59263253 3.5162852 1.9932579
-0.7633271 -0.89912033 -0.46760947 -0.034713272 -0.08652456 -0.6167107 -0.5062508 -0.750512
-0.20554915 -0.93848014 0.87395316 -0.35134315 0.036950897 -0.0031429976 -2.711262 -0.11163625
-0.4531232 -1.1546738 -2.0863597 -0.9767341 -0.67693126 -0.98774785 -0.3595959 2.4069304
-0.629938 -0.7121463 0.06903041 -0.38989136 -0.55117404 -0.5961763 1.3027818 -0.77232826
-0.5074267 1.9206822 -0.28594208 -0.7413015 -0.6898718 -0.61657834 1.5185997 -0.74756867
2.148742 -0.027999178 -0.73337394 -0.5941593 -0.8992904 -1.3491694 0.089245304 -0.17607217
-0.25157022 1.0811224 -0.31733832 -0.76623756 -0.7023186 1.4714782 0.025674673 -0.67784554
-0.016929815 0.25730836 -0.39379337 -0.7858231 -0.48378152 -0.70140696 4.062942 1.3799937
-0.7407816 -0.41731182 -0.94909495 -0.06002966 -0.29689097 -0.5714473 -1.0370396 -1.0681496
0.10416345 -0.6523893 0.09880466 -1.6405394 0.102730565 -0.1075444 -1.1145514 -0.035269544
-0.6221933 -1.827554 -0.4756661 -0.52243716 0.22088818 -0.3164096 -0.9134298 2.9398968
-0.42729613 -0.8480984 0.021194978 -0.72024417 -0.66102314 -0.89829403 1.1713129 -0.67664105
00000000: 28cc 93bf 96dd c63f 731d b9be 85f3 00bf
00000010: a885 10bf f5b6 11bf 8b95 d93f 5506 c9be
00000020: cc71 823f 87ac 8b3c a262 4fbf d7f0 52bf
00000030: 47e6 3cbf b411 1bc0 8842 9cbd f9c1 94bf
00000040: 88db 96bf a897 2e3f ed1f 51bf e5cc 1fbf
00000050: 9739 0bbf 1e6d f53f 89d6 b13d 201e 3ebf
00000060: 9c94 3e3c 4d59 103e 7aa6 1fbf 7ae4 fdbe
00000070: a1dc 93be 2c4b 42bf b1c9 7240 2669 b83f
00000080: bcf0 f9be 3ec5 98bf a584 34bf 64ee a4bd
00000090: 5e43 a2bf ae90 583d 806c 31bf 0900 3ebf
000000a0: da35 70be 949e 553e 2497 d9be 2f63 93bf
000000b0: c2a3 563d ccf3 05bd 9b30 7abf 6065 49bd
000000c0: 6332 29bf 05f8 8abf d104 e4bf 5528 7fbf
000000d0: 9b5e 733f 1654 6bbf 96b7 38bf 9f4d 1840
000000e0: fa3f 1fbf ed5e 10bf 3c28 803c e906 1dbf
000000f0: 4693 49bf 8e4a 2abf 6ab6 c43f 11d9 5bbf
00000100: 0a7d e2bd 5e5e 863f 31bf e03e 9b33 49bf
00000110: 9f34 3bbf b07c 2ebf 90f8 9d3f 6617 15bf
00000120: 49e2 d13f 7657 83bd 6b02 4cbf f21b 09bf
00000130: c79b 0abf f1e0 26c0 494b b43d 5672 24bf
00000140: 9269 6cbf f742 5b3e c4cc f3be 8c40 07bf
00000150: e325 f9be e3f6 f23f 4552 3c3d 00ed 2cbf
00000160: 5f60 0fbc dbc4 983f 6b39 25bf 1fd9 e4be
00000170: b79f 3ebf 264b 32bf c930 9540 9d50 aa3f
00000180: 85b8 35bf 1d21 a0bf 4504 0ebf e61c ff3d
00000190: 7abf 6bbf 500e 33bf 045e 0cbf 5412 19be
000001a0: e6df 0ebf 9b50 17bf 2a25 45bf 1a46 24bf
000001b0: 41c1 dcbc e50d 163a 3a3b d0bf ef65 e8bc
000001c0: 8b20 05bf 9fc4 2abe 53e5 c2bf aa5f 93be
000001d0: 8aad f43f 720d a9be 9c1e 43bf 8c46 4440
000001e0: 6e82 32bf 9a6f efbe 187f d9bc 8329 75bf
000001f0: 2b9a 1fbf 02e3 dbbe a0a5 b23f a658 18bf
00000200: e244 73bf d579 1340 54ba a3bf 0a92 9fbe
00000210: 5a7e 98be 1756 ecbe 3c66 d43f acd7 fbbe
00000220: ba89 913f ace1 933d 9ecd c1be 4a52 61be
00000230: c6d4 12bf f044 e5bf 9e31 9cbd 1ffe 82bf
00000240: ef1f 77be ae1c c4bf 3b6b eebe f84c 23bf
00000250: ce63 94be b2cc bb3f db10 70bd ec5b c1be
00000260: 64d9 5bbc df17 b1be 7e45 8dbf e5b3 3ebf
00000270: 01f3 1dbf c4b6 17bf d10a 6140 1323 ff3f
00000280: 6869 43bf c02c 66bf 826a efbe 812f 0ebd
00000290: ca33 b1bd c1e0 1dbf a799 01bf 8e21 40bf
000002a0: 7a7b 52be 3c40 70bf 65bb 5f3f 40e3 b3be
000002b0: d359 173d c0fa 4dbb 5185 2dc0 8ca1 e4bd
000002c0: c4ff e7be 5acc 93bf eb86 05c0 3f0b 7abf
000002d0: 5e4b 2dbf 0bdd 7cbf f41c b8be 260b 1a40
000002e0: 9e43 21bf 384f 36bf d15f 8d3d d79f c7be
000002f0: be19 0dbf 039f 18bf 8ec1 a63f 4eb7 45bf
00000300: b7e6 01bf ead8 f53f 0067 92be efc5 3dbf
00000310: 709b 30bf 14d8 1dbf 7a61 c23f a960 3fbf
00000320: fd84 0940 885e e5bc 65be 3bbf d31a 18bf
00000330: e537 66bf 95b1 acbf 3ec6 b63d 434c 34be
00000340: d0cd 80be 3862 8a3f 2b7a a2be 2528 44bf
00000350: 27cb 33bf 6659 bc3f b153 d23c 4987 2dbf
00000360: 65b0 8abc ecbd 833e 499f c9be b42b 49bf
00000370: 36b2 f7be 688f 33bf 9f03 8240 a2a3 b03f
00000380: dda3 3dbf e5a9 d5be e3f7 72bf a9e1 75bd
00000390: 1802 98be 5f4a 12bf b7bd 84bf 20b9 88bf
000003a0: a653 d53d fc02 27bf 195a ca3d 32fd d1bf
000003b0: 6764 d23d 3d40 dcbd 9fa9 8ebf cc76 10bd
000003c0: 0f48 1fbf 4aed e9bf 828a f3be 71be 05bf
000003d0: 8330 623e 7000 a2be 89d6 69bf 4527 3c40
000003e0: 8fc6 dabe fa1c 59bf 17a1 ad3c ec61 38bf
000003f0: d038 29bf 99f6 65bf 95ed 953f 5938 2dbf

fc3.bias f4 [4]
0.20481321 0.02350898 0.24538848 0.20264111
00000000: 8eba 513e e895 c03c 1e47 7b3e 2781 4f3e
