checkpoint.pth (torch, 75302 bytes, 6 tensors)

fc1.weight f4 [128, 8]
00000000: b199 f5bd 41f9 7ebd a420 bbbf 74eb 68bf
00000010: 29ee af3e e1cc 633d 7b5a d83b a0b7 bb3e
00000020: e381 493e a4c8 163f 67e7 edbe 477f 0ebd
00000030: 7773 16bf 587b 16bf 1a3a 03bf 7c40 adbd
00000040: 44f5 a6bd f141 2e3e 7900 e6bd 5643 cfbd
00000050: e0a8 ad3e a5df e63e a494 ab3e d984 0c3f
00000060: 474b a1be 8925 1b3f d404 5e3f e6a0 bebe
00000070: 2ac7 51bf e3bc 2cbb 5201 30bf e6e0 503e
00000080: ffb4 fabd 1c5d 42bf c29a 08c0 c4fe a6bd
00000090: c00d 1f3f ef6e fe3d bc01 e53c d2f1 aa3e
000000a0: 5e6f 0dbe 1ed3 82be 7910 71be 9737 7bbf
000000b0: f18a 1bbf c87c dbbe a19f 3f3d 1c90 723d
000000c0: ce92 b6bd 216a 5fbd 2dd4 f63d 9058 7f3e
000000d0: c0bd 433f 389c 283f ca32 903e b5cc 45be
000000e0: 6ecf 6e3d 4dc7 33be 8630 f0be c552 febd
000000f0: cef6 8c3f 351d a6bd 17e1 9bbe c07d 743e
00000100: 6d2c 71be f0d3 86bb 04eb bfbb 54c5 89be
00000110: 97f3 9dbe 2be6 5d3f 2d6b 8b3d 093f f0be
00000120: 4f94 203e db8f f63e 0431 0f3f 44b1 313f
00000130: 9f59 f0be e6b5 61bf 1f16 523e daf7 a9be
00000140: f95f 0dbf 4048 163f a161 083f 241e 95be
00000150: db97 533d 7fca 583f f8e9 20be 1244 f9be
00000160: ea5f 1d3f 3be6 fdbf d949 4cbc f674 20be
00000170: 430e 28bc a8d4 2c3e 982e 53be 4bd6 423e
00000180: 4240 d8bd 40b7 1fbe a9b5 6ebd 3c7c ddbe
00000190: 1f74 0a3f faef 383f 59f6 323e 506f 19bf
000001a0: e331 e4be bd81 acbe 2b98 85be 305f 42bf
000001b0: 2508 99bd 1088 b93d fc46 703d d806 e23e
000001c0: 8c01 f4be aee4 b83d b73a 983d 2d96 28be
000001d0: 32d0 d9bf 86af 563e 7781 a83e b771 5cbd
000001e0: 17ce 643e 5f1a 9e3e e553 96be f281 d23d
000001f0: f3ea 48bb c97e 68be 7d5b 893d a68f 1dbe
00000200: a2c7 edbe 7089 2ebf 050b 27bf da72 87be
00000210: 5156 3fbe adf3 a73d a7aa 973e 3580 c33d
00000220: cd19 b3bd a191 ca3d 89d4 713d 1b7c 963e
00000230: 3101 103f aa58 ac3e 25ff c73e 354f 283e
00000240: 4f77 613d 1dcf d939 bf60 a8be 9bd4 26bf
00000250: b58b ed3e 7196 20bf d9a3 6cbf 8ccf 64be
00000260: 345b 37be fcea c73e d5ab a83e 0c3c c6be
00000270: 95ad 5f3f 0da0 6dbe d67d 683e 1265 f2bc
00000280: 727c 09bd fe2b 39be 5cbb b9bf f213 1ebf
00000290: 8442 d83e d2b1 c7be 85af 9cbe a04b 8e3e
000002a0: b5b0 1abd 59e9 45bd fad3 8c3f d6a3 83bf
000002b0: 784c d13e 3bf2 bfbd 09a3 f2be bc12 363e
000002c0: 4ab9 4abe 901b 40bf a7eb c83f 6adb c0bf
000002d0: 07b8 d93c 07af 993d 946c e23d c83f 7d3d
000002e0: 82e4 b73e 99a4 0cc0 aea0 823d e680 cebf
000002f0: aa62 813e 0962 ccbd d38f 1c3e 895f d53d
00000300: b824 9abf f506 32bc 1a72 40bf 8691 31bf
00000310: c8a0 acbd c68c 82bd 53a4 b13c 0186 033d
00000320: 4131 a03d 80a1 d93b 00d1 88bf ee36 8fbf
00000330: 3fe8 eabe 9fad 463d ee33 0dbe 41f7 e73e
00000340: a177 123f 9696 83bf 0b06 18bf 54bc 0d3f
00000350: 0d93 1f3f 91bd 3ebe 82cb a03d 04f0 8a3e
00000360: 23d3 3fbf 236d c7bf 0351 263e 5906 a3bf
00000370: fd89 c0bd d7c7 a33d 4849 a03e f310 e83d
00000380: ee08 e4be 3d5d 1a3f 8ab3 58bf 88cf 56bd
00000390: 1e31 a3be bb1e 04bd dd0e 583e 3a08 bf3e
000003a0: bdef 4d3d be83 133f 4c83 493f 7de3 9cbd
000003b0: 6f85 b2bd 535b 7b3e 2c9f 05bf 612d 643e
000003c0: fc2f febc 6083 a63e a51e 18be 2203 92bd
000003d0: bda7 063f a5a2 1cbe b9da 2dbe ee9d c7be
000003e0: e775 813c e279 08bf 2ba7 c9be 3901 8f3f
000003f0: b64f 833f 2535 a13d 298c 0abb d50d cabe
-0.11992205 -0.062249426 -1.4619336 -0.9098427 0.3436139 0.05561531 0.006602583 0.36663532
0.19678454 0.58899903 -0.46465608 -0.03478935 -0.58769935 -0.5878196 -0.5126053 -0.08459565
-0.081522495 0.17017342 -0.11230559 -0.10120265 0.33917904 0.45092502 0.3351184 0.5489021
-0.31502745 0.6060415 0.8672612 -0.3723213 -0.81944525 -0.0026357702 -0.68752015 0.20398292
-0.122415535 -0.75923324 -2.1344457 -0.081540614 0.62130356 0.12423503 0.027954929 0.3338762
-0.13812014 -0.25551695 -0.2354144 -0.981317 -0.6075888 -0.42868638 0.046783093 0.059219465
-0.089147195 -0.05454457 0.12052188 0.24936128 0.7646141 0.6586337 0.2816375 -0.19316371
0.05830329 -0.17556496 -0.4691202 -0.12418131 1.1012819 -0.081110395 -0.30445167 0.23876095
-0.23552103 -0.0041146204 -0.0058568735 -0.26908362 -0.30849907 0.86679333 0.068075515 -0.46923092
0.15681575 0.48156628 0.55934167 0.6941111 -0.46943375 -0.8816818 0.20516251 -0.33196908
-0.5522457 0.58703995 0.5327397 -0.29124558 0.051658493 0.84683985 -0.15714252 -0.48684746
0.6147448 -1.9835886 -0.0124687785 -0.15669617 -0.0102573065 0.16877997 -0.20623243 0.19027059
-0.10559131 -0.15597248 -0.058278713 -0.43258846 0.54083437 0.72241175 0.17476787 -0.59935474
-0.4456931 -0.33692732 -0.26092657 -0.75926495 -0.074722566 0.09059155 0.058661446 0.44145846
-0.4765743 0.09027992 0.07433074 -0.16463538 -1.7016661 0.20965394 0.32911274 -0.053819384
0.22344242 0.30879495 -0.2936088 0.10278691 -0.0030657619 -0.22704615 0.06706903 -0.15386829
-0.4644137 -0.68178463 -0.6525119 -0.26454812 -0.18685271 0.08200774 0.29622385 0.09545938
-0.087451555 0.09891058 0.05904058 0.2939156 0.5625182 0.33661395 0.39061847 0.16436465
0.055045422 0.00041543777 -0.3288631 -0.6516816 0.4639565 -0.62729555 -0.9243751 -0.22344798
-0.17905885 0.39046466 0.32943597 -0.38717687 0.8737424 -0.23205586 0.22704253 -0.02958921
-0.033565946 -0.18083188 -1.4510303 -0.61749184 0.42238247 -0.39002854 -0.3060266 0.27792072
-0.037766177 -0.04831824 1.100219 -1.0284374 0.40878654 -0.09372374 -0.4739001 0.17780584
-0.19797245 -0.7504206 1.5696915 -1.506696 0.026577009 0.07504087 0.11055866 0.061828405
0.35916525 -2.1975462 0.063783035 -1.6133087 0.25270587 -0.09979636 0.1528924 0.104186125
-1.2042456 -0.0108659165 -0.75174105 -0.69362676 -0.08429104 -0.06374507 0.021684801 0.032110218
0.078218944 0.0066415668 -1.0688782 -1.1188638 -0.45880315 0.04850542 -0.13789341 0.45305827
0.5721379 -1.028033 -0.5938422 0.5536549 0.62333757 -0.18627001 0.07851316 0.27136242
-0.74931544 -1.5580181 0.16241841 -1.2736312 -0.09401319 0.07997101 0.3130591 0.11331358
-0.44538063 0.6029852 -0.84648955 -0.05244401 -0.3187341 -0.03225587 0.2109942 0.37310964
0.05027746 0.576229 0.7871597 -0.076605774 -0.08716857 0.24546556 -0.52196 0.22282936
-0.03102874 0.32522106 -0.1485544 -0.07129504 0.525997 -0.15296419 -0.16977967 -0.38987678
0.01580329 -0.5331098 -0.39385352 1.1172248 1.0258701 0.07871465 -0.002114067 -0.39463678

fc1.bias f4 [128]
00000000: 0027 003d 5c81 dabe d174 c5bd 2f9f 153f
00000010: da33 b1be 3d5f 903e 080d 693e f9cd 923d
00000020: 670d 05be aad8 533d 2a6b 14bd 9b33 db3e
00000030: fef5 22be 0994 bfbe 71b3 29be 5dad 3f3f
00000040: d980 15be a140 513e 4afe 553e 8cdd 8cbd
00000050: cc33 d23d 4179 273d 0559 e63d 9d29 0b3b
00000060: 8d73 f0bd 7f9d bfba ea98 33be 8aa9 5dbe
00000070: b87d db3d 2cd4 f53e 620f 09bf 126e 823e
00000080: 664d 933e 5176 7d3e bbbe a03e e9c8 8cbb
00000090: cc02 3a3e 2e50 3b3e 1a34 7e3e a03b fa3e
000000a0: a77e 3ebe b3ae fcbd 8627 5d3d c3df e2be
000000b0: df1e 333d 41be 533e 7c14 6b3f 5f3a d33c
000000c0: aa9d 993c e982 cebe 2a60 2b3f 3f8d c8bd
000000d0: b7f1 a0be 726a 0fbe dfbc 4e3f 1315 67be
000000e0: a359 293e b116 32be c2d6 aabc 0ecb 44be
000000f0: c89f bc3d 9480 e13e 164f 103e 68ae 36bd
00000100: 28e5 f33e 43ad b9be bb4e 2f3e 5235 023f
00000110: 14c5 5f3d 4b32 9e3e 95df 2fbe 7f82 95be
00000120: e292 863e 53a4 d1be 5e25 bbbd 1fc0 413d
00000130: 6da6 c9be 6712 e6bd 65e8 1c3f b0ec 003f
00000140: 91d5 4cbe 82de 3ebd 478c 203e f8b8 c8bd
00000150: e844 ca3d 33e0 b13d 64d1 52be 478d c3be
00000160: 4b5f aabc 6718 1f3d 5a59 30be e25e c73e
00000170: c087 9cbe 5a53 05be 0d50 efbb 65b2 793b
00000180: 0fa6 14be e6ea c8be 2279 07bf 8896 b23e
00000190: 4000 ccbe 0ae2 0abd a501 9dbd 4acf 30be
000001a0: f136 d1bb f47b c9be 59a2 cdbe d982 623e
000001b0: 11b5 213c 58e2 643e cfba 49be b464 283d
000001c0: d175 5abe 7449 60be 554a 263e 6e5f b9be
000001d0: 8e7f 8bbb 0e39 ab3e 7c7d 90be ed89 acbe
000001e0: b17c c03d d524 1dbf 88e6 f13e 454b bebe
000001f0: 30ee 303d c3ff 0fbe 8f5e 363e e07e 9dbe
0.031287193 -0.42676818 -0.096414216 0.5844602 -0.34609872 0.2819766 0.22758877 0.071681924
-0.12993394 0.0517203 -0.036235012 0.4281281 -0.15914151 -0.3741763 -0.16572358 0.74873906
-0.14599933 0.2043481 0.20897785 -0.06878194 0.10263786 0.04088712 0.11247448 0.002123452
-0.117407896 -0.0014619081 -0.17538801 -0.21646705 0.10717338 0.48013437 -0.535391 0.25474602
0.28769988 0.24752165 0.31395516 -0.0042964113 0.1816513 0.18292305 0.24824563 0.48873615
-0.18603002 -0.12338009 0.05399277 -0.44311342 0.043730613 0.20678045 0.9182813 0.02578467
0.018751938 -0.40334252 0.6694361 -0.097925656 -0.31434414 -0.1400545 0.80756944 -0.22566633
0.165381 -0.17391469 -0.020854358 -0.19218084 0.09210163 0.4404341 0.14092669 -0.04459992
0.4763577 -0.36265 0.17119877 0.5086261 0.054631308 0.30897745 -0.17175134 -0.29201123
0.26283938 -0.40945682 -0.091379866 0.04730236 -0.39384785 -0.11233979 0.61292106 0.50361156
-0.20003344 -0.04659892 0.15678512 -0.09800905 0.09876424 0.08685341 -0.20587689 -0.38193724
-0.020797392 0.03884163 -0.17221585 0.38939577 -0.3057232 -0.13020077 -0.007303244 0.0038100716
-0.14516471 -0.39241713 -0.5291921 0.3488047 -0.3984394 -0.033906974 -0.07666329 -0.17266575
-0.0063847234 -0.3935238 -0.40162924 0.22120227 0.00986983 0.22351968 -0.19700168 0.041111663
-0.21334006 -0.2190302 0.16239293 -0.3620562 -0.004257149 0.33441967 -0.28220737 -0.3369898
0.09398783 -0.61384326 0.47246194 -0.371668 0.043195903 -0.14062409 0.17809509 -0.3076086

fc2.weight f4 [128, 128]
00000000: 1758 a3bd b299 2abc 0855 843d a13d bbbd
00000010: 2ddc 37bd faa8 7f3d ccea a6bc 6b58 003d
00000020: e923 aebd f5d6 21bd e617 70bd 429c 983d
00000030: b042 163d dd15 84bd 9eb5 ab3a 0496 50bc
00000040: 73bc 44bd f244 65bd b21f 28bd 3a4b 573d
00000050: 831d 8dbd 9f87 8cbd dbec 25bd 3cce 82bb
00000060: 3c1a c53c 0a39 38bb d8a7 ddbc a82e 72bd
00000070: aae4 e1bc f95c 54bd 1f84 743d b934 b0bd
00000080: 7296 7dbd 8a46 93bd b766 febc 4510 8d3d
00000090: a9ab 9e3d ecfc a8bd 6bae 7ebc 39e2 113d
000000a0: f295 1f3d ccf6 893d 9646 a4bc 459e 91bd
000000b0: e77f 6f3d f34b f8bc 2d79 0b3d 7434 09bd
000000c0: d098 033d 41d0 a23d 2283 843d 47bd a4bd
000000d0: bebb 8fbd 1244 2cbd 5aa5 95bd 25b0 ad3d
000000e0: d95a 52bc f511 90bd 2352 63bd 59c0 5ebd
000000f0: 3bb5 133d 5003 c1bd 75c7 b3bd bee3 bcbd
00000100: 6815 da3c ba82 db3c 866b 88bd 408e b33c
00000110: 2ea0 853d 72dc ddba 9133 99bc c5e5 a9bb
00000120: a89c adbc 4249 363d dabb 85bd f79a 073d
00000130: 901b 093d 6def 71bd f009 6d3d f8fd 8d3d
00000140: ddb9 0ebd a143 2abd 896c 343d 72d0 8dbd
00000150: c899 943c 5a79 783c c4ad 4d3d 103c 9dbd
00000160: 5b63 96bd e7bd 0b3d 8cd4 a93c 977c a8bd
00000170: 22d1 74bd 189f bdbd b8af 81bd eb55 53bd
00000180: ed6f 8a3d f0c0 bdbc e183 393d cb50 883d
00000190: e14b 0e3d e4f2 c6bd a32f 363d deb1 e63c
000001a0: 519e 683d 4c90 b2bd 99ac 2e3d c9d1 883d
000001b0: e8c9 b3bd db83 173c 0688 9a3d 26a8 83bd
000001c0: 00a3 c33c 6d04 b33c 653f be3b 90fd 9b3d
000001d0: f2cc 883d 5677 753d 2239 babc 47a9 7f3d
000001e0: 839b c1bd df5d 43bd 54d6 fabc 9317 d7bc
000001f0: c61e 843d 4524 163d d50f 1b3d de46 463d
00000200: b09e 733d 0ee2 533e b178 563e 68db 963e
00000210: 932e e8bd 9bf9 063e 40b5 83bf 1a2a e93e
00000220: 5810 7fbe d0f9 ef3e 7f9e 93bf 73cf 3cbf
00000230: fc3f b2be 4f1f e83e e3d4 5a3d fcd7 4dbe
00000240: db44 e33d edce f0be 9da7 d33e 5f59 abbe
00000250: 8bd0 75be 3ead 8a3e a5e3 423e 080a a23d
00000260: 5212 e33e 7c25 e63d 608c 753c b36d ab3e
00000270: f36e 763d 5b09 43be 66e0 e63d b129 b1be
00000280: da85 9e3d 2dae ecbe 5cc5 4b3b 5d65 56bf
00000290: 5d2a d0bf fe2a f4bd 15d6 1fbf d347 c03d
000002a0: 3680 dcbe b554 723f d3b9 353d 00b6 ac3e
000002b0: 94a4 f9bf d136 6cbf 9955 a4be 9c7c 00bf
000002c0: 73c3 67bf 941c d0be faea d5be a630 c33e
000002d0: 5ae8 f03d 0001 903e e051 b4be aa40 b9be
000002e0: be79 42be a80a 3e3e c9ac 813e e867 2a3e
000002f0: 2aba 79be 78ef fb3b 5304 f03d ea1d 843e
00000300: 6b0b 0e3e b02d 0b3e 5328 fa3e 1550 35be
00000310: a8cf 8ebf 565c 85bd 4ef5 3abf 792b d63d
00000320: c4cf c83e abdb c8be 16bb 0dbc 774d d73d
00000330: a461 ea3d f83e e33e 6735 983e dab5 acbc
00000340: afb6 1e3f 7787 4abf b9cb 1ebf 9491 2cbd
00000350: aa40 66bf 3329 84be c910 bc3d 7ca7 f0bd
00000360: 3568 e5be 909b 873c fbaf 053e 482e 61bf
00000370: 276d 8f3d 3a6e 99be 771c 803e 0b32 c0ba
00000380: 5d4b 10be 86f9 533e a73d 873e b8c6 463e
00000390: 402f a23e dcdd 12bd 8d79 b5be 3e47 c43e
000003a0: 4007 523e 4854 303b 1783 c13e 03e6 863c
000003b0: 6292 163e c40c 823e 729b 8ebf 60a2 08bf
000003c0: e9c3 3bbd 8a5e 323e f653 f53d 2a88 973e
000003d0: 695d aa3e 3acb 133e 03c2 de3e 13fd 563e
000003e0: 650c 803e 7a0b ee3d 79f9 55bd 7e6a 7e3e
000003f0: ad30 cabe d39d 183f ce27 2a3e 30e0 8c3e
-0.07975786 -0.01041262 0.06461531 -0.09142614 -0.04488771 0.062417008 -0.020375632 0.031334322
-0.08502943 -0.03951164 -0.05861654 0.07451679 0.036684692 -0.064494826 0.0013100391 -0.012731079
-0.04803128 -0.055973954 -0.041045852 0.052561976 -0.068903945 -0.06861805 -0.040509086 -0.00399187
0.024060361 -0.002811017 -0.027057573 -0.059126526 -0.027574856 -0.051846478 0.059696313 -0.08603806
-0.061911054 -0.07191189 -0.031054838 0.06887869 0.07747585 -0.08251366 -0.015544514 0.035616133
0.03896136 0.06736526 -0.02005319 -0.07110266 0.058471587 -0.030309653 0.03405111 -0.03349729
0.032128155 0.079498775 0.06470324 -0.08043914 -0.07018231 -0.042057104 -0.07306929 0.084808625
-0.012839043 -0.07034675 -0.055498254 -0.054382656 0.036061507 -0.0942446 -0.08778278 -0.09223126
0.026621535 0.026795734 -0.066611335 0.021918416 0.065246925 -0.001692666 -0.018701347 -0.0051848614
-0.021192864 0.044503458 -0.065299705 0.03310677 0.03347355 -0.059066225 0.057870805 0.06933206
-0.03484522 -0.041568402 0.04404882 -0.069245234 0.018139735 0.015165651 0.050214544 -0.07677472
-0.07343169 0.034116652 0.020731233 -0.082268886 -0.059769757 -0.0925886 -0.06332344 -0.05159561
0.067596294 -0.023163289 0.045291785 0.06656035 0.034740333 -0.097142965 0.044479024 0.028160986
0.056791607 -0.08718929 0.04264507 0.06680638 -0.08778745 0.009247745 0.07545476 -0.06428556
0.023881435 0.021852696 0.005805897 0.076167226 0.06679715 0.05992826 -0.022732321 0.062417295
-0.0945349 -0.047696944 -0.030619778 -0.026256358 0.06451182 0.036655683 0.037856895 0.048407428
0.059477508 0.20691702 0.20944478 0.2946427 -0.11337008 0.13181154 -1.0289688 0.45539933
-0.24908578 0.4687028 -1.1532744 -0.7375404 -0.3481444 0.45336387 0.05342568 -0.20101923
0.110971175 -0.47032872 0.41338816 -0.33466622 -0.24005334 0.27085298 0.19032152 0.079120696
0.44349915 0.11237618 0.014987081 0.3348213 0.060164403 -0.19046538 0.11273269 -0.3460212
0.07740374 -0.46226636 0.0031092977 -0.8374842 -1.6262928 -0.119222626 -0.6243604 0.093886994
-0.43066567 0.946605 0.04436667 0.33732605 -1.950335 -0.92271143 -0.32096556 -0.5019014
-0.90532607 -0.40646803 -0.41780835 0.38123053 0.117630675 0.28125763 -0.35218716 -0.36182147
-0.18991753 0.18558753 0.25327137 0.166412 -0.24387422 0.007688459 0.11719575 0.25804073
0.13871543 0.13591647 0.4885889 -0.1770633 -1.1157122 -0.06511752 -0.73030555 0.104575105
0.39221013 -0.39230093 -0.008650562 0.10512822 0.11444405 0.4438398 0.29728243 -0.021082807
0.61997503 -0.7911295 -0.62029606 -0.04213102 -0.8994242 -0.25812683 0.09182889 -0.11750695
-0.44806066 0.01655367 0.13055412 -0.87961245 0.07003241 -0.2996691 0.25021717 -0.0014663351
-0.14091249 0.20700654 0.26414225 0.19411743 0.31676674 -0.035856113 -0.35444298 0.38335603
0.20510578 0.0026905704 0.37795326 0.0164671 0.14704278 0.25400364 -1.1141188 -0.53372765
-0.04584113 0.17418876 0.11978905 0.29596072 0.3327439 0.14432994 0.43507394 0.20994978
0.25009456 0.11623283 -0.05223987 0.24845311 -0.39490262 0.5961582 0.16616747 0.2751479

fc2.bias f4 [128]
00000000: 18d6 a4bd e50f acbd 4c88 4abd f7fe c13d
00000010: 3433 c0bd d91f c03e a922 213e 0c35 753e
00000020: f4aa 2c3d 77ba 363d 4b98 f43e 7cc0 dc3d
00000030: d60c ccbd 5ded 06be 5d51 fd3d 90db 583e
00000040: 181a 4c3c 0891 cdbd 52c8 723d 3d0c f33d
00000050: 40ac 57bd 0f8e 51bd 7ea3 a2bd 8bb0 5bbc
00000060: b875 353f 578c 5e3e 952d bdbd 883d 9c3e
00000070: ab45 423e 6fb4 993e 3baf 50bd b8e3 dfbd
00000080: c5d4 3abc 97af bd3d ce40 913c 3524 5d3e
00000090: ac57 113e 0f1e 32be d35d e93d 41db c5bd
000000a0: 643a 953d 9418 a73e 022e 80bc 9d74 623d
000000b0: 896e d2bd 5bcd 27bd f83d 6c3e b754 6e3d
000000c0: 73fd a93d 325a 09bd 9ded 27bc e4b7 9fbd
000000d0: 991a 823e 083d ecbd d848 e93d 42e7 4abd
000000e0: 748a 69bd 7ef6 413e 1a63 e0bd 553a de3d
000000f0: 337c 86bd 9abb 2a3d 4e8d 9d3e 36a5 d3bd
00000100: 31b9 a2bd a7b2 86bd f830 0b3f bd34 673d
00000110: 582a 82bd e646 2a3f 8bbb 073e bb06 2fbb
00000120: 65fd 1f3c 0468 963d ee0d a0bd c117 153d
00000130: 794d 59bd a3db 633e ffed e23d 6a67 acbc
00000140: d4c2 8ebe 6fa1 673d 2a18 a33d 4e94 9fbd
00000150: ab0d 273e b3ec e83d b4f1 753e dce5 8e3d
00000160: d0da 0fbd 60dd 36bc 6172 bb3d 979f a5bd
00000170: 17cb 273e f5c2 44be a7e4 03bd 776a 60bd
00000180: 739c a8bc 3422 4d3d 3898 103d 72a8 2abb
00000190: daaa 8cbd 4727 853d dca7 f63c 604e 373e
000001a0: 78f3 6bbe b199 db3e 24f2 043e 4e8f ec3d
000001b0: c465 8e3e 64ed d03d 51b6 9c3e 3d23 c3bc
000001c0: 3574 36bb 914f 903d 7e04 e4bc 2a31 6fbd
000001d0: f9db e73d 1b78 2bbe 8a42 043d b9e7 8e3d
000001e0: 6fd0 393e 52c6 0d3e 3d87 473e ca0e 843d
000001f0: 6988 0e3f aeb7 a7bd d146 b63d 793c 4a3e
-0.08048648 -0.08401469 -0.04944639 0.09472459 -0.09384766 0.37524298 0.15735878 0.23946017
0.04215522 0.04461142 0.4777244 0.10778901 -0.09963386 -0.13176484 0.123690344 0.21177506
0.012457393 -0.10037428 0.05927307 0.11867569 -0.052654505 -0.05116087 -0.0794134 -0.01340879
0.7088275 0.21733223 -0.0923721 0.30515695 0.18971889 0.30020472 -0.050948363 -0.10932106
-0.011403267 0.09262007 0.017731097 0.21595843 0.141936 -0.17394279 0.11394849 -0.0966096
0.07286528 0.3263594 -0.015646938 0.055286992 -0.10274989 -0.040967327 0.23070514 0.05818626
0.08300295 -0.033533283 -0.0102495225 -0.07798746 0.25410917 -0.11535078 0.11390847 -0.04953695
-0.057016805 0.18941686 -0.10956402 0.1085097 -0.06566658 0.041682817 0.3077187 -0.10334246
-0.07945479 -0.06577044 0.54371595 0.05644678 -0.06355733 0.6651443 0.13255136 -0.0026706893
0.009765004 0.07344058 -0.07815157 0.036399607 -0.0530524 0.22251754 0.110805504 -0.021045405
-0.27883017 0.05655044 0.07963593 -0.07791959 0.16313808 0.11373272 0.24017984 0.06977436
-0.035120785 -0.011161178 0.091526754 -0.0808708 0.16386066 -0.19214995 -0.03220048 -0.054789033
-0.020582413 0.050081447 0.035301417 -0.0026040343 -0.06868525 0.06501632 0.030109338 0.17900991
-0.23042095 0.42890695 0.12982994 0.11550771 0.27812016 0.10201529 0.30607846 -0.023820514
-0.002784026 0.07046426 -0.027834173 -0.058396496 0.11321253 -0.16745035 0.03229002 0.06977791
0.18145917 0.13845184 0.19485183 0.06448133 0.55676895 -0.08189331 0.08900226 0.19749631

fc3.weight f4 [4, 128]
00000000: af62 6c3d a798 42be f2dc 29bf 10ed 59be
00000010: bb20 b2be 98a1 3e3f d849 8e3f 999b e5be
00000020: d7b7 99bc 8156 96be 9fb8 1a3f ab3f 1ebf
00000030: f75f 28be f25d 27bf c8d2 02bf a0ca 0ebf
00000040: abaf 6fbe 09d2 843c f575 063a dd37 2d3f
00000050: 8184 97be afa2 83be f90d 033d f523 813d
00000060: b818 723f 5fec a23f d6e3 e0be f0ce 37bf
00000070: ef96 d13f 0777 333f 49b9 10bc 9b4d c7be
00000080: a92f 76bf feb7 1abf 7db0 c03f 85e9 193f
00000090: 5ed5 aebf 8410 1fbe b336 f9be dd48 6abd
000000a0: 4724 19bf d136 5f3d 2d3e b8be 9397 51bf
000000b0: 69f8 a43c ac45 b53b 58ce cebd caa3 bcbd
000000c0: d380 0dbf e93b 9abe 00fd 5bbd c266 5d3e
000000d0: 560b d73f 8894 853e ea0f e9be 0b7f 8a3f
000000e0: 9ca2 83bf 66c8 8cbe 5a0c 9a3c 353c 08bf
000000f0: 13c9 40be b0d5 00bf 3f90 503f fc0d 93bd
00000100: c858 28bd fbd0 f03e f81a 883f e079 31be
00000110: b769 75bb 38ee 203f d4aa 6fbe c402 a93d
00000120: 973a 0ebf 923d 85bf 6bab 5cbf 1072 5b3d
00000130: a4cb 89be 61f1 42bf be3f 28bf 0c8d aabe
00000140: df1b 443f 86a2 0cbf c1d1 a8be 923c a6be
00000150: fc81 39bf 489f 17bf 0c36 cbbf ce8d 23bf
00000160: 7c33 a2be ce7c ea3c 5342 1dbf 55ba 4dbf
00000170: c13c 14bf c4cc 8dbf 25c1 acbf 5dbf 7c3d
00000180: b58e d1be 01a1 25be 7f9a 86be 2d51 1fbf
00000190: 3897 bfbe fb2d b6bf 1e03 45be b849 2d3f
000001a0: adb0 a63d 9e47 11bf 5695 513f 1efa 03bf
000001b0: 66e2 cd3f bc50 4dbf 8a44 ae3f faed 8fbf
000001c0: 29e0 0b3f 428a f3be f875 8abb 72a1 15be
000001d0: e280 4f3f 491c b4bd a45d ba3f ac00 e5be
000001e0: 13e9 92bf ce51 51bf 2fdb 26be 2da6 21bf
000001f0: 53f5 883f 5085 cfbb 2348 5abe 1962 a03f
00000200: bc89 93bd 0ef6 0ebf 9217 a2be 677d 07bf
00000210: e84d 5bbe 6971 0b3f edbe bc3f 2fe3 06bf
00000220: 18c1 b9bb cb18 5ebe 7fa5 1f3f 4023 a1bd
00000230: d085 233d 6553 9ebe 72b2 02bf 1c8a 4bbf
00000240: 3485 63be c4d2 f9be 7702 1b3d cd32 de3e
00000250: 1d64 4bbe 9eca 01bf cd2d 973d 2d06 963c
00000260: 87ce 8c3f f986 aa3f fa5b 39bf 3402 1fbf
00000270: 0217 0240 1025 3f3f b698 523b d290 68be
00000280: 20b4 38bd e94c 52be 23f7 653f 0977 7e3f
00000290: 23b5 cbbf 941e c5be 14b5 92be a152 47bc
000002a0: 437c 40bf 4f69 a83e a4c5 72be 2857 12bf
000002b0: 9e39 afbb a461 643d 951f 8fbf e106 543c
000002c0: c171 29be 7d84 84be 6afa 483d 18dc 393f
000002d0: 61ff ab3f 43ed 913e b3ae 53bf b671 9f3e
000002e0: 9774 453e 82b2 6abf 9272 b33c add2 95be
000002f0: 64a1 b0be 97ad e9be 2b7f e33e 04cd 3f3d
00000300: 3079 513d 83a0 8a3f 3a46 483f 4f67 fbbe
00000310: 44d6 da3d f50f 193f d782 d7be 07cd 48bc
00000320: 5638 07be c427 943a bb2a d6be afb4 bd3c
00000330: a4b7 02bf 94f0 36bf 77ac 80bf 69b0 9fbe
00000340: 682e 933f 1094 8cbd 5db2 0fbe 8b4c 74be
00000350: 0b29 f9be 4a4c e2be 70a4 bfbf 2ba9 87bf
00000360: d897 70be 5b61 20bf 0265 cfbd 1b33 0ebf
00000370: 1775 bbbe 226e 51bf db8b 51bf 329b bc3c
00000380: 9aed 12be 0389 85be 11ba 043d fd62 84be
00000390: c21b b5be db07 eebd cbe7 2fbf 12cd 783f
000003a0: f685 75bf fa08 81bf 22a1 a63f 7a61 cbbe
000003b0: 9c21 e03f f59e 2fbd 2575 8f3f 7982 19bf
000003c0: 3e55 1b3e 3656 2bbf 50ee bfbe f43f 4bbe
000003d0: 24bb 4b3f 9a7b cebe f655 f23f 9aef b6bf
000003e0: de66 35bf c17f 27be 7685 8dbd 26c1 f9be
000003f0: 86df 713f b1fd c3bb 264a 9dbe bfa1 703f
0.0577113 -0.19003545 -0.6635276 -0.21281838 -0.34790596 0.7446532 1.1116285 -0.44845274
-0.01876442 -0.29362872 0.6043796 -0.618159 -0.16442858 -0.65377724 -0.51102877 -0.5577793
-0.23406856 0.016213434 0.00051292713 0.67663366 -0.2959328 -0.25710055 0.031995747 0.063056864
0.9456897 1.2728385 -0.43923825 -0.71800137 1.6374186 0.70103496 -0.008833238 -0.38926396
-0.96166474 -0.60437 1.505386 0.6012195 -1.3658864 -0.15533644 -0.48674545 -0.057198394
-0.5982098 0.054495636 -0.35984936 -0.8187191 0.020137982 0.005531987 -0.10097951 -0.09210928
-0.55274695 -0.30123833 -0.053708076 0.2162123 1.6800334 0.26089883 -0.45519954 1.082002
-1.0284 -0.27496642 0.018804718 -0.5321687 -0.18826704 -0.5032606 0.814701 -0.07180402
-0.041100293 0.4703444 1.063323 -0.17331648 -0.0037447044 0.6286349 -0.2340501 0.082524806
-0.5555815 -1.0409415 -0.86199063 0.053575575 -0.26913178 -0.76149565 -0.6572226 -0.33310735
0.7660503 -0.5493549 -0.3297253 -0.32468086 -0.72463965 -0.5922742 -1.5875869 -0.6388825
-0.31679904 0.028623965 -0.6142933 -0.80362445 -0.57905203 -1.1078115 -1.3496443 0.061705936
-0.4092919 -0.161747 -0.26289746 -0.6223324 -0.37420058 -1.4232782 -0.1923947 0.6769061
0.08139167 -0.56749904 0.81868494 -0.51553524 1.6084716 -0.80201316 1.3614666 -1.12445
0.54638916 -0.4756642 -0.0042254888 -0.14612368 0.81056035 -0.087944575 1.4559827 -0.44727075
-1.1477379 -0.8176545 -0.1629455 -0.6314419 1.0699867 -0.0063330308 -0.2131658 1.2529937
-0.07204005 -0.558442 -0.31658608 -0.52925724 -0.21416438 0.54469925 1.4745766 -0.52690405
-0.0056687705 -0.21689145 0.623619 -0.078680515 0.039922535 -0.30923 -0.51053536 -0.79507613
-0.22218782 -0.48793614 0.037844148 0.43398133 -0.19862409 -0.50699794 0.07381783 0.018313492
1.1000527 1.332244 -0.7240597 -0.62112737 2.0326543 0.7466593 0.003213448 -0.22711495
-0.045093656 -0.20537151 0.89830226 0.99400383 -1.5914654 -0.38499892 -0.28653777 -0.012165696
-0.7518961 0.32892844 -0.23708206 -0.5716424 -0.0053474447 0.05575718 -1.1181513 0.012941093
-0.165473 -0.2588233 0.04906694 0.7260146 1.343731 0.2850133 -0.82688445 0.31141442
0.19282757 -0.9167863 0.021905217 -0.29262295 -0.3449813 -0.4564025 0.4443296 0.046826378
0.051140964 1.0830234 0.7823216 -0.49102256 0.10685399 0.59789973 -0.4209201 -0.012255914
-0.13205084 0.0011303355 -0.41829476 0.023157446 -0.51061463 -0.71460843 -1.0052632 -0.31189278
1.1498537 -0.06864178 -0.14032884 -0.23857324 -0.48664126 -0.4419883 -1.4972057 -1.0598501
-0.23495424 -0.6264855 -0.101266876 -0.5554673 -0.3661277 -0.81808674 -0.8185403 0.023023222
-0.1434845 -0.26081094 0.03240401 -0.25856772 -0.3537274 -0.11622592 -0.68713063 0.9718791
-0.95907533 -1.0080864 1.3017924 -0.39722806 1.7510257 -0.042876203 1.1207625 -0.5996471
0.15169236 -0.6692842 -0.37486506 -0.19848615 0.7958243 -0.40328676 1.8932483 -1.429187
-0.7086009 -0.16357328 -0.06910221 -0.48780173 0.94481695 -0.00598117 -0.30720633 0.93996805

fc3.bias f4 [4]
00000000: 36d6 853d 3ef4 313e d5aa 703c d16f aabd
0.06534998 0.17378327 0.014689167 -0.083221085
