checkpoint.pth (torch, 75302 bytes, 6 tensors)

fc1.weight f4 [128, 8]
000000 75 05 ed 3d 7a fe 7b 3e 78 92 88 bf 54 ee cd bf
       0.115733065 0.24608794 -1.0669699 -1.6088357
000010 b6 f0 3a 3e d5 5a 7d 3e 1c e7 07 be 0c f6 ac 3e
       0.18255886 0.24741681 -0.13271755 0.3378147
000020 47 98 9d 3d b1 a2 1e be 58 71 8d 3d 99 06 ea be
       0.0769506 -0.1549175 0.06906384 -0.4570816
000030 3f 0c 91 be 78 64 36 bf a4 5a 34 bf c4 bc 55 3e
       -0.28329656 -0.71247053 -0.70450807 0.2087279
000040 b4 18 11 bd 31 a2 09 be 1b 0b 33 bf c9 77 66 be
       -0.03542395 -0.13440777 -0.6993882 -0.22506632
000050 8a 16 ba 3e 5a 45 06 3f f4 7d ee 3d f8 e3 03 3f
       0.3634532 0.5244957 0.116451174 0.5151973
000060 c3 79 b8 3c 7a 89 46 bd ec e8 63 3f 4b 61 ab bf
       0.022518998 -0.04847095 0.89027286 -1.3389066
000070 7d d3 d3 be fa 1c ac bc 24 8d 9d 3c d4 d3 e6 3e
       -0.4137229 -0.02100991 0.01923234 0.45083487
000080 a6 be 2e bf 69 2f 8f bf 4a 05 fb 39 38 77 15 bf
       -0.68259656 -1.1186343 0.0004787839 -0.5838504
000090 4f dc 69 be ca 4a e5 3c 44 56 a5 3e 42 96 8f 3e
       -0.22837947 0.027989764 0.32292378 0.28044325
0000a0 a5 9b e4 3d 13 a6 86 bf 8d 99 81 be 6c bf 66 bf
       0.11162499 -1.0519432 -0.25312462 -0.90135837
0000b0 82 21 22 bf 3f df a4 be 7c 1f 51 3e fd 45 28 3d
       -0.6333238 -0.32201573 0.20422167 0.04108237
0000c0 0a 11 c2 be d4 5d 80 3e ac aa bc 3e 21 ba a8 3e
       -0.37903625 0.25071585 0.36848962 0.32954505
0000d0 c3 f2 90 bd 0c 90 8d bd 1e eb bd 3e 62 97 2a bf
       -0.07077553 -0.069122404 0.37093443 -0.6663724
0000e0 47 94 c5 3e 83 2c 9f be 11 a2 b3 be 78 cf ff be
       0.3858969 -0.31088647 -0.35084584 -0.49962974
0000f0 db ee 42 3f 6e 7c 19 be 07 5c 79 be 16 20 b2 3e
       0.76145715 -0.14988872 -0.24351512 0.34790105
000100 e3 4f 8c bd 39 f0 1f 3e be 8f 27 3e d1 bb 93 3d
       -0.06851175 0.15618981 0.16363427 0.072135575
000110 9b fc 27 bf 1c 7e 3a 3f 92 64 74 bf 59 db 92 be
       -0.6561982 0.7284868 -0.9546596 -0.28682974
000120 15 67 74 3e f0 4c 94 3e 53 52 6a 3e 5a f4 b2 3e
       0.23867448 0.2896495 0.22882967 0.3495205
000130 ad a7 bf 3e b4 d2 67 bf 8a 3a 0e bf 31 62 11 be
       0.37432614 -0.9055588 -0.55558074 -0.14197613
000140 df c8 b9 be c6 11 10 3f 5c bb b4 3e ed e9 8e bf
       -0.36286065 0.5627712 0.35299194 -1.1165138
000150 33 96 37 3d 02 5a ac bd cc 36 c9 3d 7e 41 08 be
       0.044820976 -0.08415605 0.09824905 -0.13306233
000160 53 8a 5b be 59 af cf bd 91 87 a2 3e 0d da de be
       -0.21439485 -0.10140867 0.31744054 -0.43525735
000170 53 d3 f7 3e 40 f6 58 3e b2 67 c8 be 5f 12 90 be
       0.48403415 0.21187687 -0.39141613 -0.28139016
000180 ba e7 9c bd 83 74 35 be cd 0f 3a bf 00 50 81 be
       -0.07661386 -0.17720227 -0.7268036 -0.25256348
000190 89 26 84 3f 0a e7 f5 3d d0 cc 8b 3e 21 51 a6 bd
       1.032426 0.12006958 0.27304697 -0.08120943
0001a0 2a 14 fb be 96 73 24 be 53 70 8d bf 7b 89 33 bf
       -0.4903882 -0.16059718 -1.1049904 -0.70131654
0001b0 1f de 21 be 67 b2 46 3e 03 45 1a bc 1e b4 90 3e
       -0.15807389 0.19403993 -0.009415868 0.28262419
0001c0 d9 7d 93 3e a0 4e 70 3f 53 f1 88 3e 24 db 95 bf
       0.28806952 0.9386997 0.26746616 -1.1707501
0001d0 47 cd 3d be fa 37 35 be 61 6d 89 3e 78 68 c1 3d
       -0.18535338 -0.17697135 0.26841262 0.09443754
0001e0 af 43 c0 3e 3a cc 28 be b0 65 08 bd 95 b6 88 bd
       0.37551638 -0.16484156 -0.0333001 -0.0667545
0001f0 22 ec 98 bd ec 3d 1f bf 9d c4 c3 be 84 a0 06 bf
       -0.07466914 -0.6220386 -0.38235942 -0.5258868
000200 90 06 82 be 2f 8c e6 be ce 97 7d 3e c3 6b ae be
       -0.25395632 -0.45028827 0.2476494 -0.3406659
000210 d9 95 fa be 97 bc 1c 3e ca 3d 9a 3e a0 04 6d bc
       -0.4894245 0.15306316 0.30125266 -0.014466435
000220 82 fc 3c be 89 7c a4 3b 74 18 3e bd a9 e7 b2 3e
       -0.18455699 0.0050197286 -0.04641004 0.34942368
000230 68 7d 08 3f 45 89 1a 3f e1 f6 c1 3e 27 29 32 bd
       0.53316355 0.60365707 0.37883666 -0.043496277
000240 c3 4a 36 3e e1 bd 19 bf 38 b5 f9 3d fd 99 7f bd
       0.17801957 -0.6005536 0.12192768 -0.062402714
000250 cb 8f 1d bf 66 c2 1b bf 6c 65 3c bf 0f 2a 45 bf
       -0.61547536 -0.60843503 -0.7359226 -0.770173
000260 4a f8 8f bd 00 79 55 bd b1 08 84 3f cd e9 85 bf
       -0.07029779 -0.052117348 1.0315152 -1.0461975
000270 ac fb 5f 3f 3a d9 ad be 90 eb b1 3d aa d6 05 3d
       0.87493396 -0.33954793 0.08687508 0.032675423
000280 f2 a2 ab bd 55 17 9b be a0 f8 4d bf ee 9a 93 bf
       -0.08380689 -0.30291238 -0.80457497 -1.1531656
000290 34 94 12 be ab ae ce bc 1c 69 bb bc f8 82 0c 3e
       -0.14314348 -0.025229773 -0.022877268 0.13721836
0002a0 5c 6a c0 bd 7d fb 29 bf fe f0 29 be ea 77 c8 bd
       -0.093952864 -0.66399366 -0.16595837 -0.09788497
0002b0 35 04 2b 3f 75 96 d3 3d 82 cb 23 bf b2 fb a5 3e
       0.66803294 0.10331432 -0.63982403 0.3241859
0002c0 98 5d 0a 3e 3b bb da be d8 27 11 3f f7 a2 40 bf
       0.13512266 -0.4272097 0.5670142 -0.75248665
0002d0 75 cc 76 be 25 bf 1c 3e 9f bc d4 3d a5 49 2a be
       -0.24101432 0.15307291 0.10387539 -0.16629656
0002e0 e3 27 b0 3d e1 94 ae bd 69 41 2a bf 76 7a d9 be
       0.08601358 -0.0852449 -0.6650606 -0.42476243
0002f0 01 b5 92 bf 50 80 c5 3e a8 93 c5 3e 39 28 54 3e
       -1.1461488 0.38574457 0.38589215 0.20718469
000300 7c 32 0a bf fa fd da be 21 55 7c bf 4d 57 54 bf
       -0.53983283 -0.42771894 -0.98567396 -0.8294571
000310 54 3e fb 3e 02 11 e8 3d 0e 43 08 3d ab 22 8b 3d
       0.4907099 0.11331369 0.033267073 0.06793722
000320 f3 7f 71 3d 81 3a ba 3e cd 23 29 bf b0 12 81 bf
       0.058959913 0.3637276 -0.6607025 -1.0083828
000330 c7 15 3a be 3e ce d5 3e 2b 17 83 bd ac 17 b2 3e
       -0.1817237 0.41758913 -0.06400903 0.34783685
000340 bb ae ab 3c 4b 92 a2 be d8 11 88 3e 73 de 09 bf
       0.020957341 -0.31752238 0.26576114 -0.53855056
000350 dc e1 a1 bd 1b bc 05 be 04 31 a1 bd fe ca ae 3e
       -0.079044074 -0.13060038 -0.07870677 0.34139246
000360 8e 00 f3 bd 26 bc 15 bf be 50 64 be 7f 3d e8 be
       -0.1186534 -0.58490217 -0.22296426 -0.45359418
000370 d3 50 d9 3e 6d ce a8 3e 33 45 ae bd 18 aa 15 bd
       0.42444476 0.3296999 -0.085092925 -0.036539167
000380 87 3c aa be 3c 71 4c 3e 42 5b ba bf ba c5 0f bf
       -0.33249304 0.1996507 -1.45591 -0.5616108
000390 eb d4 3c bd 23 89 ad 3d ca 61 d4 bc 8a df 4a 3e
       -0.046101492 0.084734224 -0.025925536 0.19811836
0003a0 f1 a2 23 be de 4f 95 3e 20 cd 0e 3f 3f 6b 5c bf
       -0.15980126 0.29162496 0.55781746 -0.86101145
0003b0 7c 7f 93 3e 5d d3 00 bf 2b a6 19 be fd da d2 3d
       0.288082 -0.50322515 -0.15004794 0.10295675
0003c0 63 69 9d bd f9 2c 5a 3e 8f 44 d4 bf bb ed 90 be
       -0.076861165 0.21306218 -1.6583422 -0.28306374
0003d0 81 06 3c 3f e3 5c 91 be 49 80 2c 3e 70 cb 2b be
       0.73447424 -0.2839118 0.16845812 -0.16776824
0003e0 08 be 9e 3d 3f 25 a5 bd 3c 68 10 be d8 55 a3 bd
       0.07751089 -0.08063745 -0.14102262 -0.07975358
0003f0 8c c9 de 3f 11 aa af bd 3f 04 8d be ab 03 66 ba
       1.7405257 -0.085773595 -0.27542302 -0.000877435

fc1.bias f4 [128]
000000 40 6b 3a 3e 32 7d 8c be cf d7 5c be 2e d6 28 3d
       0.18204975 -0.27439266 -0.215667 0.041219883
000010 ff 84 b9 be f8 23 ff 3d 6c 2f 03 3f 56 97 e4 3c
       -0.3623428 0.12458032 0.51244235 0.027904194
000020 92 48 66 be fb 4c ee 3d 48 c7 b4 3e a3 20 9b 3e
       -0.22488621 0.116357766 0.3530829 0.30298337
000030 48 32 46 be 96 1c 52 3e 4a 4c 91 be ae a7 ab 3e
       -0.19355118 0.20518717 -0.28378516 0.33526367
000040 0b 43 5b be bf 65 90 3e c1 f7 70 bd 44 9f 9c 3c
       -0.21412294 0.28202626 -0.058830027 0.019118913
000050 49 5a 55 3e 0e 28 48 3e 5d d4 e8 3d 12 ca 55 3d
       0.20835222 0.1954653 0.1136863 0.052194662
000060 a5 05 f5 be ab 25 69 3e de fd 75 be 26 6f 00 bf
       -0.4785587 0.22768275 -0.24022624 -0.501696
000070 aa 4d 5d b8 c2 46 8a 3e 08 f0 f0 b9 fe 27 0d 3d
       -5.2762836e-05 0.2700711 -0.00045955204 0.034461968
000080 db 8b ce 3e c2 72 71 3e bc 6f c9 3e a2 af d9 be
       0.40341076 0.23578933 0.3934306 -0.4251681
000090 3e ae 59 3c c6 e2 37 3e f6 31 99 3e d0 a7 70 3e
       0.0132861715 0.17957601 0.2992093 0.23501515
0000a0 ab 9e ba bb 14 74 8a bd fc 21 14 bd 08 78 7e be
       -0.005695184 -0.067604214 -0.036165223 -0.24850476
0000b0 7d 7a cc 3e 42 51 b5 3e 1c ec af 3e 3b 01 47 3d
       0.399372 0.35413557 0.34359825 0.048585158
0000c0 b4 88 1f 3f 3a 8d 2e be 1c 7a ac 3e 04 dc 8b bd
       0.6231797 -0.17046061 0.33686912 -0.06829074
0000d0 8a 99 a1 be c5 b2 55 be 31 dd d7 3e ca c0 c2 3e
       -0.31562454 -0.20868976 0.42160943 0.3803771
0000e0 a9 48 12 3d 14 45 bf be fa 23 9f bd d9 ce 91 be
       0.035713825 -0.3735739 -0.07770534 -0.28478125
0000f0 65 d1 aa 3d a1 bb 8b 3e 8c 08 ad bc 44 64 f2 bc
       0.0834072 0.27291587 -0.02112224 -0.029588826
000100 21 df 05 be 7c 1d 97 be 5a 0c e3 3d 74 73 cb 3e
       -0.13073398 -0.29514682 0.1108634 0.3973652
000110 71 3c 03 be 33 70 1f 3c 9c 53 51 3d 1d d8 cc bd
       -0.12816025 0.00973134 0.051105127 -0.10002158
000120 ed 7b 45 3e 7d 14 39 be 1b 44 c2 bd bc f9 47 bd
       0.19285555 -0.18074222 -0.09485646 -0.04882215
000130 f5 62 9f be 0f 63 bf 3c 9c be 22 be f4 52 b4 3e
       -0.31130186 0.023362665 -0.15893024 0.35219538
000140 94 ce 26 be 57 03 d8 3e ed b8 60 be 00 a6 e6 bd
       -0.16289741 0.42190048 -0.21945544 -0.11262131
000150 c1 40 0e 3e f0 76 89 3e c1 80 9b be 2f 48 09 be
       0.13891889 0.26848555 -0.3037167 -0.13406442
000160 7d 2c 6e 3e b9 bc 7b bd e8 77 26 be 1f 13 39 3e
       0.23259158 -0.061459277 -0.16256678 0.180737
000170 3d bd 02 be 5a 79 bf be c2 e9 b3 be 18 0e b2 be
       -0.12767501 -0.3739727 -0.3513928 -0.34776378
000180 25 d0 86 be 09 9c ce bd 35 62 7a be bc b5 c8 3b
       -0.26330677 -0.10088355 -0.24451526 0.00612518
000190 3a df db be 70 f6 ec bd c8 44 bf bd 7d fd 4d be
       -0.42943746 -0.11570442 -0.09339291 -0.2011623
0001a0 6c 91 16 3e f8 2a 89 3d 5f 9e 8e be fb a8 58 3e
       0.14703912 0.06697649 -0.27855203 0.21158211
0001b0 30 32 c3 bd d5 c6 b9 3e 0b 21 01 3e c9 4b cf 3d
       -0.09531057 0.3628451 0.12610261 0.10121877
0001c0 bc 22 91 bd 5b 78 be be ce eb 9c bc a0 9f c2 bd
       -0.07086703 -0.372012 -0.01915541 -0.09503102
0001d0 be 1d ad be 52 dd 15 3e b2 1a 86 be 7a 50 36 be
       -0.33811754 0.14635208 -0.26192242 -0.17804137
0001e0 10 5c 16 3d f9 48 15 bf 69 9f 14 bd d9 6d 79 be
       0.03670889 -0.5831447 -0.036284838 -0.2435831
0001f0 99 8a 42 3e 36 79 a1 be ce 39 35 3e a6 34 38 be
       0.18998183 -0.3153779 0.17697832 -0.17988834

fc2.weight f4 [128, 128]
000000 35 05 8b 3e 8e 4b 6c 3e 7b 6a fe 3e 32 df 34 3d
       0.2715241 0.23075697 0.49690613 0.044158168
000010 e0 67 41 3e 33 7c 71 3e 81 0b 9b bf 5a c6 f0 3e
       0.18887281 0.23582534 -1.2112886 0.4702633
000020 46 39 46 bf 52 de 10 be b0 d3 d5 3b 73 8b 8d be
       -0.7743114 -0.14147308 0.0065254793 -0.27645454
000030 17 7a db 3e 83 9a 99 3e 99 bc b3 3e 6f 29 72 be
       0.42866585 0.30000696 0.35104826 -0.23648618
000040 56 b5 7f 3e b6 03 e8 be 0f 69 46 3d 4a e1 46 bd
       0.24971518 -0.4531533 0.048440035 -0.048554696
000050 fb d3 85 3e c0 f4 a2 3e 36 32 6b bd 2b 50 62 3e
       0.2613829 0.31827354 -0.05742093 0.22100894
000060 71 89 12 3f ba 09 61 3e 63 6d c6 3e b3 f8 be 3d
       0.5724097 0.21976367 0.3875533 0.09324779
000070 85 03 9e 3e 2b 0a ce bd b0 11 a8 3e 56 82 0c be
       0.3086206 -0.10060533 0.32825994 -0.13721594
000080 f6 c4 55 bc a9 cf 91 be a5 ab 69 3c bd 3c 0d be
       -0.013047447 -0.28478745 0.014262115 -0.13792701
000090 0c 9b 0e bf 7e 1f f9 3d d8 87 09 3e 54 be 18 be
       -0.5570533 0.1216421 0.13430727 -0.14916354
0000a0 6c 68 10 be 40 78 26 3f 80 68 15 be 49 f8 14 be
       -0.14102334 0.65027237 -0.14590645 -0.14547838
0000b0 34 24 ca be f2 20 46 bf 8a 81 d1 3e d9 b3 ca be
       -0.39480746 -0.7739402 0.40919143 -0.39590338
0000c0 58 df d4 be 8b b9 bc bd 99 ab 90 be 07 20 57 bf
       -0.41576648 -0.09215077 -0.2825592 -0.84033245
0000d0 37 01 58 3e 08 85 20 3f 07 64 b2 bd 97 19 5e bf
       0.21094213 0.6270299 -0.08710485 -0.86757797
0000e0 e0 8c 92 be dc 41 f0 3e 65 62 04 3e 8c 3f c8 3e
       -0.28623104 0.46925247 0.1292816 0.39110982
0000f0 43 02 21 3d 9d 5d e7 bd 78 ea ff be ee 10 57 3e
       0.039308798 -0.11297152 -0.49983573 0.21002552
000100 31 95 ab 3d 9d 9f 03 3e 2a ab 8a bd 0e ca 9b 3e
       0.083780654 0.12853856 -0.06770928 0.30427593
000110 ab 48 67 bf 1b 22 7e bd c6 ec 29 be 2e eb 94 3d
       -0.9034526 -0.062044244 -0.16594228 0.072714195
000120 d9 e2 2f 3e 20 c1 75 3e 11 84 ff be dd 2a 4b bd
       0.1717638 0.23999453 -0.49905446 -0.049601424
000130 dd 1e 74 3e 76 1d 5f be bf 4d b3 bd dd 07 e9 3d
       0.23839898 -0.21788582 -0.08755063 0.11378453
000140 d6 4d d0 3e e0 a6 aa 3c 63 68 77 3e dd 7e fb be
       0.40684384 0.020831525 0.24160914 -0.49120227
000150 47 3c 2e be dc 10 7c be 00 11 8c 3e 14 16 06 be
       -0.17015181 -0.24615806 0.2735672 -0.1309436
000160 d3 8e 0f bf fe 66 79 3e cb 2c 8e 3e d4 6a 5e bf
       -0.5607731 0.24355695 0.2776855 -0.86881757
000170 e7 d5 a1 3d 8f 31 4f 3d 7b 53 f8 be 74 6e 82 3d
       0.07902127 0.050584372 -0.4850119 0.063687235
000180 1a 3e 86 3e 7c 3b 30 3e b1 73 07 3f 9a 37 04 3e
       0.26219255 0.17210191 0.52910906 0.12911835
000190 b1 d1 9d 3d b5 27 c5 3b 9d ab b0 3b 98 61 74 bc
       0.07706011 0.0060166963 0.0053915516 -0.014915846
0001a0 be e7 7c 3e 5d e9 65 bf 56 d5 06 3e f0 9d 8b 3e
       0.24697778 -0.8980921 0.13167319 0.27268934
0001b0 2b f6 7e 3e 67 af a9 bc d3 b7 8f be f4 95 04 bf
       0.24898593 -0.020713521 -0.28069934 -0.5179131
0001c0 cd fb 03 bd 4b 6a 6e 3e 3f 8f 36 be 17 ec 7a bd
       -0.032222558 0.23282735 -0.17828082 -0.06126031
0001d0 75 c6 8b 3c bb 9a 29 3e bb 76 23 3f f3 f5 58 3e
       0.017062405 0.16562931 0.63853043 0.21187572
0001e0 95 48 27 bd f4 4e 05 be 6b 55 ad be 5f e7 0f 3f
       -0.040840704 -0.130184 -0.3385423 0.5621242
0001f0 c4 a2 6a bc f7 4b 6b bd 4d aa 9a 3c 94 a1 b0 3e
       -0.014321033 -0.057445493 0.018880034 0.34498274
000200 65 63 3c ba 00 e3 89 3e 57 99 9d 3d fa 68 b6 bd
       -0.0007186442 0.26931 0.07695263 -0.089067414
000210 5e 35 aa 3d 84 36 38 be 5e b6 a1 bd 24 d0 1e 3d
       0.0831096 -0.17989546 -0.07896112 0.038772717
000220 8b 2f 10 3e 01 e9 66 be d2 d0 4d 3e ab 42 95 3e
       0.14080636 -0.22549821 0.2009919 0.29152426
000230 5b a3 1d 3e d4 64 de 3c cc 7c 4b 3e 7d 6c 8c bd
       0.15394346 0.027147688 0.19871825 -0.0685663
000240 25 33 09 3e 6f 18 b2 3b 53 ad 37 3e 05 a4 56 bf
       0.13398416 0.0054350416 0.17937212 -0.83844024
000250 a5 c4 69 bc 1f d0 2d 3d e2 fd a3 3d b6 9e 79 bd
       -0.014268075 0.042434808 0.08007409 -0.060942374
000260 4e 89 71 3f f7 4e ec 3d 57 4e 35 bc fa 15 47 3e
       0.94350135 0.11538499 -0.011066041 0.19441977
000270 d6 33 a9 3d 6d 40 f9 3c fb f1 11 3e 7f b1 9d be
       0.0826184 0.030426228 0.14252464 -0.3079948
000280 50 d2 c0 3d ea 28 81 be b2 2e c3 3d aa d0 76 3f
       0.09415114 -0.25226527 0.09530391 0.96412146
000290 fd 43 2c 3e 29 31 f0 be 0b 66 cc 3e dd 9c 27 3e
       0.1682281 -0.46912506 0.39921603 0.16368432
0002a0 ff da b5 3d 22 65 03 3d c9 b8 32 3e 14 b9 94 3d
       0.08879661 0.03207887 0.17453302 0.07261863
0002b0 75 08 08 3d e9 31 a8 bd 71 74 ad 3e 4d a7 c1 3d
       0.03321119 -0.082126446 0.338779 0.09455738
0002c0 a7 57 9c bd 27 3d 00 3f c0 a1 6f be c6 47 45 bc
       -0.07633906 0.5009331 -0.23401546 -0.012041038
0002d0 bf ba 04 3f fe ee 25 bd 74 7b 40 be 20 9e cc be
       0.5184745 -0.040511124 -0.18797094 -0.3996439
0002e0 b6 13 7b 3d 9e e3 c9 3e 4a 3f ec 3c 4b e1 cf 3e
       0.061298095 0.3943147 0.028838772 0.40601572
0002f0 4a 8d 86 bd b7 c7 1f bd f0 f2 ae 3e 44 11 46 3f
       -0.065699175 -0.039008822 0.34169722 0.77370095
000300 75 1b 80 3d eb 1b 5c 3e df a2 26 3c 49 19 3e 3e
       0.06255237 0.21495025 0.010170667 0.18564333
000310 5e e6 17 be 05 f3 d8 3d 3f 12 07 bf 0e 81 ed 3d
       -0.14833972 0.10593227 -0.52762216 0.11596881
000320 97 e3 61 3e 41 d7 af 3e 4b 95 90 ba 8b bc c4 3e
       0.22059475 0.34343913 -0.0011030821 0.38425097
000330 6f ca d9 3c a3 29 9f bd 13 31 a2 3d 0a 34 43 be
       0.026585786 -0.077716134 0.079195164 -0.1906282
000340 93 cb fe 3c 8e ec a4 bc 94 60 bd bd a3 c3 cf 3d
       0.031102931 -0.02013233 -0.092469364 0.101447366
000350 a2 2a f6 3d 59 a8 36 3e 2b 63 91 3e 19 50 a1 3e
       0.1201985 0.17837657 0.28395972 0.31506422
000360 e0 0e 77 3d c0 30 b7 3d c2 d1 e2 3d 59 22 b7 be
       0.06031692 0.08944845 0.110751644 -0.35768393
000370 82 26 3d bd 59 ac d7 3e 22 bf c5 bc 56 ee a1 3e
       -0.046179302 0.42123678 -0.02413899 0.31627148
000380 ef 1d b9 3e 14 b4 47 3e b5 85 73 3b 70 28 b2 3d
       0.3615565 0.19502288 0.0037158553 0.08699119
000390 f5 95 2c 3d 76 ba ac 3b fa 6d ae 3e 6b 48 cd 3d
       0.042135198 0.0052712513 0.3406828 0.10023578
0003a0 94 4a 00 3e 64 23 b4 3e 72 f9 de 3e 20 ad 23 be
       0.1252845 0.3518325 0.43549687 -0.1598401
0003b0 b0 ba 9c 3d 72 be 87 3d 4a c5 5b 3e 09 fc 31 3e
       0.07652795 0.066281214 0.21461979 0.173813
0003c0 4a 72 2d 3e df dc 8a 3e c0 25 82 3e ef 32 9d bf
       0.16938129 0.27121636 0.25419426 -1.2281169
0003d0 3c 85 9d 3e d4 83 a1 3c 51 9a 3e 3f d9 1b 80 3e
       0.30765712 0.01971618 0.7445422 0.25021246
0003e0 fe 1e e5 bd 0e ab b3 3d ad 3e 88 bf e6 38 87 3d
       -0.11187552 0.087728605 -1.0644127 0.066026494
0003f0 85 65 8d be d2 9f 22 3f 95 5e 9f 3d 59 a0 40 3d
       -0.27616516 0.63525116 0.07781712 0.04702792

fc2.bias f4 [128]
000000 db e4 d0 be 02 5f f0 bc f4 96 dd 3d 03 49 44 bd
       -0.40799603 -0.029342178 0.10819808 -0.047921192
000010 cf 3f f5 bd 70 95 32 3e eb ed 68 3e fd da ca 3c
       -0.11975061 0.17439818 0.22747009 0.024762625
000020 ec 3e 36 3e de 4d 94 3b 17 bf 97 bd 14 c7 3b 3d
       0.1779744 0.004525884 -0.07409494 0.045844153
000030 b6 df 1e 3e 7a b9 8b 3e 99 86 88 3c ec a0 c3 3e
       0.15515026 0.27289945 0.016665744 0.3820871
000040 de 94 0d 3c 8b 5d 48 3d 35 61 22 3f 8e a7 77 3e
       0.00864145 0.048917335 0.63429576 0.24185011
000050 c8 b2 61 bd 02 48 79 bd 82 28 83 3e e5 f3 a4 3e
       -0.05510214 -0.060859688 0.25616843 0.32217327
000060 4b 9e e5 3e 1b 69 81 3e a2 e8 d3 3e 2d 1f 9d 3e
       0.4484733 0.25275502 0.41388422 0.30687848
000070 78 48 4d 3d a2 2f 07 be 9e 32 3c 3e 04 74 df bd
       0.05011794 -0.13201764 0.18378684 -0.109108
000080 01 7e e0 3c 3b 99 5a bc 53 82 a0 bd ee ee 6e bd
       0.027403833 -0.013342197 -0.07837357 -0.05833333
000090 2b c9 2f bd da a9 0b 3e b7 4e b9 3e 27 18 bc bd
       -0.042916458 0.13639012 0.36192867 -0.09184294
0000a0 dd 81 8c bd bd 4d 12 3e 72 dc 3a bd 16 e0 a0 3d
       -0.06860707 0.14287467 -0.04562039 0.07855241
0000b0 62 e8 4a bd 85 62 c8 3d 0e 94 2f 3e 45 93 c1 3e
       -0.049538024 0.09784416 0.17146322 0.3780767
0000c0 85 0f 8c bc 9b 4b 4e be 16 34 bb 3d 17 6f bc 3d
       -0.017097244 -0.20146029 0.09140794 0.09200876
0000d0 4f 7d 95 bd b4 ae 0c 3d 85 96 b2 3d de 81 d2 be
       -0.07299291 0.034346297 0.087201156 -0.41114706
0000e0 eb 74 c0 3e 81 37 fd bc 9e a2 21 be b4 31 7d bd
       0.375892 -0.030910255 -0.1578469 -0.06181498
0000f0 45 f0 8f bd f5 8e 29 3d 7b 92 64 bd 0b e7 9a bd
       -0.0702825 0.0413961 -0.055803757 -0.07563599
000100 12 b4 c9 3c 34 f7 0d 3e 9f ad c8 3e 78 58 a3 bd
       0.024621997 0.13863832 0.39194962 -0.079758584
000110 93 2e 35 be db 8d 37 3e a3 25 8d 3c 1d 34 d7 3a
       -0.17693548 0.17925207 0.01722986 0.0016418729
000120 6e 8e 60 bd 10 76 58 bd 51 09 3a 3e dc 81 7e 3e
       -0.05482333 -0.05284697 0.18167616 0.24854225
000130 54 da 09 be 45 62 e0 3d 1c 90 91 bc f7 1d 10 3b
       -0.13462192 0.109562434 -0.017768912 0.0021990517
000140 0d 9f c5 bd cf 7a 77 3e 07 7c ca bd cc 35 1e bd
       -0.09649477 0.24167942 -0.098869376 -0.038625523
000150 0d f4 6f bd 42 f0 af bd f6 c0 aa bd 2b 2b a5 3e
       -0.058582354 -0.085907474 -0.08337586 0.32259497
000160 23 71 0b be 56 64 17 bd ab 93 a8 be 24 64 cd bd
       -0.13617377 -0.036960922 -0.32925162 -0.10028866
000170 d4 d9 90 bb 7c 19 73 be dd 18 b1 3d 8f c8 33 bd
       -0.0044204984 -0.2374019 0.086473204 -0.04389244
000180 d0 63 ab 3e 36 f6 c8 bb 30 c2 b7 ba 51 ff 84 bd
       0.33474588 -0.0061328663 -0.0014019664 -0.0649401
000190 0d d0 d8 bd 7b 57 15 3e 69 b1 aa bc 80 b6 15 3e
       -0.105865575 0.14584152 -0.020836549 0.146204
0001a0 35 69 38 3e db c0 ab 3e 88 69 92 3e f5 b4 e1 be
       0.18008883 0.33545575 0.2859614 -0.44083372
0001b0 85 08 1e bd e0 a1 82 3d ca 82 3d be 67 d4 8b 3d
       -0.038582344 0.063785315 -0.18506923 0.06827622
0001c0 3c 7e 15 3e d6 cc 1f bd 24 80 02 bd a9 6e e3 3d
       0.14598936 -0.039013706 -0.031860486 0.11105091
0001d0 ba 49 41 3e 43 6c 6a bd 14 d2 a2 3e 93 42 6e 3e
       0.1887578 -0.057232153 0.31800902 0.23267584
0001e0 ec 13 47 3d 38 e6 2f 3e 3e b7 90 3d ff a9 32 3c
       0.048602983 0.17177665 0.07066201 0.010904788
0001f0 36 fe 2a bc ea 2a 15 be c1 ca 3a be f6 19 a3 3c
       -0.010436585 -0.14567152 -0.18241407 0.01990984

fc3.weight f4 [4, 128]
000000 61 3c a2 be ed 76 1a be 83 84 24 bf e5 ac 76 be
       -0.3168669 -0.15084429 -0.64264697 -0.24089392
000010 be d4 93 be f9 a5 a2 3f d9 bb c9 3f 85 10 99 3c
       -0.28873247 1.2706901 1.5760452 0.018684635
000020 af 6f 4b bf 18 91 4e be 29 8e f4 3a 0e a1 43 be
       -0.7946729 -0.20172536 0.001865809 -0.19104406
000030 e2 ca 67 bf f3 7f 87 bf 33 71 94 be 8a 6a 12 bf
       -0.9054395 -1.0585922 -0.28992614 -0.57193816
000040 6c 07 8c be ab 2c 11 be ed e4 85 3f 98 51 79 3f
       -0.27349412 -0.14177196 1.0460488 0.9739013
000050 e5 20 26 3d 99 a6 d3 be fe 60 c4 3f 21 7b 54 3f
       0.040558714 -0.4133804 1.53421 0.8300038
000060 e4 1e 9f 3f 1e 15 53 bf e1 de 6c bf 34 00 9f bf
       1.2431302 -0.824541 -0.92527586 -1.2421937
000070 65 eb 5c 3f 8a 76 c7 3f 6e 9c 5d bf 73 ff 86 be
       0.86296684 1.558305 -0.8656682 -0.26366767
000080 c4 6e 0d be 5f dd 8e be e3 ec 91 3f 39 aa 89 3d
       -0.13811785 -0.27903268 1.1400417 0.067219205
000090 8a dd 8c be 68 7a 50 bd 74 9c 9d 3f dd 48 6a bd
       -0.2751277 -0.050897986 1.2313371 -0.057198394
0000a0 1e 59 8b bd f0 97 15 bf 77 0a 93 be a6 60 0e bf
       -0.06804107 -0.58434963 -0.28718922 -0.55616224
0000b0 27 90 71 be 3f a6 c9 3e f5 be 90 3e b0 dc 46 3f
       -0.23590146 0.39384648 0.2827069 0.7768049
0000c0 78 d1 b9 bd 8a b9 ae be c3 bb 4c bd 01 24 1a 40
       -0.09073156 -0.3412593 -0.04998375 2.4084475
0000d0 dd 71 0c bf 59 12 77 bf ca fe c3 be 87 c2 c0 be
       -0.5486124 -0.9651237 -0.38280326 -0.37648413
0000e0 f4 fd 33 3f 0e a0 1a be 44 0c a9 be b8 1e f9 bc
       0.70309377 -0.15100119 -0.3301717 -0.030410156
0000f0 27 93 4e be 2a c0 c6 bd bc d3 93 3d b9 53 b1 be
       -0.20173322 -0.09704621 0.072181195 -0.34634188
000100 4f fe 16 bf 54 9e 23 bf 92 88 7c 3f 7b c9 0d 3c
       -0.58981794 -0.63913465 0.9864589 0.008653994
000110 a0 2a 8f be f7 00 6e 3f 58 b4 8e be 6b 3a 87 3d
       -0.27962208 0.9297022 -0.27871966 0.06602939
000120 e2 b6 64 be bd 46 c9 bd 45 28 26 bf 9e 88 8c 3f
       -0.2233539 -0.098279454 -0.64905196 1.0979192
000130 4f 11 ca be f7 ed 63 be 71 e5 d7 be fb 94 e4 be
       -0.3946633 -0.22258745 -0.42167237 -0.44644913
000140 5e a6 2d 3d c4 64 28 bf f1 44 4e be 62 5d 97 be
       0.04239499 -0.65778756 -0.20143487 -0.29563433
000150 a4 cf 99 be 10 b3 eb 3c a6 7d 02 bf d0 fc 83 3f
       -0.3004123 0.028771907 -0.50972974 1.0311527
000160 1b 31 85 be a8 41 53 be 50 77 1d 3d 7d b4 2d bf
       -0.26014027 -0.20630515 0.038443863 -0.6785353
000170 6b e1 86 3c ef 78 b1 bd fc 14 a9 be 51 0e 58 3d
       0.01646491 -0.086656444 -0.33023822 0.05274803
000180 e6 44 46 bd 34 05 ca be 32 15 39 bf 48 32 2a be
       -0.04840555 -0.39457095 -0.72297966 -0.16620743
000190 f4 df 79 bd c6 ab 1a 3f 18 cf 7e be 7d 73 ba 3e
       -0.061004594 0.60418355 -0.24883687 0.36416236
0001a0 0a 0e 82 bf a2 bf b4 3f b0 3f 6c bf e2 17 a6 be
       -1.0160534 1.4120982 -0.9228468 -0.32440096
0001b0 33 99 cb 3e 64 c0 b1 be ce c1 84 3e 37 c1 68 be
       0.3976532 -0.34717095 0.2592911 -0.22729956
0001c0 63 ea 3a be 77 f1 38 be d0 ec c0 be 45 a9 df be
       -0.18253474 -0.18060862 -0.37680674 -0.4368383
0001d0 8a bc 3e bf ed c1 63 be df 27 3d 3f 11 c7 67 bf
       -0.7450644 -0.22241946 0.73888963 -0.90538126
0001e0 c9 7f 4a be 18 9f 03 bf 5e 11 ad 3e 93 a9 40 be
       -0.19775309 -0.5141463 0.33802313 -0.18814687
0001f0 9a d6 28 3d 5d aa 99 bf f3 a9 90 be 36 b6 d6 bf
       0.041220285 -1.2005116 -0.2825466 -1.6774356
000200 d6 fa 9f be 93 44 6e be 2f b7 ab bf 15 b6 4b be
       -0.3124606 -0.23268346 -1.3415278 -0.19893678
000210 29 c8 41 be ff 2d a7 3f f5 4a 90 3f e9 6c 6f 3d
       -0.18924011 1.3060912 1.1272875 0.058453474
000220 1d 8c 65 bf 73 2d a2 be 30 23 95 3d 6c c9 a1 be
       -0.8966692 -0.316753 0.07282102 -0.31598985
000230 0c e1 25 bf a3 2e cf be 6f d6 df be 6d a7 79 bf
       -0.6479652 -0.40465268 -0.43718287 -0.97521096
000240 46 38 49 be d4 ca 95 be e8 e7 8b 3f 61 fb 80 3f
       -0.19650373 -0.29256308 1.0930147 1.0076715
000250 0a 5e 0f bd 39 30 53 be 02 74 ae 3f 40 44 18 3f
       -0.035001792 -0.20623864 1.3629153 0.5947914
000260 fc c3 78 3f bf a9 09 bf d1 3f 3b bf d7 57 d5 bf
       0.9717405 -0.53774637 -0.7314425 -1.6667432
000270 40 1b 4f 3f 1c cb ba 3f 43 d9 59 bf 52 8b 67 be
       0.80900955 1.4593234 -0.8509714 -0.2261174
000280 4f e5 5f be 68 43 8b be fa d2 c6 3f 92 20 6e 3d
       -0.21864818 -0.27199864 1.5533135 0.05813653
000290 5a 96 5f be 97 25 b1 be 6b 37 82 3f be 05 03 bc
       -0.21834698 -0.3459899 1.0173162 -0.0079969745
0002a0 f8 61 89 be 4b 00 29 bf da 46 80 be f1 e1 25 bf
       -0.26832557 -0.6601607 -0.25054055 -0.64797884
0002b0 51 0c 56 be 21 42 bf 3e 43 18 6a 3e 26 14 53 3f
       -0.20903136 0.3735514 0.22860818 0.8245262
0002c0 fb 53 29 be 3f a1 8d be 3f 86 63 3e 69 19 12 40
       -0.16535942 -0.27662084 0.2221918 2.282801
0002d0 e3 80 17 bf 1a d2 74 bf 55 32 6b be c4 75 da be
       -0.5918104 -0.9563309 -0.22968419 -0.42667973
0002e0 15 50 48 3f 70 20 95 be 78 31 41 be a0 7f 05 3d
       0.78247195 -0.2912631 -0.18866527 0.032592416
0002f0 83 26 8a be 8b d5 77 be 3f 6f 8e 3d 6a 5c 94 3d
       -0.26982507 -0.24202554 0.06954812 0.07244189
000300 c6 39 90 be ab 96 19 bf 81 62 2f 3f 72 83 49 bd
       -0.28169078 -0.59995526 0.6850968 -0.04919762
000310 a8 5f 28 be 43 ae 5b 3f a1 db a1 be 96 7c 78 bc
       -0.1644274 0.8581278 -0.31612876 -0.015166422
000320 b5 f6 ba bd a2 8c ae 3b eb af 19 bf 0c fd 95 3f
       -0.09129087 0.0053268233 -0.60034055 1.1717849
000330 c9 ff 81 be c7 a5 5c be d7 0b 28 bf 7d 9d 06 3c
       -0.2539046 -0.21547614 -0.65643066 0.008216259
000340 6f 14 9e 3d 0b e6 7d bd 3a be e6 bc 00 7e 53 be
       0.07718741 -0.061986964 -0.028166879 -0.20653534
000350 fa ba 31 be cc 0e 3b 3d 15 a8 e7 be 90 37 a5 3f
       -0.17356482 0.04566841 -0.45245424 1.2907581
000360 93 3e 6a be 96 dd 4e be 6c 31 14 3f 7a 2f 11 bf
       -0.22875433 -0.20201716 0.5788791 -0.5671307
000370 06 01 83 3d 2f 7a 3f be 29 fa 5f be 75 ea a4 3c
       0.063966796 -0.18698953 -0.21872772 0.02013133
000380 26 26 a7 bb 2b cc ef bd 55 9d 77 bf 56 f7 75 be
       -0.005100983 -0.11708864 -0.96724445 -0.24020132
000390 61 92 88 3d a2 c0 f7 3e 71 10 2c be 25 ad 32 3f
       0.066685446 0.48389155 -0.16803147 0.6979545
0003a0 50 a8 30 bf 72 df c6 3f fb c4 5c bf 36 ad b1 be
       -0.69006824 1.553694 -0.8623807 -0.34702462
0003b0 ce d9 db 3e a2 f4 25 be e1 5e fe 3e 4c ea 69 be
       0.4293961 -0.16206601 0.49681762 -0.22843283
0003c0 cc 42 e0 be 68 94 8c be b3 63 4a be 62 ad 3f bf
       -0.43800962 -0.27456975 -0.19764595 -0.74873936
0003d0 1c 6e 78 bf ae 39 61 be 14 71 4b 3f a7 bd 01 bf
       -0.97043014 -0.2199466 0.7946942 -0.5068001
0003e0 64 5d 7b be 41 7b 1d bf 34 1a bd 3e b0 eb 8d be
       -0.24547344 -0.61516196 0.36934054 -0.27718878
0003f0 56 1d 1d 3b 0d ae 2e be c8 1d b5 be bd 18 67 bf
       0.0023973784 -0.17058583 -0.35374284 -0.9027212

fc3.bias f4 [4]
000000 b4 28 30 3b 0f c7 a7 3c c3 b4 bf bb f3 70 23 3c
       0.002687973 0.02048066 -0.005850406 0.00997566
