checkpoint.pth (torch, 75302 bytes, 6 tensors)

fc1.weight f4 [128, 8]
00000000: d30c a63d 1aa8 2abe 1149 14bf d40b ebbe
00000010: ca93 d83e 1e89 1f3d e355 bd3e 4692 143f
00000020: 7ba3 803c fa37 d1bd 6aac e4be 2ebc 3abe
00000030: a85e 38bf 6742 0fbf f9e4 cebd 74c1 423e
00000040: ab68 1bbd 50b5 913e 2339 a5bd 0583 eb3c
00000050: 62a5 ba3e 0cd9 f53e 529e ac3e d4ff 063f
00000060: 42f4 c93c dd93 0abd aa99 0e3f 6c05 82bf
00000070: fac1 dfbe bbae 36be c923 e53c 0dd3 3c3f
00000080: 613b 24be 93ff a2bd d857 d0be 16f6 3ebf
00000090: 72f2 0cbe 696b 063e 7614 903e 04be d73e
000000a0: 0d52 e33d 2900 cdbe c119 993e c441 fcbe
000000b0: 7fa3 eabe 963e a4be 892e c53e 9bda a63e
000000c0: 6929 5fbe ba04 5fbe 6c11 093f 11a0 2f3f
000000d0: 529a ec3d df7b 43be 53ab e83e 0de2 0fbf
000000e0: 19f6 f1bd c8ac 25bf a76b d8be ec45 e7be
000000f0: ba09 083f c91c 653e 8062 273e b5a3 833e
00000100: 2fb5 ae3e 3f36 363f 8954 d6be 9a28 a13e
00000110: 902f eb3e 11d9 6e3f 6566 02bf 5daf e43d
00000120: dff4 673e 2c61 c73e 9f35 223f 3453 af3f
00000130: f566 dd3d 6d35 f9be ed1e 783e 2a97 a63e
00000140: 2269 27bf 457e 353f b520 db3e 8112 18bf
00000150: 31a2 193f 0c61 dfbe 5391 33bd 078f b33d
00000160: 1377 0b3f c5e6 dbbe 50bb 2b3f 4409 9abd
00000170: a303 0c3e 0647 f13e 6088 13bf 7be7 49bf
00000180: dd74 b0bd 9fc8 bcbe 3ce9 fdbe 1b88 10bf
00000190: ef26 253f a15f 933d 6cdd cd3e 0625 343d
000001a0: 61ed 63bf afaa 43be 9148 11bf 21dd c9be
000001b0: ee1c 883c e0b6 813c eb46 5e3e 6808 163f
000001c0: 5e1f 07be 9f10 943f 36c8 bb3e 6faf 1cbf
000001d0: 6495 c1be b114 913e d3bd 1d3e 95b2 653e
000001e0: 215b b13e 45e7 3abd 8f46 a8be b4a2 5c3e
000001f0: 659b 74be d331 50bf 25f6 193c 3213 ae3d
00000200: c650 4bbd b20e 14bf d0ab ca3e 7573 2dbe
00000210: 68e2 29bf c07f 42be 8df8 7d3e 3db8 a53e
00000220: 0a0a 0bbe 9b6b c8be ca76 de3e 4bf3 973e
00000230: d942 bd3e 3585 503f 6624 9b3e 8492 8dbd
00000240: 6d1f 80be 97ee d5be 3f02 763d ebbc 56bf
00000250: 1009 b4bc 3ef1 3ebe 084e d9bf 7bfa 42bd
00000260: 99a4 ccbd b51c 803d 85d3 173f f080 38bf
00000270: ce47 613f 63cb 02bf a507 4f3e 69fe 473e
00000280: 3bde 123e 4591 24be d971 81bf 797c 4fbf
00000290: 056e 263e 6702 cb3c b766 563d 6f5b cd3e
000002a0: 313d 9bbe cc80 a63e c04a 3b3d 1ccb a1be
000002b0: b13a 2e3f 1fa3 483e 132a ccbd 3ff9 cf3e
000002c0: 66d1 1a3d d556 58be b8eb 613e 3271 1abf
000002d0: 4777 ad3d 7fd7 a0bd 8658 d23e fe4c 573e
000002e0: 5a86 b73d 7a7a 09bd 40d2 69be d93c 27be
000002f0: 1840 a5bf 2251 cb3e 8d10 ee3e 56b7 013f
00000300: 80fe 3cbf 9aa4 483e dac7 4bbf ba5a a5be
00000310: 2113 133e ab35 3c3e 5de3 9bbe e984 6e3e
00000320: 2727 593e 29cb 173f 5664 02bf f2f5 d3be
00000330: 402b bcbe 8e05 0b3f 91f2 09be dd56 003f
00000340: 859f 463e b54b a3bf b77d 34be 741d bbbe
00000350: f1f5 633e 946a 91be bff3 c63e 0715 febc
00000360: bce5 bdbd a8ac 37be 3e07 2b3f 8434 2cbf
00000370: 625d 18bf ef4d 893e 4386 143e 9066 023c
00000380: c023 74bf fa92 5e3f fab6 24bf 3a84 863d
00000390: 4f45 2abe 012c bd3d 9d77 a33e 5ea3 193f
000003a0: 6324 973e dee0 293f 98c3 2f3e c50f c2be
000003b0: 5614 383e 233c b3be 5d6b d53d f625 fd3e
000003c0: ef5d efbe 05eb 9dbd 1116 0ebf dcde 72be
000003d0: 55a8 873e 604c 2cbf bf87 023f 956f aebd
000003e0: aafb 51be d228 85be 9048 08bf a3bc 9bbe
000003f0: 0fbc 303f 6ea9 8abd 5e67 72bf 9bf6 73be
0.08107915 -0.16665688 -0.5792399 -0.45907462 0.42300254 0.038949125 0.3697959 0.58035696
0.015702954 -0.10215755 -0.44662791 -0.18235847 -0.72019434 -0.55960697 -0.10102267 0.19019109
-0.037941616 0.28458643 -0.080675386 0.028748998 0.36454302 0.48017156 0.3371454 0.5273411
0.024652604 -0.03383242 0.5570322 -1.0157905 -0.4370268 -0.17840092 0.027971165 0.7375954
-0.16038276 -0.07958903 -0.4069202 -0.7459425 -0.1376436 0.13126911 0.2814061 0.42137158
0.11099634 -0.40039185 0.2990246 -0.49268925 -0.45827863 -0.32079 0.38512066 0.32588658
-0.2179314 -0.21779147 0.5354221 0.68603617 0.11552872 -0.19090222 0.4544321 -0.562043
-0.118145175 -0.6471677 -0.42269632 -0.45170534 0.5313984 0.22374262 0.16346169 0.25710836
0.34122607 0.7117652 -0.4186137 0.3147629 0.45934725 0.9329997 -0.5093749 0.111662604
0.22652005 0.38941324 0.6336307 1.3697267 0.10810653 -0.48673573 0.24230547 0.32537204
-0.65394795 0.70895797 0.4279839 -0.59403235 0.6001311 -0.43628728 -0.043839764 0.08767515
0.5447857 -0.429495 0.6708269 -0.075212985 0.13673262 0.471245 -0.57629967 -0.78868836
-0.0861604 -0.36871812 -0.49592006 -0.5645768 0.6451253 0.07195974 0.40207994 0.04398062
-0.89034086 -0.1910808 -0.5675135 -0.3942652 0.016615357 0.015834272 0.2170674 0.58606577
-0.1319556 1.1567572 0.36676186 -0.6120519 -0.37809289 0.283361 0.15404443 0.22431405
0.34639838 -0.045630712 -0.32866332 0.21546441 -0.23887403 -0.81326026 0.009397064 0.08499755
-0.04963758 -0.57834923 0.39584208 -0.16938575 -0.66361094 -0.18994045 0.24801846 0.32367125
-0.13578048 -0.39144596 0.43450004 0.29677805 0.36965063 0.8145326 0.30301207 -0.06912711
-0.25023976 -0.41783592 0.060060736 -0.83882016 -0.021976978 -0.18646714 -1.6976938 -0.047602158
-0.09992332 0.062554754 0.5930713 -0.72071743 0.8800019 -0.51091594 0.2021776 0.19530644
0.14342587 -0.16071041 -1.0112869 -0.81049305 0.16252907 0.024781419 0.05234405 0.4010882
-0.30320123 0.3252014 0.045725584 -0.31600273 0.68058306 0.19593476 -0.099689625 0.40619847
0.037797354 -0.21126874 0.22062576 -0.6032897 0.08470016 -0.078536026 0.41083163 0.21025464
0.089611724 -0.03356407 -0.2283411 -0.16331805 -1.2910185 0.39710337 0.46497002 0.50670373
-0.73825836 0.1959404 -0.79601824 -0.3229578 0.14362766 0.18379848 -0.30446902 0.23292889
0.21206342 0.5929437 -0.5093435 -0.4139858 -0.36751747 0.5430535 -0.13471438 0.5013254
0.1939679 -1.2757479 -0.17626081 -0.36545908 0.22261788 -0.28401625 0.3885784 -0.031015886
-0.09272334 -0.17936957 0.66807926 -0.6726763 -0.5951749 0.2681727 0.14504342 0.007959023
-0.9536705 0.8694302 -0.643417 0.06568189 -0.16628002 0.09236909 0.31927195 0.60014904
0.29519948 0.66358745 0.17164457 -0.37902656 0.17976508 -0.35006818 0.104208685 0.49443024
-0.46751353 -0.07710842 -0.5550242 -0.23717827 0.26495615 -0.6730404 0.5098838 -0.08517376
-0.20506158 -0.26007706 -0.5323572 -0.30417356 0.69036955 -0.067705974 -0.94688976 -0.23824541

fc1.bias f4 [128]
00000000: 5e74 263e 2cef fabe bfdb 5cbd ec6d 263c
00000010: 0137 12be 28f1 d0bd a8e9 cb3e 860f d23b
00000020: 482c e43e 2842 663e e035 36bc 0997 ad3e
00000030: ebc5 8abe 0d50 64bd b7f7 5dbe e940 d83e
00000040: add2 e23d 929f a73e dd1c 9b3e 7903 25bd
00000050: 1a4a 273e 86f7 573e 5d05 2d3e d02a babb
00000060: b277 a9be c60b c53e bac2 a0be 632d bcbe
00000070: 676c 8d3e 1ec5 9b3e d712 bcbe 37cb 44be
00000080: 15e4 323e cbdd 013e 9aad b93e fee9 aebe
00000090: 14f2 dabe 7dbe eb3c 9657 ba3e f03e 893e
000000a0: a8e3 7fbe f3b5 82be dbb7 2f3e 7905 1a3e
000000b0: 798d e63e da46 8d3e f638 5b3e e211 bcbc
000000c0: 8a05 353f 9c27 8ebe f11b 123f b9e0 f9be
000000d0: c9ef b3be 3926 adbd 131a c93e 5c46 6a3e
000000e0: 91aa 863e da4e ebbe f619 18be 9b42 cbbd
000000f0: c9ac 413e 4dc7 9b3e ec48 0e3e 8440 dbbb
00000100: 2daf cc3d aee1 77be 3425 233e f90c 6f3e
00000110: 04f4 b8bc 1daf d03e 6690 77be c4e8 f53d
00000120: 01c1 743c 0597 98be 59d1 84bd 2e10 a33d
00000130: f253 55be 2b3b b6bb 8e15 e33e 24b3 703e
00000140: cb17 84bd 5cf8 1a3c 5c18 48be 2727 453e
00000150: c62f 9f3e b2f4 df3c 70aa 2d3e e9ae 25be
00000160: a0ed 6939 762d 793e 7c35 cabe 312a 143e
00000170: 66c9 36be eb0e 0abc dc9d 65be dd8c bf3b
00000180: a985 5cbe a85a c5be cb32 92be 61e6 8abd
00000190: 2169 ebbe 0cb5 c0be aefc 82be 3474 83be
000001a0: 109e a2bd 4f6e d33d cebf 14be 6c02 1d3e
000001b0: 997d 5a3e d962 4a3f 5529 813e 5ea1 d43e
000001c0: 5143 7e3e f27f 72be 92f6 fb3e b7c4 cfbe
000001d0: b737 d13d 42f8 74bd 30e3 d4be e0ff 273d
000001e0: 957f 7f3e 14c8 1abe 471a 853e 3005 7ebe
000001f0: 86d6 1b3e 9957 c2ba 9188 ad3d 1269 86be
0.16255328 -0.490106 -0.053920504 0.010158043 -0.14278795 -0.10202247 0.39826703 0.006410542
0.44565034 0.22486174 -0.011121243 0.33904293 -0.27104124 -0.055740405 -0.21676527 0.42237023
0.110753395 0.3273893 0.30295458 -0.040286515 0.16336861 0.21090516 0.16896577 -0.005681373
-0.33099133 0.38485545 -0.31398565 -0.36753377 0.27621767 0.30423826 -0.36733124 -0.19218145
0.17469819 0.12682264 0.3626526 -0.34162897 -0.42762816 0.028777355 0.36394948 0.2680583
-0.24989188 -0.2552944 0.17159979 0.1504115 0.4502981 0.27593118 0.21408448 -0.022957746
0.70711577 -0.27764595 0.57073885 -0.48804262 -0.3514388 -0.08454556 0.39277706 0.22878402
0.26302007 -0.45958596 -0.14853653 -0.09924813 0.18913569 0.30425492 0.13895005 -0.0066910405
0.0999435 -0.24207184 0.1593216 0.23344792 -0.022577293 0.407586 -0.24176177 0.12007287
0.014938594 -0.2980272 -0.064852424 0.079620704 -0.20832804 -0.0055612526 0.44352382 0.23505837
-0.06449851 0.009458628 -0.19540542 0.19253217 0.31091136 0.02733836 0.16959548 -0.16180004
0.00022309134 0.24333748 -0.3949393 0.1446922 -0.17850265 -0.008426408 -0.224235 0.0058456496
-0.21535362 -0.38545728 -0.28554377 -0.067822225 -0.45978644 -0.37638128 -0.25583404 -0.25674593
-0.07940304 0.10323774 -0.14526293 0.15332955 0.21336974 0.7905708 0.25226846 0.41529363
0.24830367 -0.2368162 0.49211556 -0.4057977 0.10215705 -0.05980707 -0.4157958 0.041015506
0.24951012 -0.15115386 0.2599661 -0.24806666 0.15218553 -0.0014827132 0.084733136 -0.26252037

fc2.weight f4 [128, 128]
00000000: 1de3 533d 670d d13e 9227 f23d bb8a b5bd
00000010: 1dea 803e 8ce2 193e 75b6 48bd d248 4d3e
00000020: dee1 90be b7ab 1abd 46b9 5ebe 57f1 c5be
00000030: 1f87 6d3e add8 6d3e 5126 1a3e 871a 083e
00000040: a85a 543d f737 d9bd c91e 31be 5f25 61be
00000050: a2a3 0e3e 9d91 943d b797 13bd fdad 80bc
00000060: 3d5f 5f3d 813a a23d 9db8 a6be 9c51 c73e
00000070: aa48 943e 0c32 43bb c07c 11be 4727 193e
00000080: e99a e23d 9920 1cbe f1a4 853d 6303 2c3f
00000090: bd09 e9be 6b51 943e 6010 50be 527a 9b3d
000000a0: d460 0a3b 8164 c63e 0594 103e 86de e83b
000000b0: cfa7 10bf 0208 c9bd 3772 063e d126 6a3e
000000c0: fd13 9bbe be6b 4d3e cca2 913d 1286 83bd
000000d0: 46c3 893e 5df5 f93e 1abd 21bd 0891 c93d
000000e0: 6a5a 0f3e 08b9 963e 8ee3 ba3d 625a a63e
000000f0: 180f 833c 503c 38be 34e6 0cbf 9737 833e
00000100: c3e5 493e 8cd2 ce3e ef7f f93d 0a89 773e
00000110: 7c10 52be cdbd 5d3d db72 4d3e 3431 2e3e
00000120: ac73 3e3d ca80 563e 41e6 b3be 9865 5b3e
00000130: 765a 373e f317 14be e599 f6bc ccc5 a93c
00000140: 282e 41be c476 d6be fcdc 013e adf2 4e3e
00000150: 03b4 a5bd 88a0 3f3d 8e9f 0a3e 384a cdbb
00000160: 6397 0ebd 02a2 033e 3f76 e03e b398 59bf
00000170: 0e3b 553e aced 99be a2a4 063e 4516 cbbd
00000180: c6cd 293e f6e6 0c3f 0537 923e 5846 823e
00000190: 3c6d bb3e 245f 90be ca37 583e fcfd 803e
000001a0: 25c7 cf3d bef1 2ebf 72dd c43e bea4 3bbb
000001b0: 1ccd 4e3d 69f0 83bd 140a eb3d fde1 bbbe
000001c0: 05d4 093d 4de9 dd3d 5680 0abd 0964 d33d
000001d0: f66f e93d 892b 413e dbe9 0f3e 5e2b 893d
000001e0: b4ec 173d c1d6 b7be 03d5 ac3d 57c8 9b3e
000001f0: 8f87 a93d e102 293d ff8f 4a3e cc87 5e3d
00000200: d1b2 8a3e bdc5 25bf 7aa6 4f3d 240f d33d
00000210: a3a0 d1bd d1b6 9ebe dac8 2cbe 4e0b bfbc
00000220: 4b0d 1b3e 0f84 e1bf 26b3 953e eecb afbe
00000230: 815c c7bd abe0 52bd 02cb dc3e 0565 cdbe
00000240: 5786 90be 4f89 03be 7fd3 67bf fa4e 103f
00000250: bafa 893e 0a7c 2ebe 4aa0 70be 1f6d 333f
00000260: 96e1 d03e 43f5 bc3e 7931 833e 8e14 f9be
00000270: 0d0c cf3d fd6f 523d 949c 5a3e 6d9a 4dbf
00000280: 90c2 a43e 3649 2bbf e728 5b3d 57c4 8b3e
00000290: 9e65 50bf 0979 30bf 07aa 76bf 1274 c93e
000002a0: a00a 69be aea9 f7bd df8e 12bf 923e 4bbe
000002b0: 8a25 633e 9328 8dbd 1f9b c4be cdbe 61bf
000002c0: a9d9 b93d 0bf1 113d c56c 893d a247 0abf
000002d0: 0862 36bf 5611 15bf bf0e 463e 46d1 b23e
000002e0: c8a7 15be b8e3 88be 04d2 e8bd c398 c83e
000002f0: 6d3a a03d dc8b 373d a892 223f d16a a3bd
00000300: c5c7 b9be b655 a6be 93aa 99bf f88f cbbc
00000310: 61f2 dc3e fb5a 42be 8b44 683e 9d15 9fbf
00000320: bae2 31bf d151 00be 5449 d23e 204f ab3b
00000330: 0301 dcbd db50 273f 5330 a53e 7a91 3d3d
00000340: cdfb fa3e 490e c23e 8cf6 fdbe 9288 4fbf
00000350: 5bf3 4d3e 2d74 59be 2e61 eebe 5a45 d8bf
00000360: b587 5bbf a7af 90bd e24f 99be f5d6 2f3e
00000370: f2bb b0be c0b3 8b3e 927c 223f 6d09 9b3e
00000380: 2a4b 64be 86a4 01bf cd51 0fbe 0f5a 0a3f
00000390: e4ab 32bc 62d9 b6bd bc39 39bf e7ec 39be
000003a0: fed6 8e3e def7 673e 9223 38bf 18fa 98be
000003b0: 7aa8 9d3e 0f7a aabd 5a71 1ebf 6292 593e
000003c0: 43ff cbbd ff01 073e 68d3 a73e 0ea7 f73b
000003d0: cebe b43e 0771 1cbf 2b83 f9bd a0df 56be
000003e0: 5f07 853e 694e 193e 7562 afbd 3e89 0b3a
000003f0: 2748 fdbe 575c 543e f59d 0bbf c6fd 40bf
0.051730264 0.40830538 0.11823954 -0.08864351 0.25178614 0.15027827 -0.04900213 0.2004731
-0.28297323 -0.037761416 -0.21750364 -0.3866069 0.23196076 0.23227187 0.15053679 0.1329137
0.05184427 -0.106063776 -0.172969 -0.21986912 0.13929608 0.07254336 -0.03603336 -0.015707964
0.054534186 0.07921315 -0.32562724 0.3892945 0.28961688 -0.002978447 -0.14207745 0.1495639
0.11064703 -0.1524681 0.06525601 0.6719267 -0.45515242 0.28968367 -0.20318747 0.0759169
0.0021114843 0.38748553 0.14118965 0.007106605 -0.56506056 -0.098159805 0.13129507 0.2286637
-0.30288687 0.20060632 0.07111129 -0.06422056 0.26906794 0.4882001 -0.039486982 0.09842116
0.13999334 0.29438043 0.09125434 0.32490832 0.015998408 -0.17991757 -0.5503876 0.2562835
0.19716553 0.4039501 0.121826045 0.2417337 -0.20514101 0.054136086 0.20063345 0.17010957
0.046497032 0.20947567 -0.35136607 0.21425474 0.17905602 -0.14462261 -0.03010268 0.0207242
-0.18865263 -0.41887486 0.12681955 0.20209761 -0.08090975 0.046783954 0.13537428 -0.006264951
-0.034812342 0.1285477 0.43840215 -0.84998626 0.20823309 -0.30064142 0.1314874 -0.09916357
0.16582403 0.5503992 0.28557602 0.25444293 0.36606777 -0.28197587 0.21115032 0.25193775
0.10145406 -0.6833762 0.384502 -0.002863213 0.050488576 -0.06442339 0.114765316 -0.36695853
0.033649463 0.10835514 -0.033813797 0.103218146 0.11398308 0.18864264 0.14054053 0.06697725
0.037090972 -0.35906032 0.08439066 0.30426285 0.08277809 0.04126251 0.19781493 0.054328725
0.2708955 -0.6475485 0.050695874 0.10305622 -0.10235717 -0.30998853 -0.16873494 -0.02332082
0.1514179 -1.7618426 0.29238242 -0.34335274 -0.097344406 -0.05148379 0.43123633 -0.40116134
-0.28227493 -0.12845348 -0.9055709 0.5637051 0.26949102 -0.17039505 -0.23498645 0.7008838
0.40797108 0.3690587 0.25623682 -0.48648494 0.101097204 0.05137633 0.21348792 -0.8031376
0.3217969 -0.66908586 0.053505804 0.27298233 -0.81405056 -0.68934685 -0.9635319 0.39346367
-0.2275796 -0.12092911 -0.57249254 -0.19848087 0.22182289 -0.068925045 -0.38399598 -0.88181764
0.090747185 0.035630267 0.06710199 -0.54015553 -0.71243334 -0.5822958 0.19341563 0.34925288
-0.14614785 -0.26736236 -0.11368182 0.39179048 0.07823644 0.044811115 0.6350503 -0.07979358
-0.36285225 -0.32487267 -1.200518 -0.024848923 0.4315367 -0.18980019 0.22682397 -1.2428471
-0.6948658 -0.1253121 0.4107157 0.0052279383 -0.107423805 0.6535775 0.3226343 0.046281315
0.49020234 0.37901524 -0.49602163 -0.81067765 0.20112364 -0.21235724 -0.46558517 -1.6896164
-0.8575395 -0.07064753 -0.29943758 0.17171843 -0.3451839 0.27285576 0.6347133 0.3028063
-0.22294298 -0.5064167 -0.13996048 0.5404367 -0.01090524 -0.08928181 -0.7235372 -0.18156777
0.278984 0.22653148 -0.71929276 -0.29878306 0.307926 -0.08324062 -0.6189171 0.21247247
-0.09960797 0.13184355 0.32778478 0.0075577563 0.35301822 -0.61109966 -0.121832214 -0.20983744
0.25982186 0.14971317 -0.08563701 0.000532288 -0.4946911 0.2073835 -0.545379 -0.7538723

fc2.bias f4 [128]
00000000: d890 67be a90e b4bb d5d6 afbd 9cdf 78bd
00000010: 763c 2bbd 778f 72be 96d4 73be 8df3 d03c
00000020: 63c9 f63d 9ce7 ce3c 7215 d4bc 6e46 0f3e
00000030: 2a80 223c 122f 6ebd c478 77bd d0da cfbc
00000040: 2336 193d b226 5dbd e503 733d 78fc 8e3d
00000050: 0e1b fe3e fd04 a93d 5c8b 8cbd 001d dcbb
00000060: bab1 573b 6352 c83d 55c0 673c 347a 983d
00000070: 9f57 92bc 1811 3e3e 5123 f43d 5bc1 6bbd
00000080: acd8 683d 0171 1c3c 56e6 cbbe a93c b0bd
00000090: e6c8 6abe 73c2 debd 4f82 5e3e b61c bbbd
000000a0: 8066 d7bd d283 87be dd28 94bc 0d74 0f3c
000000b0: c7e9 04be 0026 293f 61ca 4e3c 6c88 88be
000000c0: 7302 a2bd c24a 8dbd 46db e8bd 0d7c 303e
000000d0: 1107 563e b40d c2bd a761 d33c 41a6 1abe
000000e0: 0236 433e 1c3f e5bc 62ee 8bbd ccc3 4d3e
000000f0: 528c 26bd b25c 18be bff7 7ebd 97c4 8abe
00000100: f73b 90bd cbf3 323e c736 0f3f 7060 023e
00000110: 04a3 85bd 7c22 4f3e ec89 19bd 53c3 a83d
00000120: 98d3 9bbc 5c6b 12be d446 163e 8ce5 803e
00000130: 2d23 b8bd 7e1c 9d3d 9071 4bbe d5d1 0d3e
00000140: e2f0 efbd b4cc 8cbe 3187 02bd 54e3 6e3b
00000150: ef70 1fbe 25b0 41be 615e c13d f59d 30bd
00000160: 064d a4bd 5f9e ed3c db54 c5bc fc8b 1ebe
00000170: 359e b13d 18df 1fbe 832d bc3c 347b 35be
00000180: 77dc a43c bb9b d03c 73c1 c33d b1cd 73bd
00000190: e578 0dbd d9db 1cbe 5fcb aebc b86a de3c
000001a0: 0562 37bd 48eb 15bb a2e5 e93d 7d18 80be
000001b0: e591 3e3d f5b0 3e3e 6810 20be 5208 11be
000001c0: 11fa bc3d 2299 32be 9b8c 953c 6e02 813c
000001d0: ede0 85bd 182f 34be 6e11 93bd 4f48 8d3d
000001e0: 9fd4 88bd 52b6 e63d e9fa a43d e3ce 903e
000001f0: 0f91 cdbc b3cc 663d a63c 933d 95d9 fb3d
-0.22613847 -0.0054949117 -0.08585898 -0.060760126 -0.041805707 -0.2368754 -0.23811564 0.025506759
0.1205013 0.025256924 -0.025889132 0.1399171 0.009918252 -0.05815036 -0.060417905 -0.025372893
0.037405144 -0.05399198 0.059329886 0.06981748 0.49630016 0.082529046 -0.06862518 -0.0067173243
0.003291233 0.09781339 0.014144977 0.074451834 -0.017864047 0.18561208 0.119207986 -0.057557445
0.05684726 0.009548427 -0.3982417 -0.0860532 -0.22928199 -0.10876932 0.21729396 -0.091363356
-0.10517597 -0.26467758 -0.018085891 0.008755696 -0.12979804 0.6607361 0.012621493 -0.26666582
-0.079106234 -0.068990245 -0.11369948 0.17234822 0.20901133 -0.0947527 0.0258034 -0.15102483
0.19063571 -0.027984194 -0.06832577 0.20094222 -0.040661164 -0.1487911 -0.062247988 -0.2710311
-0.070426874 0.17475812 0.5594296 0.127321 -0.065252334 0.20227998 -0.03748505 0.0824038
-0.019021794 -0.14298767 0.14675456 0.2517513 -0.08991084 0.0767145 -0.1986754 0.13849576
-0.117158666 -0.27499926 -0.03186721 0.0036451416 -0.15570424 -0.1891485 0.094418295 -0.04311939
-0.080225036 0.029006181 -0.024088314 -0.15483087 0.08672754 -0.15612447 0.02297092 -0.1772278
0.020124657 0.025464883 0.09558382 -0.059522334 -0.034539122 -0.1531824 -0.02133721 0.027150497
-0.044771213 -0.0022875834 0.11420752 -0.25018683 0.046525855 0.18622191 -0.15631258 -0.1416333
0.09227384 -0.17441228 0.018255522 0.015748229 -0.06537042 -0.1759609 -0.07181059 0.068985574
-0.06681179 0.112652436 0.0805567 0.28282842 -0.025093583 0.05634756 0.07189302 0.1229736

fc3.weight f4 [4, 128]
00000000: f9a2 93be 7a44 c53f 8da4 f9bd e44d 04bc
00000010: 240c c3be 75dd 3a3e 5891 0b3f 7b52 5c3c
00000020: 5313 253f 8f35 aabe 2b3d 1c3f 0b62 c73f
00000030: ceed 583d 8724 153e 579f 85be 7c07 713f
00000040: b150 a1be 24c9 4fbe f575 063a b078 883f
00000050: 40bc 0fbf 3e26 b6be 0233 443d faf3 843d
00000060: a684 91bc 5fc7 bebe ef9d 80be 633f 67be
00000070: a1c8 ce3c 9960 bc3f 1e47 513f 9396 aabe
00000080: 0aef 803c 973e 8bbe 167c 39be 565e f33e
00000090: 418e b0be c6cc dfbe c880 353f dd48 6abd
000000a0: 6ba7 993f 0011 92be 9a01 a1be 740c 95be
000000b0: 509b 2abf b590 9d3f cc62 a2bc 25cb 87bf
000000c0: 06e3 cdbe 3d35 8fbd c64b 03bf 04d8 8ebe
000000d0: fe87 b1be 5754 773f 5a80 04bf f0e2 c9be
000000e0: 6cd1 13bf f0b7 71be afa5 423f f30e 98be
000000f0: fa08 54be 79f7 9fbe bcd3 933d f710 bcbe
00000100: 4790 80bf d6fc 3abf dea7 c13f b61c 79bf
00000110: 6ddb cfbc 5e63 843f 4c91 59be 9b8b d43f
00000120: 12f8 95be dcad 04bf 97c3 f6be 5dec 923f
00000130: 12c4 83be 5664 8fbe 919c 043f 2e3c acbe
00000140: 272d 283d f6db 0abf 624b b6be e861 acbe
00000150: 5bda 4fbf 0483 963d 8ff1 89be 0080 41be
00000160: a1a0 a6be 8d12 98be b7f3 85bc 2390 53be
00000170: f4bf eb3d aac0 b7be 1fef 67be 0978 b03e
00000180: b61b adbe cf82 a6be 1bb4 c7be f26d c3be
00000190: a79a 42bf bfa7 8e3a 004c 94be 1010 723f
000001a0: 6099 bdbe f72e 05be 729a f8bd ae65 91be
000001b0: dce2 0340 c4f9 d3be 8ae2 8cbe fd22 f2be
000001c0: 030a 2bbd ce4c a9be 8748 90be 3abe 853d
000001d0: 1b0f e7be d5a1 05be 4d4e f3bc 88b0 6dbe
000001e0: 4f3f c1be 5c24 97be 54cb 8bbe 5f5d 08be
000001f0: f9a2 153d 5e70 873f 43ae 453f ec12 95be
00000200: 4b39 b0be 1147 883f e4f2 cebd 0f72 eabc
00000210: 4afa 93be 3ec9 13be b2d6 053f e96c 6f3d
00000220: 2f19 7a3e b666 86be 11ec 4f3f aaf8 b53f
00000230: 1141 9a3d 5af4 7d3e cb06 ffbe d890 a03f
00000240: c2de 9fbe 6253 70be 4844 0d3d 1c9e b43f
00000250: c646 2abf 241d e7be ced1 963d 08a6 953c
00000260: f746 013d feb7 b3be 00eb 9abe 4bda c0be
00000270: 34d0 953d 869c e73f eadc 483f d049 9fbe
00000280: 614c b53e fc50 bfbe 68d0 2b3e 1aa0 713f
00000290: 3cc6 0bbf 08e7 dcbe 4abf 863f be05 03bc
000002a0: b4f6 203f d0d3 a23d 934c 93be f927 99be
000002b0: 17b4 1abf 95dc ab3f 55f0 983d 1809 0bbd
000002c0: 25b5 29be eacd 80bd 1960 debe 4f1e 76bd
000002d0: f3a8 eebe d81d 973f 68bd cdbe e1c5 30bf
000002e0: be2d 0abf 3d07 b6be 1dc0 c93e 37c7 73be
000002f0: 6f9e b0be 3d4c b3be 3f6f 8e3d e541 193e
00000300: 2bf6 2fbf 1784 11bf 74da 973f e3fb 6bbf
00000310: b0e2 a13d 4710 753f 01ae 72be 92a6 e53f
00000320: 5c49 95be b6d6 cbbe 4a91 b1be 41e7 a73f
00000330: e6d0 c1be e359 bebe a2d5 463f f530 10be
00000340: 477c 903d 217b 513f cd05 57be 42ce abbe
00000350: 0c93 d9be ca43 1d3e becb 8cbe 6534 25bf
00000360: 3fbd a3be aabb a6be 183c 803c 7d40 75be
00000370: ea95 2e3e fb0f 25bf 2f82 32be abb7 59be
00000380: f900 61be 8118 80be 59d8 c2be 7c14 e9be
00000390: de7f 9fbe 9ea8 273f 019a 9bbe b574 763f
000003a0: 2793 15bf 34c6 dcbe e780 193f 03cf c8be
000003b0: c782 f13f 14db eb3c 5939 09be 7488 e0be
000003c0: 9266 9e3d 6f9b 95be 7f3b bcbe 5ea8 72bc
000003d0: ae67 e9be eb3a 26be 6166 90bb fd43 f1be
000003e0: 3008 c7be 68ba a5be 284f f6be 9754 8c3e
000003f0: 0c41 81bc 5961 383f b94c 503f 874d d2be
-0.28835276 1.5411522 -0.12189589 -0.008075211 -0.380952 0.18248542 0.5451865 0.013447399
0.6448261 -0.33243987 0.61030835 1.5576795 0.052961163 0.14564715 -0.2609813 0.94152045
-0.31506875 -0.20291573 0.00051292713 1.0661831 -0.5614662 -0.3557605 0.047900207 0.06491847
-0.017763447 -0.37261483 -0.25120494 -0.22582774 0.025242152 1.4716979 0.8174914 -0.33318004
0.015738983 -0.2719619 -0.18113741 0.4753291 -0.3448353 -0.43710917 0.7089963 -0.057198394
1.2004217 -0.28528595 -0.31446534 -0.29111063 -0.6664324 1.2309786 -0.0198225 -1.060887
-0.40212268 -0.06992576 -0.51287496 -0.27899182 -0.34674066 0.9661307 -0.5175835 -0.39430952
-0.5774143 -0.23605323 0.76034063 -0.29698905 -0.2070655 -0.31243494 0.072181195 -0.36731693
-1.004403 -0.7304205 1.5129354 -0.97309434 -0.025373185 1.0342824 -0.21246833 1.6605104
-0.29290825 -0.5182779 -0.48196098 1.1478382 -0.25735527 -0.28006238 0.518014 -0.33639663
0.041058686 -0.54241884 -0.35604388 -0.33668447 -0.8119256 0.07349208 -0.26942107 -0.18896484
-0.32544425 -0.29701653 -0.016351564 -0.20660453 0.115112215 -0.3588918 -0.22649811 0.3446658
-0.33810204 -0.32521674 -0.39004597 -0.3816982 -0.7601723 0.0010883732 -0.28964233 0.9455576
-0.37031078 -0.13006197 -0.12138833 -0.28397888 2.0607214 -0.41401494 -0.27516586 -0.4729232
-0.041757595 -0.3306641 -0.28180334 0.065304235 -0.45128712 -0.13050015 -0.029700423 -0.23211873
-0.37743613 -0.29519928 -0.27303565 -0.13316868 0.036532376 1.0581167 0.7721903 -0.29116
-0.3441871 1.0646688 -0.101049215 -0.02861884 -0.28901893 -0.14432237 0.52280724 0.058453474
0.2442367 -0.26250237 0.81219584 1.4216511 0.07531942 0.24800244 -0.4980987 1.2544203
-0.31224638 -0.23469308 0.034488946 1.4110751 -0.6651424 -0.4513942 0.07364236 0.018267646
0.031561818 -0.35101312 -0.30257416 -0.37666544 0.07315102 1.8094642 0.7846209 -0.31111002
0.35409835 -0.37366474 0.1677872 0.9438492 -0.54599357 -0.43145013 1.0527127 -0.0079969745
0.6287644 0.07950556 -0.2876936 -0.2991331 -0.60431045 1.3426691 0.07467715 -0.03394422
-0.16573007 -0.06289275 -0.43432692 -0.0600875 -0.46613273 1.1805983 -0.40183568 -0.6905194
-0.5397605 -0.35552397 0.39404383 -0.23806463 -0.34495875 -0.35019103 0.06954812 0.14966543
-0.68735 -0.5684218 1.1863542 -0.92181224 0.07904565 0.9572796 -0.2369919 1.7941458
-0.2915753 -0.3981225 -0.3468116 1.3117448 -0.3785469 -0.37177953 0.7766973 -0.14081176
0.07054954 0.81828505 -0.20998307 -0.335558 -0.42495 0.1535789 -0.27499193 -0.6453307
-0.3198032 -0.3256505 0.015653655 -0.23950382 0.17049375 -0.6447751 -0.17432474 -0.2126147
-0.21973027 -0.25018695 -0.38055685 -0.4552344 -0.31152242 0.65491664 -0.30390933 0.9627183
-0.5842766 -0.43119967 0.59962314 -0.39220437 1.8868035 0.028790988 -0.13400783 -0.43854105
0.077344075 -0.2922015 -0.36764142 -0.01481065 -0.45586914 -0.16233413 -0.0044067358 -0.47122183
-0.38873434 -0.3236878 -0.48107266 0.27408287 -0.015778087 0.7202354 0.8136707 -0.41074774

fc3.bias f4 [4]
00000000: e7f1 9a3d b4f0 c3bc fff7 e93d 0d86 113d
0.075656705 -0.023918487 0.114242546 0.03552823
