dqn_policy.pth (torch, 75302 bytes, 6 tensors)

fc1.weight f4 [128, 8]
000000 b0 86 22 3e a8 6f d4 3e ac 15 2c bf bd 29 94 bf
       0.15871692 0.41491437 -0.6722057 -1.1575238
000010 99 54 51 3e aa 10 29 3e e5 d9 83 3d 8f 87 60 3e
       0.20442428 0.16510263 0.064380445 0.21926711
000020 64 d9 71 3f dd 12 d1 3d eb 4d db be a5 f8 cc bc
       0.94472337 0.10208676 -0.42832884 -0.025020907
000030 88 ff 81 be d8 23 12 bf 1e 20 45 bf a3 6d 88 3e
       -0.25390267 -0.57085943 -0.7700213 0.26646146
000040 30 81 a0 be 2d 41 05 bf 53 40 c7 3e b8 68 07 40
       -0.31348562 -0.52052575 0.38916263 2.1157665
000050 df b8 ab 3e 29 0d 03 3f a9 11 96 3e 5e 14 f2 3e
       0.33539483 0.51191956 0.2931035 0.47281164
000060 d6 e1 2e 3e 9b 3c 0f be e8 3f 30 3f d3 6b 66 bf
       0.17078337 -0.13987963 0.68847513 -0.90008277
000070 d2 a5 14 bf e1 3d 1b bf 33 33 67 be 6e e6 ad 3e
       -0.5806552 -0.60641295 -0.22578125 0.33964866
000080 ed dc 83 3e 06 ad e0 bf 3b 44 29 bf 0d 66 94 bf
       0.2575449 -1.7552803 -0.66119736 -1.1593643
000090 97 a6 d5 be ea 77 c8 3e 31 24 94 3e 32 45 b4 3e
       -0.4172866 0.39153987 0.28933862 0.35209042
0000a0 4b e7 1f 3c 14 ca 0f bf 63 5b 8c 3c a3 19 21 3f
       0.009759734 -0.5616772 0.01713342 0.62929744
0000b0 7e da ef be 92 22 b4 be ad 1e 64 3e e8 14 a8 3e
       -0.46846384 -0.35182625 0.22277327 0.3282845
0000c0 ea 0a 34 bf 07 e8 0c bf c8 a3 38 3f 9a 48 2a 3d
       -0.70329154 -0.55041546 0.7212491 0.041573144
0000d0 85 68 87 be 0e 65 11 3e 4f 69 9b 3e 5f 76 05 bf
       -0.2644693 0.14198706 0.30353782 -0.52133745
0000e0 1b 66 91 3e 16 a0 d2 bf a2 1a d3 be 5c 09 5f bf
       0.28398213 -1.6455104 -0.41231257 -0.87123656
0000f0 22 13 2d 3f 11 ae da 3e e1 b3 4b be d4 ff 66 3d
       0.6760732 0.42710927 -0.19892837 0.05639632
000100 aa b9 93 3f a8 58 c9 bd 17 c5 8a 3e 04 93 86 be
       1.1541035 -0.09831363 0.27103493 -0.2628404
000110 55 56 17 3f f4 63 2c 3e aa bf 04 be 4a cd b5 3c
       0.5911611 0.16835004 -0.12963739 0.022192616
000120 1a 7c a5 3c 39 26 e6 3e 84 2d e7 3e 71 30 ce 3e
       0.020200778 0.44951037 0.45151913 0.40271333
000130 87 aa b8 be 01 62 65 bf ee 54 b6 bc 5f ac f6 bd
       -0.36067602 -0.8960267 -0.022257295 -0.12044596
000140 b1 df ed be c5 28 c0 3e f9 94 2e 3f 22 bc 67 bf
       -0.46459725 0.37531105 0.68196064 -0.9052144
000150 70 ab 8c 3e 79 a5 c1 bd 17 c4 89 3e cd 40 17 bf
       0.27474546 -0.094553895 0.26907417 -0.59083253
000160 44 78 a6 3f da 62 fb bd 2c 5b 8c 3e 33 cd 9a be
       1.3005452 -0.12274714 0.2741331 -0.3023468
000170 8c 80 f1 bd 2a 83 9c bd 96 7e 0f bf ea 56 5f 3c
       -0.117920965 -0.07642205 -0.5605253 0.013631562
000180 0c 74 aa be f8 57 d3 be aa 1f a7 be 8d 35 2f bf
       -0.33291662 -0.41278052 -0.32641345 -0.68441087
000190 5b 9f 29 3f 4b 1d 24 3f 26 0a 87 3e 79 90 ae be
       0.6625878 0.641072 0.2637493 -0.340946
0001a0 f5 8e d0 3c 9a 37 83 3e 2c 95 ad bf e8 66 83 be
       0.025458792 0.25628358 -1.3561149 -0.2566445
0001b0 f3 83 bb 3f f8 cc 37 be d7 f2 fa bd 96 09 73 3e
       1.4649643 -0.17949283 -0.12253349 0.23734125
0001c0 91 47 cc be 86 e3 bd 3e 7a 1e be bd 4e 01 99 3e
       -0.3989835 0.3708765 -0.09283157 0.29883808
0001d0 90 ab 6a bf 3b 80 44 be de 74 8e 3e 6e 44 fe 3c
       -0.91668034 -0.19189541 0.27823538 0.03103849
0001e0 a6 f6 bb 3e e8 7a 92 3d 06 43 f3 bd 68 1f 00 3e
       0.36711615 0.07152349 -0.11878018 0.1251198
0001f0 6b 98 6f bf 7b bd 52 bf e8 a9 bf be f7 e0 92 3d
       -0.93591946 -0.82320374 -0.37434316 0.07171815
000200 b4 82 45 bf a6 d9 92 be 75 bc 17 bf 6d 53 08 bf
       -0.7715256 -0.28681678 -0.5927194 -0.532523
000210 f5 a4 e2 be 29 2c cb be a6 4d 75 3e ee c2 71 3e
       -0.44266477 -0.3968213 0.23955402 0.23609516
000220 75 d1 02 bf f2 b8 c3 bd dc c5 b3 3d 0d e6 3f 3e
       -0.51100856 -0.0955676 0.08777973 0.18740101
000230 9e 20 16 3f 44 48 0a 3f 3b 9e e8 3e 29 06 2c 3c
       0.5864352 0.5401652 0.4543322 0.010499516
000240 cd a4 a9 3e 64 7a 2c 3e a0 73 c6 bd 33 53 ac be
       0.33133546 0.16843563 -0.096900225 -0.33657226
000250 c7 dc d8 3d c0 41 07 bf 8c cd 71 bf 3e 39 7c bd
       0.10588985 -0.528347 -0.94454265 -0.061578028
000260 e3 85 44 be a9 bb c2 3e 27 40 1f 3f 36 4e 1b bf
       -0.19191699 0.38033798 0.62207264 -0.60666215
000270 e6 89 4c 3f 9d 4f b3 be 9c aa 38 3e 16 98 47 3d
       0.79897916 -0.35021678 0.18033832 0.048729025
000280 87 bf 7d 3e 7e 1e 83 3e 7f 97 1a bf 5d 1a 86 bf
       0.24780093 0.256092 -0.60387415 -1.0476795
000290 6e 5c a6 3f 80 71 06 3f 2e a3 97 3c c0 de 3a 3e
       1.2996957 0.5251694 0.018510427 0.18249035
0002a0 ec 1b 94 bc 86 43 d5 bd 14 34 8d 3c 30 7a 8e be
       -0.01807972 -0.1041327 0.017236747 -0.27827597
0002b0 4c 22 c5 3f 6e ce 8a 3e 2a eb ed bd 32 8a da 3e
       1.5401092 0.27110618 -0.116171196 0.4268356
0002c0 c0 1f a8 3e d9 a1 b2 bf e4 c3 1f 3d 2b 75 a4 bf
       0.32836723 -1.3955642 0.039005175 -1.2848257
0002d0 3f bf be 3e 7b 9b db 3d 1b ff 9d 3e 93 50 a7 bd
       0.37255284 0.10723015 0.30858693 -0.08169665
0002e0 a0 37 fd 3e a3 bb 8a bf 69 f8 8f 3e 8c 43 68 3f
       0.494565 -1.0838512 0.2811921 0.9072807
0002f0 30 f0 85 bf eb 63 cd 3d e7 90 a5 3e 3f be 60 3e
       -1.0463924 0.100288235 0.32337114 0.21947573
000300 2f 02 4b bf 9d d8 21 be 62 d4 8e bf 28 a4 87 be
       -0.79300207 -0.15805288 -1.1158564 -0.2649243
000310 93 a2 21 be 60 56 f1 bd 38 20 23 bf 77 11 53 3e
       -0.15784673 -0.11784053 -0.63721037 0.20612131
000320 c6 b6 e4 3d f2 98 03 bd 71 58 b7 bf 93 4c 04 bf
       0.11167674 -0.032128282 -1.4323865 -0.51679343
000330 8d 6a 11 be ce 1d ae 3d 27 bb 52 3e 04 5e 30 3e
       -0.14200802 0.085017785 0.20579205 0.17223364
000340 04 59 11 3f e7 18 2a bf fa b4 bc be cb ae 05 bf
       0.5677645 -0.6644425 -0.36856824 -0.5221984
000350 d4 fb 45 bf 91 81 e2 be ab 26 b8 bd 2b ff bd 3d
       -0.77337384 -0.44239476 -0.0899175 0.09277185
000360 b9 cb 1f 3f 0f 8c a3 be f5 03 a3 3d 16 25 e9 be
       0.6242023 -0.31942794 0.07959739 -0.45536107
000370 fb c8 0d c0 01 f8 4a 3e 1e 10 d2 3c 3b 47 9e bd
       -2.2153919 0.19821168 0.02564245 -0.0772843
000380 26 38 63 bf e7 43 75 3d 8e c4 52 bf 44 e7 b3 3e
       -0.8875755 0.05987921 -0.8233117 0.3513738
000390 6f 36 31 3e 5b e5 74 3c 4a 52 2f 3d c7 37 f9 3d
       0.17305921 0.014947261 0.042803086 0.12168842
0003a0 62 6b 1f be fd 8d b2 3e 9d 63 2c 3f d2 d9 48 bf
       -0.15568307 0.34873953 0.673395 -0.7845737
0003b0 75 f4 c0 3e 9a a3 c4 3b 3a bc d9 3d f6 0a 65 be
       0.37686506 0.006000948 0.106316045 -0.22367463
0003c0 fb 92 42 3d f5 94 c0 3d c7 4c 2e be 05 2b 07 be
       0.047503453 0.09403411 -0.17021476 -0.13200004
0003d0 7f 1c 24 bd 6a c6 00 c0 1c b1 68 3e e4 34 bb bd
       -0.04006624 -2.0121102 0.22723812 -0.091409475
0003e0 8c e3 d4 bd 3d a1 0b bd 40 f7 ad ba 08 6a 20 3d
       -0.103949636 -0.034089316 -0.0013272539 0.03916362
0003f0 7c f8 0f 40 fc 89 1a 3e fc f9 b1 be 6b f9 86 3b
       2.2495413 0.150917 -0.34761035 0.0041190884

fc1.bias f4 [128]
000000 2c 99 6d bd 7f 9f 0f bf e9 91 96 be 10 d3 7e 3e
       -0.058007404 -0.56102747 -0.29408196 0.24885201
000010 a9 93 a4 be 78 e9 84 be 32 6c de 3e de c6 41 be
       -0.32143906 -0.25959373 0.4344192 -0.18923518
000020 47 04 7e 3d 60 a0 24 3b f5 a1 e7 3e de 95 4a bd
       0.062015798 0.0025120005 0.4524075 -0.04945933
000030 c1 61 90 be f7 dc de bd a3 56 03 bf ed 6f 88 3e
       -0.2819958 -0.108819894 -0.5130407 0.26647893
000040 1a ba 0d 3d 53 4c 85 3e 8e 2f 07 3e 2f ed 01 be
       0.03460131 0.26034793 0.13201734 -0.12688135
000050 a9 fd 78 3e a6 87 a7 be 25 37 e7 3e d3 88 19 be
       0.24315514 -0.3272068 0.4515926 -0.149936
000060 ed ba 2c bd 58 fd 49 3c 69 86 98 be 16 10 70 3d
       -0.042170454 0.012328468 -0.29790047 0.05860909
000070 dc 4d a1 3e 01 91 39 3f 6e 52 2a be 7f 82 9c 3d
       0.31504714 0.72486883 -0.16633007 0.07642078
000080 d9 d7 01 3f ba 40 ad bc cf ea 0b 3f b7 9e c3 3e
       0.5071998 -0.021149028 0.54655164 0.38207027
000090 8f e0 0d 3e ca 29 e8 3e e9 8e ea bd 27 46 35 3e
       0.13855194 0.45344383 -0.11453039 0.17702542
0000a0 88 2c 80 be 35 ee b6 be 06 44 08 3e 78 d6 9d bc
       -0.25033975 -0.35728613 0.13307199 -0.019267306
0000b0 82 d4 b4 3e bb f5 a2 bd 1d 82 88 3d 7d b6 12 3b
       0.3531838 -0.079570256 0.06665442 0.0022386604
0000c0 b8 39 3b 3d b8 4e 47 be 93 66 c2 3e 8b 4e 2d be
       0.04570934 -0.19463623 0.37968883 -0.16924493
0000d0 6c 06 ef bd ab dd 22 be 2a 2e c8 3e 40 52 d2 3e
       -0.11671147 -0.15904872 0.3909772 0.41078377
0000e0 1d 71 cd bd fd d3 82 bd f5 59 22 be 8b e3 60 be
       -0.1003134 -0.0638809 -0.15854628 -0.21961801
0000f0 16 56 61 3d 16 58 a6 3e 7e 66 a0 3e 6e ad b6 3b
       0.05501374 0.3248908 0.31328195 0.0055748736
000100 d3 50 71 3d 60 8a 5c be 75 49 b8 3d 42 79 dd 3e
       0.05891497 -0.21537161 0.08998386 0.43256575
000110 73 c5 4e 3e 56 89 b6 3e 5b 5a 9b 3e c7 31 5f bd
       0.20192508 0.35651654 0.30342373 -0.05449083
000120 f2 26 bd 3e 31 8b 4e be eb fd ac 3d a4 45 4c 3e
       0.36943775 -0.20170285 0.084468685 0.19948441
000130 2a 19 09 3e 87 5c 10 bc a2 a7 05 3f 72 9c 10 3f
       0.13388506 -0.008811123 0.5220891 0.56488717
000140 17 5c 51 be a8 cf da 3e 7a ee 1f bc 6a b6 03 3d
       -0.20445286 0.42736554 -0.009761447 0.032156385
000150 20 3a 41 3e c3 03 bc 3e ed 53 80 3e 18 87 ce 3d
       0.18869829 0.3672162 0.2506403 0.10084361
000160 0c 66 4e bd 9b 1e be 3e 64 37 85 be 40 90 60 3e
       -0.05039029 0.37132725 -0.26018822 0.21930027
000170 49 0d c5 bb 33 c3 55 bd a5 b1 96 be 17 8d ea 3d
       -0.0060135466 -0.05218811 -0.29432407 0.11452692
000180 a1 c2 3d be 2c 3c cc be 34 e1 8e be a9 b1 93 be
       -0.18531276 -0.39889657 -0.2790619 -0.2884648
000190 4e 32 c6 be 20 57 00 3e 33 23 3f be bb 80 89 be
       -0.38710254 0.12533236 -0.18665771 -0.26856026
0001a0 0b 09 d3 3d 52 43 bd 3d 65 d9 80 be 63 b6 22 3e
       0.10304459 0.09241356 -0.2516586 0.15889888
0001b0 d6 0e 0f 3d ae e8 a5 3e d7 4f ab bd a3 7b 61 bd
       0.034926258 0.32404083 -0.083648376 -0.05504955
0001c0 f2 87 b2 3b 0a 66 46 bd c2 78 a7 3e b6 33 94 3c
       0.005448335 -0.048437156 0.32709318 0.018091064
0001d0 9b 7f dc bd 54 9e d8 3d d0 17 09 3d 00 b1 89 be
       -0.10766526 0.10577074 0.033469975 -0.26892853
0001e0 c7 7e f8 3e 9d 87 d8 be bc bb e4 3e eb 86 05 be
       0.48534223 -0.42290965 0.4467448 -0.13039748
0001f0 c4 31 74 3e 8e b8 d3 be 7a 75 97 3e 1f d2 0e be
       0.23847109 -0.41351742 0.29581815 -0.13947342

fc2.weight f4 [128, 128]
000000 eb 7a 92 3e e5 b1 06 3f ae cd 6c bf d7 86 af 3e
       0.28609404 0.52615196 -0.9250134 0.34282562
000010 dc 54 95 be 33 28 e1 3e 52 0d f0 be 10 57 95 3e
       -0.29166305 0.43975982 -0.46885163 0.29167986
000020 41 b8 d1 be e0 b4 bb 3e 62 00 9f be ba 70 b7 3d
       -0.40960887 0.36661434 -0.3105498 0.08957048
000030 fb 24 ee be 86 f2 ea 3e 73 73 4a 3f e0 90 b1 3e
       -0.4651259 0.45888156 0.7908241 0.34680843
000040 88 57 ef 3e 79 dd 0e bf 23 10 8c 3e 57 d7 88 3e
       0.4674647 -0.5580669 0.2735606 0.2672679
000050 e3 a5 12 3e 57 67 95 be 4c 68 99 3d cc a9 c9 3e
       0.14321093 -0.29180405 0.07490596 0.39387357
000060 ce 32 53 be 5f 76 48 3e 8c e6 13 3f a0 95 fc bc
       -0.20624849 0.19576405 0.5777366 -0.030833066
000070 e6 33 fc bb 38 1f 06 3d df 24 da 3e 51 9f bf be
       -0.0076966165 0.032744616 0.42606255 -0.37426236
000080 cb 4b 7d 3d 7b 46 94 bd fa 76 90 be 9f e4 b5 be
       0.06183986 -0.072400056 -0.28215772 -0.35525987
000090 f8 cf 31 bf 41 80 aa 3c 28 09 92 be 2d a8 df 3e
       -0.6945796 0.02081311 -0.2852261 0.43682995
0000a0 b4 e5 18 bf 2d 22 35 be 8f c4 e4 be 9e 52 03 3f
       -0.597255 -0.17688818 -0.44681212 0.5129794
0000b0 9d b7 35 bf b8 f7 a2 bf 52 69 46 3f ac 74 11 be
       -0.70983297 -1.2731848 0.77504456 -0.14204663
0000c0 c5 d4 d3 be 91 59 21 3d 8b f4 c2 3e 34 46 6e be
       -0.41373268 0.039392058 0.38077196 -0.23268968
0000d0 3c a8 0b 3f 68 42 4e be 19 96 48 be 78 77 7c 3e
       0.5455358 -0.2014252 -0.19588508 0.24654949
0000e0 ec eb f3 be f1 76 84 3d 50 59 cc 3e 74 4e 09 3f
       -0.47640932 0.06467999 0.3991189 0.53635335
0000f0 f5 bc c5 be 38 b8 4a 3e c0 f4 37 be 3a a4 2b bf
       -0.38620725 0.19796836 -0.17964458 -0.67047465
000100 b1 49 df 3e 6a bc f4 3e f0 bd 86 3e 7d 6c b0 bd
       0.4361091 0.478 0.26316786 -0.086144425
000110 a7 c7 bd bf 57 ec 44 3e 94 66 3c bf 40 66 e3 3e
       -1.4826554 0.19230781 -0.7359402 0.44413948
000120 0a cc 76 be f8 8d 31 3e f7 d9 42 3e 85 0b 2c be
       -0.24101272 0.17339313 0.1902846 -0.1680127
000130 18 79 34 3e 0f ee 56 bf 1b ed d0 bd fb 8b 05 3f
       0.17624319 -0.83957 -0.10201474 0.5216672
000140 f9 8a d9 3e 13 19 cd be 8a 83 82 bf 86 c6 09 c0
       0.4248884 -0.40058193 -1.0196393 -2.152742
000150 5b d7 b6 3e 08 dd 68 bf 23 8e d3 be 53 67 30 3f
       0.35711178 -0.90962267 -0.4131938 0.6890766
000160 a4 ec b0 bf 36 be ee 3d 6e 9e 70 3e 9d 33 a0 bd
       -1.3822217 0.116573736 0.23497936 -0.078223445
000170 f4 fd b6 3e 3c d0 40 3e b4 23 fc bf e5 94 cc be
       0.35740626 0.18829435 -1.9698396 -0.39957348
000180 02 aa 27 bf 2d fb 3e bc f1 f3 3b bf 28 dc ce 3e
       -0.65493786 -0.011656565 -0.734191 0.4040234
000190 de fd 43 be 63 d9 33 be e6 75 d9 bd 47 b3 3a 3e
       -0.19139811 -0.17563395 -0.106181905 0.18232451
0001a0 3b dd e7 bc 06 6c 5a bd 9b e0 dc 3e 4b 42 90 bb
       -0.028303733 -0.053325675 0.4314011 -0.004402434
0001b0 b3 82 c8 be 82 28 cb be c2 d7 a6 bf 93 21 8e be
       -0.39162216 -0.39679343 -1.3034594 -0.2775999
0001c0 3e ac 4d be e0 54 b6 3e cb f8 a0 3e 96 3a 69 3d
       -0.20085236 0.3561163 0.31439814 0.056940638
0001d0 13 b1 70 3e 8d 6e bb 3e 94 a1 f0 be 17 ee f1 3e
       0.23505048 0.3660778 -0.46998274 0.4725196
0001e0 a7 b7 d1 bc 6b dc 19 bf fd b6 58 bf 95 62 43 3e
       -0.025600268 -0.60101956 -0.8465422 0.19080575
0001f0 89 95 3c 3e 8c 21 28 3f d7 c5 33 3e 50 8e 55 be
       0.18416418 0.6567619 0.17555939 -0.20855069
000200 f9 22 67 bc 86 3d aa 3f 07 3b a6 3e c8 c2 0b 3e
       -0.014107459 1.3300025 0.3246691 0.13648522
000210 34 61 c4 3b 34 21 1e 3d 0a af 09 3e 4d a1 b5 be
       0.005993033 0.038605884 0.13445678 -0.35474625
000220 59 8b c8 bd 07 bd ba 3e 9a 1d 1a 3e 3e 21 c9 3e
       -0.097922035 0.3647234 0.15050355 0.39283174
000230 78 a1 d7 3b e3 db b7 3e 3c 73 52 3e 32 ec 00 3f
       0.006580528 0.35909948 0.20551771 0.50360405
000240 ed 53 5e 3e 6e 65 c2 3d bb 87 bd 3e 15 eb 89 be
       0.21711703 0.094920024 0.37017617 -0.26937166
000250 0d 9e 1c bc 01 53 a1 3e c0 76 f2 bd db ad b4 3e
       -0.009559167 0.3150864 -0.11839056 0.3528889
000260 be fa d6 3e 9e 34 1c be a6 d2 13 3f af 08 c5 3d
       0.41988176 -0.15254447 0.577433 0.09620797
000270 55 36 bf 3d b6 05 14 3d 4f 91 27 3f 06 14 b5 bf
       0.09336535 0.03613826 0.654561 -1.4146736
000280 d3 21 04 3e 65 2a cb 3e ff 81 d5 3c 69 69 ed be
       0.12903528 0.39680782 0.026062964 -0.46369484
000290 6a d8 fd 3d b8 f9 68 be 7d 4a 62 3e f6 bc e7 3e
       0.12394793 -0.2275151 0.22098728 0.45261353
0002a0 7c 45 86 3e 74 d7 94 3e c3 7d 04 3f 6f 96 8c be
       0.26224887 0.29070628 0.517544 -0.27458522
0002b0 11 dd 23 be 7f 76 8d 3e d1 5c 68 3e c9 6a b1 3b
       -0.16002299 0.27629468 0.22691657 0.005414341
0002c0 62 99 29 3f 0e f2 a8 3e 79 86 98 3d c9 c4 46 3e
       0.6624967 0.32997173 0.074475236 0.19411005
0002d0 36 ef ea 3e 5f 18 04 3e 13 aa 9b bd 4f ca 79 3d
       0.45885628 0.12899922 -0.076007985 0.060983952
0002e0 b0 3c 35 3c c3 b0 e4 bd 01 6f 46 3e 0b 80 92 3f
       0.011061832 -0.11166527 0.19378282 1.1445326
0002f0 c4 51 92 be 02 dc 03 3e 67 d7 91 bd d0 67 c1 be
       -0.28578007 0.12876895 -0.07121163 -0.37774515
000300 2f db aa ba 09 88 33 3e ed c4 30 3f 9f ea ba bc
       -0.0013035293 0.17532362 0.69050485 -0.022816954
000310 bc 1d 94 be 6e 6f cd 3d b0 aa 48 be a8 21 a9 3e
       -0.28928936 0.10031019 -0.19596362 0.3303349
000320 8f b3 ff be 38 a3 2e bf d5 51 3d 3e 5e d4 b5 be
       -0.4994168 -0.682178 0.18488248 -0.35513586
000330 28 df c8 bd 98 98 3a 3e a4 ae f1 3d fa 64 81 3e
       -0.09808189 0.18222272 0.11800888 0.25272352
000340 00 56 37 3e b5 ef 5d be cf 96 ef be 65 5d 0a be
       0.179039 -0.21673472 -0.46794745 -0.1351219
000350 64 53 c5 3e 91 d8 0d bf f3 71 52 3e 91 71 02 bf
       0.38540184 -0.5540858 0.2055128 -0.5095454
000360 86 3d 3b bf cd 80 89 be d2 cf c7 3e 7f f6 37 bf
       -0.7314075 -0.2685608 0.39025742 -0.718605
000370 9f a5 fa bd f1 f0 78 3d 38 96 fe bc e9 c3 8f be
       -0.12238621 0.060776655 -0.03107749 -0.28079155
000380 09 03 e1 3e 95 de 56 3f 39 f8 63 3e 15 b1 84 3e
       0.43947628 0.83933383 0.22262658 0.25916353
000390 89 b7 15 3f 1f 37 25 bd 02 72 68 bf 57 32 a7 3d
       0.5848318 -0.04033577 -0.9079896 0.081638984
0003a0 38 ea 63 3e 03 b8 98 be 03 0f 59 3f 6c bd 13 be
       0.22257316 -0.2982789 0.8478853 -0.14427727
0003b0 ac b4 d9 3e ea 8c 66 3e d3 6d 07 3e b1 09 9f bd
       0.42520654 0.22514692 0.13225488 -0.0776552
0003c0 ac 9e 84 3e b2 dd dc bb 7c 4e e2 3d a2 40 a2 bf
       0.25902307 -0.0067402953 0.11050126 -1.2675974
0003d0 7d bb ca 3d e0 33 34 be be 98 32 3d 0a db fb 3e
       0.09899042 -0.17597914 0.043602698 0.4919055
0003e0 1a b4 1a 3d 9b e6 1d 3e 67 58 0f be 7c 13 2c 3e
       0.037769414 0.1542 -0.13998567 0.16804308
0003f0 74 33 b3 be e3 b9 07 3f e7 88 19 bf 5a 12 7c bf
       -0.35000193 0.53018016 -0.5997452 -0.984655

fc2.bias f4 [128]
000000 a5 ab 32 be 6a f4 87 3d 5d 27 69 3c a4 78 82 bc
       -0.1744829 0.06638415 0.014230576 -0.015926667
000010 f6 74 ea bc 38 37 50 3d 7c 7e 91 bd b7 1f a4 3c
       -0.028620224 0.05083391 -0.07104203 0.020034654
000020 25 38 8e 3e e8 56 7e 3d 0d 00 95 bd 1a 43 ac 3d
       0.2777721 0.0620946 -0.072754 0.08411236
000030 e9 d4 34 be 29 f9 98 3c 4b 0f 86 be 1d 2c 91 3e
       -0.17659344 0.018673496 -0.26183543 0.28353968
000040 49 4e ae 3d 1c 22 dc 3e ca 66 84 3d 7e ed e0 3e
       0.085110255 0.42994773 0.06464918 0.43931192
000050 74 03 88 be ca db d2 3d c8 51 9f bd 39 f5 69 bc
       -0.26565135 0.10295828 -0.077792704 -0.014279657
000060 74 f5 71 3e ca da 76 3e b5 bf db 3d 09 95 62 3e
       0.23628789 0.24106899 0.107299246 0.22127165
000070 7d 59 8b 3d c4 05 c9 3d fe 29 b4 3e 2d 33 61 bd
       0.06804178 0.09815553 0.35188287 -0.054980446
000080 2f 5c d1 3d 29 7b ad 3c c2 4d 87 3e 17 8c c4 3e
       0.10222661 0.021176891 0.26426512 0.3838813
000090 46 60 9e 3d db 0f a3 bd 2b 4a d8 3e 01 71 e8 bd
       0.077332065 -0.079620086 0.42244086 -0.11349679
0000a0 60 b4 a2 3e 17 d2 8d 3c 4d 82 2e 3a bb 11 48 3e
       0.3177824 0.017312093 0.00066569896 0.19538014
0000b0 41 d8 9d bd 30 bd 94 3d 5f 18 7e 3e d5 b2 80 3d
       -0.07707263 0.07262647 0.24813984 0.062841095
0000c0 2b ad 6b 3d 6f 49 10 3e 88 41 75 3e d5 f7 08 3e
       0.057538193 0.14090513 0.2395078 0.1337579
0000d0 26 9f 81 3e fb 1e e6 3d 29 40 a0 3e 2e 83 cc bc
       0.25316733 0.11236378 0.3129895 -0.024964895
0000e0 4f 2a 3a 3e 6f a2 8c bd b7 c5 38 3e e1 58 50 bd
       0.18180202 -0.06866919 0.18044172 -0.05086601
0000f0 e5 06 5c bb a6 53 ea 3d 98 be c7 be 0e 9f ed bd
       -0.0033573445 0.11441736 -0.390126 -0.11602603
000100 20 0a 67 be 4b a3 b6 3e 2c 23 a3 bd 95 5e 8e 3e
       -0.22562456 0.35671458 -0.07965693 0.27806535
000110 02 42 6f bd c3 af 0a 3e 3a 0b 92 3e 85 91 ac 3b
       -0.05841256 0.1354361 0.2852419 0.0052663707
000120 02 8c d9 bc e5 4f 4a bd a8 ed be 3e 8e db 27 3d
       -0.026556019 -0.0493926 0.37290692 0.040980868
000130 62 b5 15 be ad fc 9c 3e a6 c9 b1 3e 76 e9 fd 3d
       -0.14619973 0.30661526 0.34724158 0.12398045
000140 05 7d bb 3d 2d 1b 3b 3e 18 5c 99 3d 12 c0 9e 3c
       0.09154705 0.18272085 0.074882686 0.019378696
000150 f8 a4 86 3d 10 bb 84 bd 3f 00 5d 3e a7 35 4f 3e
       0.06574434 -0.06480992 0.21582125 0.2023531
000160 3d 5e 8c bd fb cf 54 ba a1 73 11 3e 8d 13 2e 3d
       -0.06853912 -0.00081181497 0.14204265 0.042499114
000170 92 b5 c0 3d 8a 4b 85 3d d5 f9 06 3e 80 eb 63 bd
       0.09409632 0.065085486 0.13181241 -0.055644512
000180 ae a6 b5 3d af af f1 3c ff b5 a5 3e 42 dc 3e 3e
       0.08869682 0.029502718 0.32365415 0.18638709
000190 4f 3e 2b 3e 8b 5d 24 3c 3a bc f2 3c ce a9 fa 3e
       0.16722988 0.010032068 0.029630769 0.48957676
0001a0 a8 c3 e5 3d 58 90 43 3e 3d 4f 9b 3e 24 59 d8 3d
       0.11218959 0.19098032 0.30333892 0.10563877
0001b0 be 75 bd 3d b6 9e 7f 3d d7 0d e1 3c cf 80 d4 3d
       0.09250973 0.062407218 0.02747242 0.10376131
0001c0 b4 89 e1 3e f3 b9 6c 3e 9b fd 35 bd 7b 10 5b 3e
       0.44050372 0.23117809 -0.04443131 0.21393006
0001d0 0f 3a 84 3e 1e 40 2d 3c 94 07 0b 3e ea 9f cb bb
       0.25825545 0.010574369 0.1357711 -0.0062141316
0001e0 b3 ba 73 3e cb 01 8b 3e 49 d7 3b 3e 3e 63 b6 3c
       0.23801689 0.27149805 0.18343844 0.02226412
0001f0 0d dd 0f 3e 8a 10 85 3e 51 32 a9 3d bb c2 96 3e
       0.14049168 0.2598918 0.0826155 0.29445443

fc3.weight f4 [4, 128]
000000 8e 21 12 bc 71 2b db be d6 60 d1 3c 52 82 ec bd
       -0.008919133 -0.4280658 0.02555887 -0.11548294
000010 dd b8 a3 be f3 46 15 3f 18 41 95 bc 85 10 99 3c
       -0.31976977 0.58311385 -0.018219516 0.018684635
000020 a1 1e 51 3f 2c f4 c7 be 80 53 7f bc b9 c4 c2 be
       0.8168736 -0.39053476 -0.015583873 -0.38040712
000030 96 5b 2f 3d 9a 34 bf be be ea 1c 3e 64 01 8a 3f
       0.042811953 -0.3734482 0.15323922 1.0781674
000040 be 35 a5 be 73 b6 5c bf e1 c2 58 bb 4f 65 b8 3f
       -0.32267565 -0.86215895 -0.0033075141 1.4405917
000050 e7 e5 5d 3f 9d e8 1b bf 72 f7 5a 3d d9 e3 95 3d
       0.8667893 -0.60901815 0.05345864 0.07318849
000060 ff 2b 57 3f fe d3 d7 be 88 55 8f be e7 7e 73 bf
       0.8405151 -0.42153925 -0.27994943 -0.9511551
000070 af 5e 8b 3f 0c 99 cb 3f 9f c6 44 3f 16 12 be be
       1.088827 1.5906081 0.7686557 -0.37123173
000080 f3 ae cf be 36 f3 99 be ed 3a 9d 3f 11 23 d0 be
       -0.40563163 -0.30068368 1.2283608 -0.40651754
000090 f4 bf 94 bf f7 02 7a be 81 98 9f 3f 1b 08 4c bf
       -1.162108 -0.24415193 1.2468415 -0.7969987
0000a0 f0 37 e7 3f 95 b8 5f 3d e0 99 da be 0d 74 89 be
       1.8063946 0.05461939 -0.42695522 -0.26846352
0000b0 0c 67 9a 3d 7b 51 9e 3f 50 56 a8 3e 10 2f a3 bd
       0.07539186 1.2368616 0.3287835 -0.07967961
0000c0 72 e1 d2 be 99 63 cc be c7 d8 30 bf a2 0e 81 3f
       -0.41187626 -0.39919737 -0.69080776 1.008259
0000d0 4d 16 be 3f de f9 0a bf 91 d2 a4 be 38 3c 92 3d
       1.4850556 -0.5428752 -0.321919 0.07140392
0000e0 7a b9 ce 3f d3 ba 33 be 4e 5f 3d bf fb b0 02 bd
       1.6150353 -0.17551737 -0.7397355 -0.031907063
0000f0 f7 74 53 be 43 c8 d2 be 1d 6e 6d bd 21 8d 49 bd
       -0.20650087 -0.41168413 -0.05796634 -0.049206857
000100 01 8e db be c1 00 ff be 74 5e 69 3d be 53 86 bf
       -0.42881778 -0.49805263 0.056974843 -1.0494306
000110 87 df 22 bd 9a 25 64 3f 8e 3d 80 bf c4 02 a9 3d
       -0.039763954 0.89119875 -1.0018785 0.082524806
000120 90 03 48 be 1e df 9e be 57 bb fe 3e 8f 28 f7 3c
       -0.19532609 -0.310296 0.49752304 0.030170707
000130 d5 63 86 be 5b eb 3d 3f b7 33 4a be 0b 64 b1 be
       -0.2624804 0.7418725 -0.1974629 -0.3464664
000140 74 fc 93 3f 59 ac ad be 13 54 35 bf a5 f7 bd be
       1.1561418 -0.33920553 -0.7083141 -0.37103
000150 49 28 6a bf f2 10 df be c7 3f 8d be 83 36 74 bf
       -0.9146772 -0.43567616 -0.2758772 -0.9539568
000160 df 36 9e be d4 2a 89 be af de 35 bf 96 c2 39 3f
       -0.30901238 -0.26790488 -0.71042913 0.7256254
000170 2f a2 ab 3f 19 48 1e be 03 62 10 40 4c 6d 8b 3d
       1.340887 -0.1545719 2.2559822 0.06807956
000180 18 a2 c1 be 67 3e ad be 32 05 86 bf c4 af b8 bf
       -0.3781898 -0.33836672 -1.0470335 -1.442864
000190 2c 8b 2b bf 4f 52 89 bf d8 9d f8 be d3 16 80 3f
       -0.67009234 -1.0728244 -0.48557925 1.0006965
0001a0 12 fb db be 39 d8 19 3f 1a 41 54 3e 8c 54 a4 bf
       -0.4296499 0.60095555 0.2072796 -1.2838302
0001b0 ab 12 5f 3e 1a 58 ef be 97 02 3b bf ae ef a4 be
       0.21784465 -0.46746904 -0.73050827 -0.3221411
0001c0 b0 19 b5 3f ad 2b bf bf 64 e8 0a bf ae 38 91 be
       1.4148464 -1.4935204 -0.5426085 -0.28363556
0001d0 6f ff 1d bf 8a 26 d9 be bd 57 bd be 3d 3a 62 bf
       -0.61717886 -0.42412215 -0.36981001 -0.88370115
0001e0 6e 32 24 bf 49 07 88 be e7 57 74 3f 80 0e ba be
       -0.6413945 -0.26568058 0.9544663 -0.36339188
0001f0 a3 b6 a5 3e a8 12 95 3f b7 28 74 be b9 64 63 3f
       0.32365903 1.1646318 -0.23843656 0.88825566
000200 51 dc 32 bf 96 f0 40 be 47 67 e4 bc eb e4 87 3e
       -0.69867426 -0.18841776 -0.027881278 0.26541838
000210 2d e9 99 be b6 65 21 3f 82 53 d3 3c 46 62 2e 3d
       -0.30060712 0.63045824 0.025796656 0.04257419
000220 ab 99 93 3f 5b d0 9b be b6 28 a6 3d 3b a1 bb be
       1.1531271 -0.304324 0.08113234 -0.36646447
000230 51 41 ed 3e bb 1e 44 be 0c c1 74 bf f0 7a c0 3f
       0.46338895 -0.19152348 -0.95607066 1.5037518
000240 c4 33 c4 be df 7d e4 be 48 44 0d 3d 03 1a db 3f
       -0.38320744 -0.44627282 0.034488946 1.7117313
000250 8b 45 54 3f 6a f1 4a bf 6c 99 8e 3d d3 6f 00 3c
       0.82918614 -0.7927462 0.06962857 0.007839161
000260 f2 71 56 3f 97 cb 04 bf af ea aa be c1 8d 86 bf
       0.83767617 -0.51873153 -0.33382174 -1.051201
000270 f5 12 88 3f 4b 8b b9 3f 24 16 41 3f d9 f5 c2 be
       1.0630785 1.4495634 0.7542441 -0.38078192
000280 2d 98 34 be 4e 95 e3 be d8 8b 82 3f ef 1e 0c bf
       -0.17636175 -0.44449848 1.0198927 -0.547347
000290 c2 19 d5 be d1 0e 68 be e9 d4 b0 3f 44 36 43 3e
       -0.41621214 -0.22661902 1.3814975 0.1906367
0002a0 77 92 d9 3f a1 1e de 3c b9 a2 d6 be 44 d9 0c bf
       1.6997823 0.027114214 -0.41921023 -0.5501902
0002b0 43 57 81 3d c8 22 7b 3f 72 cd 28 3f 66 9d a7 bb
       0.06315472 0.98099947 0.65938485 -0.005115199
0002c0 1a c1 42 be 2d bd 0e bf d6 05 e7 be 05 a1 7c 3f
       -0.19018975 -0.5575741 -0.4512164 0.98683196
0002d0 91 18 da 3f 9b 88 05 bf 25 1a fd be ba 38 5e bd
       1.7038747 -0.5216157 -0.4943401 -0.054253317
0002e0 f0 58 d9 3f 61 2d f5 be 9a bd 55 bf b5 b2 f4 3c
       1.6980267 -0.47886184 -0.83492434 0.02987037
0002f0 34 64 cf be fb be 91 be d6 98 c2 3e dd bb 8a 3d
       -0.40506136 -0.2846602 0.3800723 0.06774113
000300 b1 af 38 bf a4 11 cb be af 00 e7 bb ed 21 8b bf
       -0.72143084 -0.39661896 -0.007049642 -1.0869728
000310 78 fc 92 3d 72 f2 66 3f 7d ea bc be 07 cd 48 bc
       0.07177061 0.9021369 -0.3689765 -0.012255914
000320 1c e6 ac be 47 0f 8c be dc 65 02 3f 74 1c a2 3c
       -0.3376931 -0.27355406 0.50936675 0.019788958
000330 89 6f ee be 12 4d c4 3e 73 97 d0 3e 7f a0 0b bf
       -0.4656947 0.3834005 0.40740547 -0.5454177
000340 1f 52 a7 3f 81 76 04 bf a3 da ef be d6 02 f4 be
       1.3071936 -0.5174332 -0.46846494 -0.47658414
000350 3f fa 6b be 34 42 2d bf 6f 63 23 bf 93 d8 96 bf
       -0.2304468 -0.6767914 -0.638236 -1.1784843
000360 7b 8a cb be 07 13 ca be e0 ec 07 bf 04 73 b7 3c
       -0.3975409 -0.39467642 -0.5309582 0.02239371
000370 a3 9d a0 3f e9 b6 24 bf dd 1d ec 3f e8 1a 0f 3d
       1.2548107 -0.643416 1.8446614 0.03493777
000380 e8 5a a4 be c0 c0 ca be 82 5f 42 bf fb 7c c4 bf
       -0.32100606 -0.39600182 -0.75926983 -1.5350641
000390 4a 16 21 bf 95 36 3e be 0c 4a e2 be 51 9d 8a 3f
       -0.62924635 -0.18575509 -0.44197118 1.0829259
0003a0 10 55 5f be c5 88 44 3f b5 5d aa 3d fd 68 ad bf
       -0.21809793 0.76771194 0.083186544 -1.3547665
0003b0 1d 4d f8 3e 0e 08 6c be 02 70 11 bf 2c 87 48 bf
       0.48496333 -0.23049948 -0.56811535 -0.78331256
0003c0 d6 69 5f 3f 38 40 d3 bf 14 a9 f8 be fa 3c 8a be
       0.8727087 -1.6503973 -0.48566496 -0.26999646
0003d0 e5 f5 1b bf b6 7f d5 be 85 b0 20 bd 56 28 39 bf
       -0.6092208 -0.41698998 -0.039230842 -0.7232717
0003e0 49 20 53 bf bf c7 0d bf bf 73 9b 3f 6f d9 05 be
       -0.8247114 -0.55382913 1.2144698 -0.13071226
0003f0 ee 73 1f bd 17 3c cc 3f 5d f2 19 bf 73 6a 0d 3f
       -0.03892892 1.5955838 -0.6013544 0.55240554

fc3.bias f4 [4]
000000 f1 63 b4 3c 92 64 da bd 79 ca c4 3d e9 87 b8 bd
       0.022020312 -0.106637135 0.09608931 -0.09010298
