dqn_policy.pth (torch, 75302 bytes, 6 tensors)

fc1.weight f4 [128, 8]
0	0x3e6355b9	0.2220067
1	0x3ea41d7d	0.32053748
2	0xbf16a06d	-0.5883854
3	0xbf4cba71	-0.79971987
4	0xbe6602a5	-0.22461946
5	0x3dfba875	0.1228799
6	0x3de655a3	0.11246803
7	0x3e90453a	0.28177816
8	0x3f079e5f	0.5297603
9	0x3e24d18c	0.16095561
10	0xbe33b1a7	-0.17548238
11	0xbcf8e67e	-0.030383345
12	0xbe499c56	-0.19688544
13	0xbf024aca	-0.5089537
14	0xbebfd68d	-0.37468377
15	0x3edeecc3	0.4354001
16	0x3c422495	0.011849542
17	0xbe2c0a0e	-0.1680071
18	0xbdc7a6ec	-0.09748635
19	0xbd51fae0	-0.051264644
20	0x3ee4ddb9	0.4470041
21	0x3f350666	0.7071289
22	0xbb43920e	-0.0029841694
23	0x3eb7f7da	0.35931283
24	0x3c2e39db	0.010633911
25	0xbcae5218	-0.02127938
26	0xbe01d82f	-0.12680124
27	0xbf99b214	-1.200747
28	0xbf2b0660	-0.668066
29	0x3d3d3e4b	0.046201985
30	0xbd8d617e	-0.06903361
31	0x3ee7d21c	0.45277488
32	0xbf170b38	-0.59001493
33	0xbed20e63	-0.410266
34	0xbea401de	-0.32032675
35	0xbf4ba90d	-0.79554826
36	0x3e4282c1	0.18995191
37	0x3e431273	0.19050007
38	0xbd9e9ac0	-0.0774436
39	0x3e162183	0.14661221
40	0x3e7d8180	0.24756432
41	0xbf791dc8	-0.9731107
42	0x3ea815c1	0.32829097
43	0xbf174681	-0.59091955
44	0xbec5bd79	-0.3862112
45	0xbe4a04a2	-0.1972833
46	0x3e2d42f9	0.1692008
47	0x3e14b1e4	0.14520985
48	0xbe888bd8	-0.26669192
49	0xbefc623e	-0.49293703
50	0x3ea3b0ed	0.3197092
51	0x3f396f6a	0.7243563
52	0x3ea36bb4	0.31918108
53	0xbec13039	-0.37732103
54	0x3f087a0e	0.5331124
55	0xbe068895	-0.1313804
56	0x3d38480c	0.044990584
57	0xbf57f8f7	-0.84364265
58	0xbe3e4dfb	-0.18584435
59	0xbf32454c	-0.6963699
60	0x3ece1fcf	0.40258643
61	0x3da2e79e	0.07954334
62	0xbe09e343	-0.134656
63	0xbce3beab	-0.027800879
64	0x3dd80c8a	0.10549267
65	0xbc858d99	-0.01630287
66	0x3e2d78e7	0.16940652
67	0xbe2cfb23	-0.16892676
68	0xbe5afcc2	-0.21385482
69	0x3f63ec98	0.8903289
70	0xbf6493a5	-0.8928779
71	0xbf56e455	-0.8394216
72	0x3ea39818	0.31951976
73	0x3f16fba3	0.5897772
74	0x3eb541e7	0.35401842
75	0x3f3e2fe5	0.7429183
76	0xbebf6f48	-0.37389588
77	0xbf12056c	-0.57039523
78	0x3dff8d66	0.124781415
79	0xbdf5bc5c	-0.11998817
80	0xbe0a4b60	-0.13505316
81	0x3eeb601b	0.4597176
82	0x3d8f4267	0.06995087
83	0xbf6147dd	-0.8800028
84	0xbe5ad13d	-0.2136888
85	0xbe8284b8	-0.2549188
86	0x3dcc3311	0.09970678
87	0x3a1d3d37	0.00059981964
88	0xbe10b313	-0.14130811
89	0x3ca2f830	0.019893736
90	0x3d776d11	0.06040675
91	0xbf033559	-0.5125328
92	0x3ed6d9d1	0.41963056
93	0x3ee271be	0.44227403
94	0xbf92697b	-1.143844
95	0xbf1fd469	-0.6243349
96	0xbeaccc5b	-0.3374966
97	0x3e74e51f	0.23915528
98	0x3e3124f9	0.1729926
99	0xbd718821	-0.058967713
100	0x3eb03870	0.34418058
101	0x3f501be7	0.81292576
102	0xbf840111	-1.0312825
103	0xbe6145aa	-0.21999231
104	0x3da0c29d	0.078496195
105	0x3efb04f8	0.49027228
106	0xbe610f55	-0.21978505
107	0xbe8f2719	-0.27959517
108	0xbdd10d15	-0.10207573
109	0x3e9ba062	0.303958
110	0xbeb3c4e6	-0.3511116
111	0x3cc77fdd	0.024352962
112	0x3d8dd147	0.06924682
113	0xbe96d15e	-0.2945661
114	0x3eea8875	0.45807233
115	0xbefe3b52	-0.49654633
116	0xbebae04c	-0.3649925
117	0xbdf1f6ac	-0.11814627
118	0x3e4ca87a	0.19986144
119	0x3e8938ab	0.26801047
120	0x3d05ec85	0.032696266
121	0xbe700a5f	-0.23441456
122	0xbd7024af	-0.058628734
123	0xbae0bd6d	-0.0017146297
124	0xbf1806e3	-0.5938551
125	0xbf123c42	-0.57123196
126	0xbf1d1256	-0.61356103
127	0xbdb75154	-0.08951059
128	0xbf4ab1c3	-0.7917749
129	0xbf1829fb	-0.5943906
130	0xbea255d7	-0.31706116
131	0xbec0543d	-0.3756427
132	0xbd0d4651	-0.034490887
133	0xbc3b99a9	-0.01145021
134	0x3e90c329	0.28273895
135	0x3e18e5ef	0.14931463
136	0xbe614646	-0.21999463
137	0x3f022e3b	0.5085179
138	0xbd2366b3	-0.039892863
139	0x3e59ea2d	0.21280737
140	0x3ecc9741	0.39959148
141	0x3e9d6039	0.30737475
142	0x3f0a93ca	0.5413176
143	0x3c92ed63	0.01793546
144	0x3dd85d01	0.10564614
145	0xbef1b74e	-0.47210163
146	0x3e56fe74	0.20995504
147	0xbefe439d	-0.4966096
148	0xbe37bf3b	-0.17944042
149	0xbede216e	-0.4338488
150	0xbf2fd003	-0.68676776
151	0x3df64562	0.120249525
152	0x3c734cd2	0.014849858
153	0x3c870c7c	0.016485445
154	0x3f354764	0.7081206
155	0xbf69b318	-0.912889
156	0x3f803e0f	1.0018939
157	0xbebcc933	-0.36872253
158	0x3e33b0e9	0.17547955
159	0x3d87f24c	0.06638011
160	0x3d73eb72	0.05955071
161	0xbdf68c96	-0.120385334
162	0xbf9ed99b	-1.2410158
163	0xbf9d505b	-1.2290148
164	0xbee303be	-0.44338793
165	0x3e3070e7	0.17230569
166	0xbd5ecd6e	-0.05439513
167	0x3cede05d	0.029037649
168	0xbe079046	-0.1323863
169	0x3e5ec9de	0.21756694
170	0x3f6a948d	0.9163292
171	0xbd64f4af	-0.05589741
172	0x3f832efb	1.0248712
173	0xbe21d78f	-0.15804885
174	0xbf3850ae	-0.7199811
175	0x3de11d69	0.10991938
176	0x3d269a2a	0.040674366
177	0xbe3964ef	-0.1810491
178	0x3e8e26cc	0.27763975
179	0xbf8de902	-1.1086733
180	0xbc95f526	-0.018305372
181	0x3d2910c6	0.041275762
182	0x3e933cab	0.28757223
183	0x3d7a9b12	0.061183043
184	0x3f0a2d8c	0.5397575
185	0x39c56c1f	0.00037655325
186	0xbee7fe3f	-0.45311162
187	0xbeadd60e	-0.33952373
188	0xbf110d84	-0.5666125
189	0x3ea7522d	0.32679883
190	0x3eebe2e4	0.4607154
191	0x3d60afb2	0.054855056
192	0x3decf96c	0.11571011
193	0x38e1e96b	0.000107723135
194	0xbf448333	-0.76762694
195	0xbed0d480	-0.40787125
196	0xbf21e08c	-0.63233256
197	0x3ec2ac9a	0.3802231
198	0xbf14c765	-0.5811675
199	0x3da7e1fd	0.08197401
200	0x3e4133e7	0.18867455
201	0x3efd170c	0.49431646
202	0xbed95cc2	-0.4245358
203	0xbeaec55c	-0.34134948
204	0xbea0172a	-0.31267673
205	0x3e454ff6	0.19268784
206	0xbd341b24	-0.043971196
207	0x3e65df58	0.2244848
208	0x3df3da71	0.11906899
209	0xbeee3efa	-0.46532422
210	0xbdec7ef7	-0.11547654
211	0xbede5211	-0.43421987
212	0x3e118a74	0.14212972
213	0x3d8cb63d	0.06870697
214	0x3c1bc6e2	0.009507867
215	0x3e6b4d85	0.2297879
216	0xbf2968b2	-0.6617538
217	0xbf1eb7b6	-0.6199907
218	0x3eb54223	0.3540202
219	0xbf0befa9	-0.5466257
220	0xbc413306	-0.01179195
221	0x3f0f6550	0.56013966
222	0xbdc35707	-0.095380835
223	0xbdb97a72	-0.09056558
224	0xbe6ec49f	-0.23317192
225	0xbdde5423	-0.108558916
226	0xbf2a0c3c	-0.6642492
227	0xbf2c90e0	-0.6740856
228	0xbebce5e4	-0.36894143
229	0xbd676176	-0.05648943
230	0x3d335dd9	0.043790672
231	0x3e93c993	0.28864726
232	0x3e49edfa	0.19719687
233	0x3e8cecd1	0.27524427
234	0x3e114abc	0.14188665
235	0xbf05dcfa	-0.5229031
236	0xbcb1b164	-0.021691032
237	0xbe436a1f	-0.1908345
238	0xbd70e7ae	-0.058814697
239	0x3d702edc	0.05863844
240	0xbd0c1b75	-0.034205873
241	0x3f18accf	0.59638685
242	0xbd1bd5ca	-0.038045682
243	0xbe0a6142	-0.13513663
244	0x3e2de9d9	0.16983737
245	0xbef7fc2a	-0.48434573
246	0x3ef88567	0.48539278
247	0xbeabae0e	-0.3353123
248	0x3e0fa37f	0.14027213
249	0xbe032ecd	-0.12810822
250	0xbe08d61e	-0.13362929
251	0xbdd7b886	-0.10533242
252	0x3fb51993	1.414843
253	0xbeb3ad3c	-0.35093105
254	0xbebe60a6	-0.37183112
255	0x3e93faa3	0.28902158

fc1.bias f4 [128]
0	0x3c9d097c	0.019169562
1	0xbe8ba7ca	-0.2727645
2	0xbe3f4472	-0.18678454
3	0xbb2f4720	-0.0026745275
4	0xbe6f3fd8	-0.23364198
5	0x3d120a82	0.035654552
6	0x3f11ef99	0.5700622
7	0xbda1b93b	-0.07896658
8	0xbd1ab128	-0.037766606
9	0x3deccb5f	0.115622275
10	0x3d1a94ed	0.037739683
11	0x3de0f7ff	0.109848015
12	0xbed7d730	-0.42156363
13	0xbe2a208b	-0.16613977
14	0xbec56c95	-0.38559404
15	0xbd85774a	-0.06516893
16	0xbdddf224	-0.108372
17	0x3f18b035	0.5964387
18	0x3dfefe0a	0.12450798
19	0xbd06eef8	-0.032942742
20	0x3d993fde	0.07482885
21	0xbdd5bc9f	-0.10436367
22	0x3e2e1bd1	0.17002799
23	0x3c60eac4	0.0137278475
24	0xbc4eba70	-0.012617692
25	0x3edb23e4	0.4280082
26	0xbdda3cee	-0.10656153
27	0xbea12ee1	-0.31481078
28	0x3e081c16	0.13291964
29	0x3e4dc568	0.20094836
30	0xbe94c300	-0.29055023
31	0x3dcb46ad	0.0992559
32	0x3ebbdb1a	0.366906
33	0x3ef6556f	0.48112056
34	0x3ea4a8e1	0.32160094
35	0x3d31d4bb	0.043415766
36	0x3c93c2b9	0.018037187
37	0x3e60cf51	0.21954085
38	0x3ec923d6	0.39285153
39	0x3ecc0afd	0.39852133
40	0x3cb904fa	0.02258538
41	0xbec7328c	-0.38905752
42	0x3d2bef80	0.041976452
43	0xbd068645	-0.032842893
44	0x3eb88f8d	0.3604702
45	0x3e8fb63b	0.28068718
46	0x3cac2a7f	0.021016357
47	0x3d1aa9ca	0.03775958
48	0x3f0d28ed	0.5514057
49	0xbbc56638	-0.0060241483
50	0x3ee83b2c	0.45357645
51	0xbed7a375	-0.42116895
52	0xbf0fe6de	-0.5621165
53	0xbe096c29	-0.13420166
54	0x3ea7f8ce	0.3280701
55	0x3e73e528	0.23817885
56	0x3ef94f9e	0.48693556
57	0xbe8d584d	-0.2760643
58	0xbe6c7337	-0.23090826
59	0xbbb96a7a	-0.005658445
60	0x3e1d4b07	0.15360652
61	0x3e4eab0f	0.20182441
62	0x3dcf2cc9	0.10115964
63	0xbe17500d	-0.1477663
64	0xbd9c7280	-0.07639027
65	0xbe9754e6	-0.2955696
66	0x3e32144b	0.17390554
67	0x3ee03866	0.4379303
68	0x3e718d59	0.23589076
69	0x3d9b5ba4	0.075858384
70	0x3b1ba6ed	0.0023750619
71	0x3cb6e353	0.022325194
72	0x3e536849	0.2064525
73	0xbeda5331	-0.42641595
74	0xbe6b1d84	-0.22960478
75	0x3e19bea2	0.15014127
76	0xbe1c2563	-0.15248637
77	0x3db6b5d1	0.089213975
78	0x3dc31aca	0.09526594
79	0x3d5ca465	0.053867716
80	0xbdbebd72	-0.093134776
81	0x3dc7e846	0.097610995
82	0x3c43a177	0.011940352
83	0x3dd32b5d	0.10311005
84	0x3e0877ba	0.13326922
85	0xbd569100	-0.052384377
86	0xbd9967b4	-0.07490483
87	0xbec44727	-0.38335535
88	0x3e16ffb3	0.14745979
89	0xbd372c55	-0.044720013
90	0xbe178bb5	-0.14799388
91	0x3bfaab17	0.00764979
92	0xbdc5b1af	-0.09653031
93	0xbdb59eb2	-0.08868159
94	0xbd2dbff8	-0.042419404
95	0x3dd3acd6	0.103357
96	0xbe68dfc5	-0.22741611
97	0xbe9c75a0	-0.3055849
98	0xbe3311af	-0.17487215
99	0xbe2df5fd	-0.16988368
100	0xbf14be50	-0.58102894
101	0xbead5f7e	-0.33861917
102	0x3e672f60	0.22576666
103	0xbe69cd8a	-0.22832313
104	0xbd8611c3	-0.065463565
105	0x3c879edc	0.016555242
106	0xbed752b7	-0.42055294
107	0x3e57a491	0.21058871
108	0xbe036889	-0.12832846
109	0x3e700d16	0.23442492
110	0xbdf55fb6	-0.11981146
111	0xbc5c5af0	-0.013449416
112	0xbe536374	-0.20643407
113	0xbdda949a	-0.10672875
114	0x3e930136	0.2871186
115	0xbdba61cd	-0.09100685
116	0xbdd4fc7c	-0.1039972
117	0xbe72a3aa	-0.23695245
118	0x3a5d18ce	0.0008434177
119	0xbee747e1	-0.45172027
120	0x3c26915d	0.010166493
121	0xbea22bc3	-0.31674013
122	0x3e12221c	0.14270824
123	0xbe85ddc8	-0.26145768
124	0x3d5487b7	0.05188724
125	0xbe91f6f3	-0.2850872
126	0x3da8487e	0.08216952
127	0xbe00741f	-0.12544297

fc2.weight f4 [128, 128]
0	0x3d828ab3	0.06374111
1	0x3ea8706a	0.32898265
2	0x3e63fd18	0.22264516
3	0x3e0c6bcb	0.13712995
4	0x3e1388c0	0.14407635
5	0x3e7fa7c4	0.24966341
6	0xbf9b964e	-1.2155244
7	0x3eefa06e	0.46802086
8	0xbe879672	-0.26481968
9	0x3d11d25f	0.035601016
10	0x3dc99959	0.09843702
11	0x3d1b05c6	0.037847303
12	0xbe04ea1f	-0.12979935
13	0x3e97556e	0.29557365
14	0x3ecb3e59	0.39696005
15	0x3db24d5c	0.087061614
16	0xbc95853f	-0.018252013
17	0xbec5d072	-0.38635594
18	0x3db8c748	0.09022385
19	0x3e7a08ef	0.2441747
20	0x3cf31ffb	0.029678335
21	0xbe8be54b	-0.27323374
22	0x3dc67d7d	0.09691904
23	0x3dd86524	0.10566166
24	0x3d8afbaa	0.06786282
25	0xbd173fdb	-0.03692613
26	0x3eeaa93a	0.45832235
27	0x3e1a8dba	0.15093127
28	0x3c67b71c	0.014142778
29	0x3d1a1782	0.037620075
30	0x3d2a4ffd	0.04158019
31	0xbeb3c90c	-0.35114324
32	0xbe09359a	-0.13399354
33	0xbf3c6765	-0.7359527
34	0xbd64cba4	-0.05585827
35	0xbd67d9d6	-0.05660423
36	0xbd507e78	-0.05090186
37	0x3e24755b	0.16060393
38	0xbf08bd71	-0.53414065
39	0x3b3ff7e3	0.002929204
40	0x3da2e83a	0.0795445
41	0xbddbd3f5	-0.10733787
42	0x3bb9bf09	0.005668525
43	0x3eed84ef	0.46390483
44	0xbece8858	-0.40338397
45	0xbdfd0752	-0.12354912
46	0x3e04db56	0.12974295
47	0x3d15ac16	0.036541067
48	0xbea952fe	-0.3307113
49	0xbe1127c9	-0.14175333
50	0xbdc69fe0	-0.096984625
51	0xbde80bb1	-0.11330355
52	0x3e4efe73	0.20214252
53	0x3f0cd390	0.5501032
54	0xbe00bc19	-0.12571754
55	0xbeb0de8b	-0.34544787
56	0xbf3d33f9	-0.7390743
57	0x3d60938e	0.05482822
58	0x3e451c1f	0.19249009
59	0x3e765469	0.24055637
60	0xbd15be0c	-0.036558196
61	0xbe41dc26	-0.18931636
62	0xbee440f8	-0.44580817
63	0x3e812667	0.2522461
64	0x3e3e9a60	0.18613577
65	0x3ebdbbb6	0.37057275
66	0x3d4297f4	0.047508195
67	0xbeab02df	-0.33400628
68	0xbed03a8b	-0.40669665
69	0x3e38ef72	0.18060091
70	0xbeb956c7	-0.36199018
71	0x3daeeae7	0.08540898
72	0x3e6208fc	0.2207374
73	0xbdc96c33	-0.098350905
74	0xbed7bc33	-0.42135772
75	0xbe34a5aa	-0.17641321
76	0x3e8772f7	0.264549
77	0xbe327ee6	-0.1743122
78	0x3e6e5602	0.23274997
79	0x3e618690	0.22023988
80	0xbea52b43	-0.3225957
81	0x3e0e6d82	0.13908961
82	0xbc66ca0b	-0.014086257
83	0xbeef93eb	-0.4679254
84	0xbd9e8429	-0.07740051
85	0x3dbe9b8a	0.093070105
86	0x3dc05c6c	0.09392628
87	0xbd937304	-0.07199672
88	0xbee9d768	-0.45672154
89	0x3e3af500	0.18257523
90	0x3e9edce5	0.31027904
91	0xbf5e2606	-0.8677677
92	0x3e3e3b82	0.18577388
93	0x3d27866f	0.04089969
94	0xbe5bc01d	-0.21460004
95	0xbf00f994	-0.50380826
96	0x3e979fd9	0.29614142
97	0x3f018cbf	0.50605386
98	0x3ee98fd5	0.45617548
99	0x3eb3a080	0.3508339
100	0x3dfafb7e	0.122549996
101	0x3e9102b7	0.28322384
102	0xbed7b455	-0.4212977
103	0x3e898ab0	0.26863623
104	0x3d710cbc	0.058850035
105	0xbfa03830	-1.2517147
106	0x3f1ceeb3	0.61301726
107	0x3df9ed47	0.1220346
108	0x3e96d7c7	0.294615
109	0xbeb1bd7b	-0.34714875
110	0xbdb17a13	-0.08665862
111	0xbef084e7	-0.46976396
112	0x3acc1d4c	0.0015572696
113	0x3e9e3ac0	0.30904198
114	0x3c2560d8	0.01009389
115	0x3e6aae0f	0.2291796
116	0x3eb0dcfb	0.34543595
117	0x3eec8193	0.46192607
118	0x3dccb470	0.09995353
119	0x3e57f384	0.21088988
120	0x3cc212fc	0.023690693
121	0xbe7bbc4e	-0.24583551
122	0xbd9e08ea	-0.07716544
123	0x3e8bf74e	0.27337116
124	0x3e7140ab	0.23559825
125	0xbcc1823b	-0.023621669
126	0xbca4b146	-0.020104062
127	0x3e8c2c35	0.27377477
128	0xbdac098b	-0.08400258
129	0xba2b504d	-0.0006535098
130	0xbce4b0f4	-0.02791641
131	0x3e0fc3d3	0.14039545
132	0x3e87747a	0.26456052
133	0x3dad377f	0.08457851
134	0xbe3c0f69	-0.18365254
135	0x3e65f7b9	0.2245778
136	0xbce8bd3d	-0.028410548
137	0xbe1e433d	-0.15455337
138	0x3e220a2d	0.15824194
139	0x3e71b58f	0.23604415
140	0xbd221a84	-0.03957607
141	0x3d590480	0.052982807
142	0x3e47daab	0.19517009
143	0xbe8f700a	-0.28015167
144	0x3ee07f89	0.43847302
145	0xbdadddc1	-0.08489562
146	0x3d7c8cb4	0.061657622
147	0x3d01b3c3	0.031665575
148	0xbcf7fc95	-0.030271808
149	0xbe35b6fb	-0.17745583
150	0x3de74f1a	0.11294384
151	0xbc81f578	-0.015864119
152	0x3da01ca0	0.0781796
153	0xbda79454	-0.08182588
154	0x3e701533	0.23445587
155	0xbd174480	-0.03693056
156	0x3d43b335	0.047778327
157	0xbd1c71e9	-0.03819457
158	0xbd886f2e	-0.06661831
159	0xbcd2df3e	-0.025741216
160	0x3d5ab0f8	0.053391427
161	0xbf05492b	-0.5206477
162	0x3dd71fb8	0.10504097
163	0x3e27dc99	0.16392745
164	0x3ceb0566	0.028689098
165	0x3cd5adda	0.026083875
166	0xbd949861	-0.072556265
167	0x3d3ad0ac	0.04560916
168	0xbdf81d71	-0.121149905
169	0x3dec2719	0.11530895
170	0x3cd2b0c7	0.02571906
171	0x3c62135e	0.013798563
172	0xbe766a8e	-0.24064085
173	0xbcbb6fec	-0.022880517
174	0xbecc9ff5	-0.39965788
175	0x3ddd9cdc	0.10820934
176	0xbf0b097d	-0.5431135
177	0x3cb061d5	0.021531025
178	0xbcdba5de	-0.02681249
179	0x3d5289d4	0.051400974
180	0x3e5484a1	0.20753719
181	0x3e640229	0.22266449
182	0xbe0aaa5e	-0.13541552
183	0xbd049a43	-0.032373678
184	0xbe709284	-0.23493391
185	0xbc7553a8	-0.0149735585
186	0x3dd84e94	0.105618626
187	0x3e1bf531	0.15230252
188	0xbd15ba85	-0.036554832
189	0x3e5802ce	0.2109482
190	0x3da0bf8d	0.078490354
191	0xbe286ac3	-0.16446976
192	0x3e583b4d	0.21116371
193	0x3e5a57a1	0.2132249
194	0xbe7d208f	-0.24719451
195	0xbec64778	-0.387264
196	0xbed5e6e0	-0.41777706
197	0x3d5bde00	0.053678513
198	0x3e15efef	0.14642309
199	0xbe019ed1	-0.1265824
200	0x3df77df4	0.120845705
201	0x3e6a4fc4	0.2288199
202	0x3c2a7838	0.010404639
203	0x3d6d61c8	0.05795458
204	0x3e92a95b	0.28644833
205	0xbe59dad2	-0.2127488
206	0x3e4a3426	0.19746456
207	0x3b804a5c	0.0039151143
208	0xbd880546	-0.06641631
209	0x3e5b3e5a	0.21410504
210	0xbf010d32	-0.5041076
211	0xbf2b67d6	-0.66955316
212	0x3e12aa47	0.14322768
213	0xbe259595	-0.16170342
214	0xbdb0ab3d	-0.08626411
215	0xbd4d73e0	-0.050159335
216	0xbe009a82	-0.1255894
217	0x3ea4d278	0.32191825
218	0xbcfafa19	-0.030636834
219	0xbde4ab24	-0.11165455
220	0x3dd0a08a	0.101868704
221	0xbe260066	-0.1621109
222	0xbec95189	-0.3932002
223	0xbc32a579	-0.01090371
224	0x3d11be66	0.03558197
225	0x3c9301e3	0.017945236
226	0x3e6d0a0d	0.23148365
227	0x3e9e7610	0.3094945
228	0xbd8795cf	-0.066203706
229	0x3e3d1239	0.18463983
230	0x3e206c30	0.1566627
231	0xbd956dc2	-0.07296325
232	0x3ed52694	0.41630995
233	0x3df1ecc7	0.1181274
234	0x3ea4abc7	0.32162306
235	0xbe417a47	-0.18894301
236	0xbeabe7ef	-0.3357539
237	0xbdd8c515	-0.105844654
238	0x3e8e6f89	0.2781947
239	0xbdcf720f	-0.10129177
240	0xbbfbae1e	-0.0076806685
241	0x3e6a4348	0.22877228
242	0x3e1c1512	0.15242413
243	0xbde9b081	-0.114106186
244	0x3d893ab8	0.06700653
245	0x3e6090f6	0.21930298
246	0x3d110774	0.0354075
247	0x3e70e465	0.23524626
248	0x3e6c4869	0.23074497
249	0x39a187a2	0.00030809367
250	0xbf01781e	-0.5057391
251	0x3e7df297	0.24799572
252	0x3e24f101	0.1610756
253	0xbe524e16	-0.205376
254	0x3ebb79ff	0.36616513
255	0x3da090cb	0.07840117

fc2.bias f4 [128]
0	0xbe9cac85	-0.30600372
1	0xbdce39f7	-0.1006965
2	0xbe40938c	-0.18806285
3	0xbd70aea5	-0.058760304
4	0x3e664b2d	0.22489615
5	0x3e7c5895	0.24643166
6	0x3db49b8d	0.088187315
7	0x3e1fb1df	0.15595196
8	0x3e1da20a	0.15393844
9	0x3cd3c405	0.025850305
10	0x3d84ea22	0.0648997
11	0xbe10ca0f	-0.14139579
12	0xbd5a954a	-0.05336503
13	0xbd743f73	-0.059630822
14	0xbe8f19c0	-0.27949333
15	0x3ba639cd	0.0050728084
16	0x3e229b50	0.1587956
17	0x3ecc234d	0.39870682
18	0x3ea1957a	0.31559354
19	0x3e1373df	0.1439967
20	0x39fc393c	0.00048107828
21	0xbe2f5605	-0.17122658
22	0x3cfac2ea	0.03061052
23	0x3e17bbdd	0.14817758
24	0x3d85f417	0.06540697
25	0x3e610deb	0.21977966
26	0xbe052dc6	-0.13005742
27	0x3e58ba4b	0.21164815
28	0x3dd2c649	0.10291726
29	0xbdb0ee46	-0.08639197
30	0x3e1b2b95	0.15153344
31	0xbabf313b	-0.0014586815
32	0xbc293216	-0.010326883
33	0x3d267d6d	0.04064696
34	0x3da1a2b2	0.0789236
35	0xbd96c4d2	-0.07361759
36	0xbe8444f0	-0.25833845
37	0x3e2bc268	0.16773379
38	0x3e8971cb	0.2684463
39	0xbd9d6b3e	-0.076864704
40	0x3e046689	0.12929739
41	0xbb8f0b29	-0.004365344
42	0x3d0b2f56	0.03398069
43	0x3dd2a2a9	0.10284931
44	0xbe78b3c9	-0.24287333
45	0xbda6a17b	-0.08136269
46	0x3e9b0046	0.30273646
47	0xbcf5b641	-0.029994132
48	0xbcc42ca1	-0.023947062
49	0x3da282b3	0.07935085
50	0x3d693ed8	0.056944698
51	0xbb2dd640	-0.0026525408
52	0xbbbcea94	-0.0057652686
53	0x3cbbf74b	0.022945067
54	0x3c574b2a	0.013140479
55	0xbe65c944	-0.22440058
56	0xbba19412	-0.0049309814
57	0x3d04f368	0.032458693
58	0xbc71488d	-0.01472677
59	0xbe9d2a14	-0.30696166
60	0x3b41d040	0.002957359
61	0x3dce5d30	0.10076368
62	0xbd912baf	-0.0708841
63	0xbddc727c	-0.10764024
64	0xbdba42f1	-0.09094799
65	0x3deb2a44	0.11482671
66	0x3e8c7963	0.2743636
67	0x3e58cd29	0.21172012
68	0x3def2afb	0.1167812
69	0x3e81fa70	0.2538638
70	0x3ecbbc82	0.39792258
71	0xbb31b060	-0.0027113184
72	0x3d2280a0	0.039673448
73	0xbe613432	-0.21992567
74	0x3dce1eb2	0.100644484
75	0x3d42069f	0.047369596
76	0xbe9a56ac	-0.3014425
77	0xbe662574	-0.22475225
78	0xbdffc51d	-0.12488768
79	0x3e1dfe7a	0.15429106
80	0xbdc51ebd	-0.096250035
81	0x3e21f074	0.15814382
82	0xbe22b0ab	-0.15887706
83	0x3dc1a3ff	0.09455108
84	0xbdc522fc	-0.09625813
85	0x3e108243	0.14112191
86	0x3e6e951a	0.23299065
87	0x3d5f3536	0.054494105
88	0xbe5de6b3	-0.21670036
89	0xbe69be1b	-0.22826426
90	0x3d0758f8	0.03304383
91	0xbd21dfa5	-0.039519925
92	0x3e98df74	0.2985798
93	0xbd206f22	-0.039168485
94	0xbc65c1e3	-0.014023277
95	0x3da0a9cf	0.078448884
96	0xbd999d08	-0.075006545
97	0x3d792ac5	0.060831804
98	0x3e61f256	0.220651
99	0xbe89f50c	-0.26944768
100	0x3d95cdcf	0.073146455
101	0xbd5b4c88	-0.053539783
102	0x3e0eb3f6	0.13935837
103	0xbba97f1c	-0.0051726233
104	0x3d5c48c6	0.05378034
105	0x3d3bb524	0.045827046
106	0x3e320036	0.17382893
107	0xbeaf56c4	-0.34245884
108	0x3e0a2e9f	0.13494347
109	0x3d84a486	0.06476693
110	0xb9993697	-0.00029223107
111	0x3eafc0f2	0.34326893
112	0x3dd87c17	0.10570543
113	0xbe9cfbb9	-0.306608
114	0x3d8a04e1	0.06739212
115	0x3de2b01d	0.11068747
116	0x3e25f755	0.16207631
117	0xbe90bb16	-0.28267735
118	0x3d3cbbd6	0.04607757
119	0xbd67ddb9	-0.056607936
120	0xbe250b3c	-0.16117567
121	0x3e8518b3	0.25995407
122	0x3d10c8cc	0.035347745
123	0x3e5aeb23	0.2137876
124	0xbd847d48	-0.06469208
125	0xbdc0cfb9	-0.0941462
126	0x3e9cdd1c	0.30637443
127	0x3d1f5d02	0.03890706

fc3.weight f4 [4, 128]
0	0xbe3faa40	-0.18717289
1	0xbcffb3d9	-0.031213688
2	0xbe6472c5	-0.22309406
3	0xbbe07a5f	-0.0068505253
4	0xbf0daa2f	-0.55337805
5	0x3f6a78e0	0.9159069
6	0x3f79be10	0.9755564
7	0xbe1c5f7d	-0.15270801
8	0xbe6c4bc6	-0.2307578
9	0xbc1eef61	-0.009700627
10	0x3f4c0e17	0.79709
11	0xbe8494bb	-0.25894722
12	0x3e8fd3c1	0.28091243
13	0xbe7d09c7	-0.24710761
14	0xbe459410	-0.19294763
15	0x3e845687	0.25847265
16	0xbea5cdd0	-0.32383585
17	0x3e121c6f	0.14268659
18	0x3f2a7f5c	0.66600585
19	0x3f402f21	0.75071913
20	0xbd1eec51	-0.038799588
21	0xbed3e950	-0.4138894
22	0x3f90a944	1.1301656
23	0x3f2dad0f	0.6784219
24	0x3fa90186	1.320359
25	0xbe88b1be	-0.26698107
26	0xbf12628f	-0.5718164
27	0xbdfff516	-0.12497918
28	0x3ee577a9	0.44817856
29	0x3d46cc34	0.048534587
30	0xbe803d1b	-0.2504662
31	0xbeab00fa	-0.33399183
32	0xbdf64515	-0.12024895
33	0xbe79fef8	-0.24413669
34	0x3f49c51c	0.7881639
35	0x3d5aa0e3	0.05337609
36	0xbeb122d7	-0.34596893
37	0x3eb08622	0.34477335
38	0x3ea516ce	0.3224396
39	0xbd1ebac7	-0.038752344
40	0x3eaa3993	0.3324705
41	0x3cade16f	0.02122566
42	0xbeb42d1e	-0.35190672
43	0xbe63769d	-0.22213216
44	0xbe9ba4fc	-0.3039931
45	0x3f0b9157	0.54518646
46	0x3f1e8763	0.61925334
47	0x3ddb3b46	0.10704665
48	0xbe79b69b	-0.24386065
49	0xbe922005	-0.28540054
50	0x3efcfcb1	0.49411538
51	0xbd8962b9	-0.06708283
52	0x3e2b0f49	0.1670505
53	0x3f575efa	0.841293
54	0xbf006a5b	-0.50162286
55	0xbe2a35d2	-0.16622093
56	0xbf03c6b7	-0.5147509
57	0xbe3b551c	-0.18294185
58	0xbce1a061	-0.027542295
59	0xbe777c0f	-0.24168418
60	0xbe2aeab7	-0.16691099
61	0xbe3aceda	-0.1824297
62	0x3d49c70b	0.049262088
63	0xbd76b305	-0.06022932
64	0xbec1ee5c	-0.37877166
65	0xbe900307	-0.2812731
66	0x3f5ef288	0.87088823
67	0xbdc8d96b	-0.09807094
68	0x3f4e229a	0.8052155
69	0x3f1c9b08	0.6117406
70	0xbe544166	-0.20728073
71	0x3da902c4	0.082524806
72	0xbe763dc7	-0.24047004
73	0xbebabac8	-0.36470628
74	0xbe85002c	-0.25976694
75	0x3d43465e	0.04767453
76	0xbe7e3be9	-0.24827541
77	0xbe1d077a	-0.15334883
78	0x3d1036f6	0.035208665
79	0xbe884819	-0.26617506
80	0x3d5225ca	0.05130557
81	0x3f53f5f4	0.8279717
82	0xbe9d1e1b	-0.3068703
83	0xbea1a831	-0.31573632
84	0x3ec60ca0	0.38681507
85	0x3f33134d	0.69951326
86	0xbe280a08	-0.16410077
87	0x3e703d8a	0.23460975
88	0xbec0a770	-0.37627745
89	0xbe9102c8	-0.28322434
90	0x3cfa7d9b	0.030577471
91	0x3d09e375	0.033664186
92	0x3f60c37e	0.877983
93	0x3d4759ee	0.048669748
94	0xbe50aaff	-0.2037773
95	0x3f6fd66e	0.9368657
96	0xbefa5cd1	-0.48898938
97	0xbe82d8ce	-0.25556034
98	0xbe835dbd	-0.25657454
99	0xbe996499	-0.29959562
100	0xbd83b6a4	-0.0643132
101	0x3d14de31	0.03634471
102	0xbe85db89	-0.26144055
103	0x3f05f679	0.5232921
104	0x3d688feb	0.056777876
105	0xbea6a987	-0.32551214
106	0xbe4dacc7	-0.2008544
107	0xbd856486	-0.06513314
108	0x3db491d6	0.088168785
109	0xbe9cdfb1	-0.30639413
110	0x3d745c98	0.059658617
111	0xbf024947	-0.5089306
112	0x3ea1e5f3	0.3162075
113	0xbeb96323	-0.36208448
114	0xbe6bf0b0	-0.23041034
115	0xbe1cda6b	-0.15317695
116	0xbe70d20d	-0.23517628
117	0xbe86fbc6	-0.26363963
118	0x3f2107ef	0.6290273
119	0xbe78b087	-0.2428609
120	0xbe6457fa	-0.22299185
121	0xbe6ff961	-0.23434974
122	0x3e504e97	0.2034248
123	0x3f50d9ab	0.81582135
124	0xbeae7e5f	-0.34080788
125	0xbe8f44eb	-0.27982268
126	0xbf137a92	-0.576089
127	0xbe55d446	-0.20881757
128	0xbebdf16e	-0.3709826
129	0x3e8869cc	0.26643217
130	0xbe9f4c30	-0.31112814
131	0xbd23d0df	-0.039994117
132	0xbed2b6c7	-0.41155073
133	0x3f52dcc6	0.82368124
134	0x3f6cf2fa	0.9255825
135	0x3de7bc0a	0.113151625
136	0xbe4d67b3	-0.2005909
137	0x3d38d823	0.045128
138	0x3f403ec1	0.75095755
139	0xbe9612ca	-0.2931121
140	0x3def09dc	0.116718024
141	0xbe705887	-0.2347127
142	0xbee6002c	-0.44922006
143	0x3e263f6c	0.16235131
144	0xbe7724c0	-0.24135113
145	0x3e9e5634	0.30925143
146	0x3efb315c	0.49061096
147	0x3f575d97	0.8412718
148	0xbde86706	-0.11347775
149	0xbeb644f5	-0.35599485
150	0x3f796b90	0.9742975
151	0x3f4b5584	0.7942736
152	0x3f8c9722	1.0983622
153	0xbe03a339	-0.12855233
154	0xbe73bf3a	-0.23803416
155	0xbe8d35b3	-0.27580032
156	0x3e8ef128	0.27918363
157	0x3da9584a	0.08268793
158	0xbf1718e6	-0.59022367
159	0xbe98d332	-0.2984863
160	0xbe99f8b1	-0.3007255
161	0xbebfaa4f	-0.37434623
162	0x3eeb9b9c	0.46017158
163	0x3d83a3c9	0.06427724
164	0xbe9cb199	-0.30604246
165	0xbdba3025	-0.09091214
166	0x3f259c74	0.64691854
167	0xbd369e04	-0.04458429
168	0x3eb0e675	0.34550825
169	0x3ede94f5	0.4347302
170	0xbe9a4761	-0.30132583
171	0xbe71afae	-0.23602173
172	0xbe3ddb63	-0.1854072
173	0x3e8e8906	0.27838916
174	0x3f7b5d28	0.9818902
175	0x3d238b62	0.039927848
176	0xbe84cf50	-0.25939417
177	0xbe975ee8	-0.29564595
178	0x3f590cc8	0.8478513
179	0x3d2be0b5	0.041962344
180	0xbf32ade1	-0.6979657
181	0x3f368a85	0.71305114
182	0xbe6c0219	-0.23047675
183	0xbebe8260	-0.37208843
184	0xbeb5f2c5	-0.3553678
185	0xbeafd440	-0.3434162
186	0xbf1a2ac2	-0.60221493
187	0xbdcc5d75	-0.09978763
188	0xbea67fa3	-0.32519254
189	0xbe846a87	-0.25862524
190	0x3d5b7b9e	0.053584687
191	0x3d8abbdd	0.06774113
192	0xbebc3954	-0.36762488
193	0xbe8ca825	-0.27472034
194	0x3f2c3652	0.67270386
195	0xbe5622e7	-0.20911752
196	0x3f93ddf0	1.1552105
197	0x3ec189c7	0.37800428
198	0xbf0caf19	-0.5495468
199	0x3b6d26ea	0.0036186525
200	0xbe6c1832	-0.23056105
201	0xbe709d03	-0.23497395
202	0xbe806dcb	-0.25083765
203	0x3b8c666e	0.0042846715
204	0xbec4ce95	-0.3843886
205	0xbe869ad1	-0.2628999
206	0x3d02627b	0.0318322
207	0xbde55651	-0.11198104
208	0x3da04b78	0.078268945
209	0x3f8a7b28	1.0818834
210	0xbe8b2bc2	-0.27181822
211	0xbe841af4	-0.25801814
212	0x3f5af191	0.8552485
213	0x3f16c169	0.5888887
214	0xbe79fda3	-0.24413161
215	0x3ed9552a	0.42447788
216	0xbea5e549	-0.32401493
217	0xbea6cafa	-0.32576734
218	0xbd79cec9	-0.06098822
219	0xbd51743b	-0.051136237
220	0x3f7704ab	0.964915
221	0xbdc93707	-0.09824949
222	0xbe9e9e7c	-0.3098029
223	0x3f8b8f17	1.0903043
224	0xbe5c7bbe	-0.21531579
225	0xbe8a8770	-0.27056456
226	0xbe7b002a	-0.24511781
227	0xbeb6ed09	-0.35727718
228	0x3e9ae5a1	0.30253318
229	0x3e4f42c3	0.20240311
230	0xbe5f825f	-0.21827076
231	0x3edad285	0.4273874
232	0x3ced01e4	0.028931566
233	0xbef835f4	-0.48478663
234	0xbe68ead4	-0.2274583
235	0xbebbcdd2	-0.36680466
236	0x3f16e157	0.5893759
237	0xbe827203	-0.2547761
238	0x3d629491	0.055317465
239	0xbf062579	-0.5240093
240	0x3e7d57c9	0.24740519
241	0xbe9d97fe	-0.30780023
242	0xbe9b2f50	-0.30309534
243	0xbe4a3201	-0.19745637
244	0xbe3666b9	-0.17812623
245	0xbe9a18b2	-0.30096966
246	0x3e7d7ce0	0.24754667
247	0xbed73932	-0.42035824
248	0xbea90abc	-0.33016002
249	0xbe76f980	-0.24118614
250	0x3de0ef5d	0.10983155
251	0x3f15a634	0.5845673
252	0xbef59ca7	-0.4797108
253	0xbe81e08e	-0.25366634
254	0xbf12a7c2	-0.5728723
255	0xbebf41db	-0.3735493

fc3.bias f4 [4]
0	0x3a486134	0.0007643879
1	0xbcb51e31	-0.022109123
2	0x3e281b11	0.16416575
3	0xbe68d55d	-0.22737642
